assets/vectorized/dialogue_vectors.safetensors (safetensors, 161656 bytes, 100 tensors)

friendly_goodbye_0 f4 [384]
000000 8f 1c af bc a0 e2 b0 bd 1e 37 42 3c e5 20 01 3c
       -0.021375922 -0.08636975 0.011853961 0.007881378
000010 bb a3 60 bc 0f c5 19 3c 82 a4 50 3b 3a 37 86 bd
       -0.013710911 0.009385361 0.0031836336 -0.065535024
000020 b3 36 d8 bc 98 ff 8e bd 4a 3d db bb f4 e6 17 bd
       -0.02639327 -0.069823444 -0.006690656 -0.03708549
000030 b1 90 01 3d 85 cc 1c 3c 8e f2 f1 bc 03 46 ac 3b
       0.03163213 0.009570246 -0.029534604 0.0052573695
000040 46 bc 36 bc ad 49 f5 3c 06 bd a2 bc ae 2b 59 bc
       -0.011153286 0.029942358 -0.019865524 -0.013255043
000050 24 09 8c 3b 3b 51 40 bd 8d 86 05 bd fd e3 e6 3c
       0.0042735506 -0.046952467 -0.03259902 0.028184885
000060 92 d5 8e bd b3 70 6c 3c 79 54 e1 3c d2 c2 8b 3d
       -0.06974329 0.014431166 0.0275061 0.068242684
000070 69 8a de bc fd b7 8b bd b8 70 4a bd dc e3 e7 3d
       -0.027165608 -0.06822202 -0.049423903 0.113227576
000080 b8 c2 f5 bd 47 7e 44 3d c8 42 bb 3d 54 45 71 3d
       -0.1200003 0.04797199 0.09143597 0.058904007
000090 2d e3 27 3d 3d 6a d3 bc 2d bb 35 3d 20 59 a2 3c
       0.040988136 -0.025807494 0.044367958 0.019817889
0000a0 5a 97 50 bc 20 26 16 3d 60 08 2d bc 79 5a 16 3c
       -0.0127313975 0.036657453 -0.010561079 0.009176844
0000b0 d4 bf 8d 3c 90 46 6a 3d d0 3e 84 3c 0c f3 1b bd
       0.017303385 0.0571962 0.016143233 -0.038073584
0000c0 b0 24 99 3d 76 89 86 3d 78 d7 b9 bc e5 f6 89 3d
       0.07477701 0.06569187 -0.022685751 0.067365445
0000d0 4a 6d 5d bd ca 3e 8b 3d 8b 30 3c 3d db 03 52 3d
       -0.054059304 0.067990854 0.04594473 0.051273208
0000e0 1f 47 44 3d 87 b1 85 bd d0 2a 14 bd 8a a5 09 3d
       0.04791939 -0.06528001 -0.03617364 0.033605136
0000f0 9d ec 23 3d 12 a5 51 3c ef e1 92 bd 55 f7 f7 3c
       0.040020574 0.0127957035 -0.07172 0.030269304
000100 4f de 66 bd 5b 2b 0f bd 40 0c b8 bc 6f 76 2a 3b
       -0.056364354 -0.034953456 -0.022466779 0.0026010533
000110 59 2a 46 3c c7 f4 43 3c 06 7f c4 bc 52 1c ed 3d
       0.012095057 0.011960215 -0.02398635 0.11577667
000120 a7 10 15 bd 51 5b 37 3d ed 4c 0e 3d 5e 01 ca 3c
       -0.036392834 0.04476482 0.03474133 0.024658855
000130 23 6f 47 bb 53 e7 ff bb 59 fc bb 3c fd 5f 25 3d
       -0.0030431233 -0.0078095584 0.022947477 0.040374745
000140 da bf 60 3d 16 8d 10 3d c8 a7 b0 bd 07 f6 1f 3d
       0.054870464 0.0352908 -0.08625752 0.03905299
000150 7c e9 b3 bd 85 0a 0b be aa c5 dc bc 72 50 05 3d
       -0.08784768 -0.13578232 -0.026949722 0.03254742
000160 1b f7 ab 3d be 86 41 bd 5e 66 6d 3d 55 e8 cf 3d
       0.08396741 -0.04724764 0.057958953 0.10151736
000170 9e 97 37 3d 78 8b 01 3d 8e 70 9e bd c8 e7 a7 bd
       0.044822328 0.03162715 -0.07736312 -0.08198506
000180 47 1c 38 bd a9 60 10 bc b3 7b f4 bb 76 8e b8 3d
       -0.044948842 -0.008812108 -0.007461035 0.09011547
000190 a3 18 1c bc 5c ef e8 bc af 4d 45 bc 0a ce 83 3b
       -0.009527358 -0.028434448 -0.012042447 0.0040223645
0001a0 7c d6 74 3b 3e 30 08 3b b3 1d ad 3d 7d 7e 98 3d
       0.0037359288 0.0020780708 0.0845293 0.07446001
0001b0 29 10 86 3c c4 dd 41 bd 74 c9 7c bc bc 1d cf 3a
       0.016365128 -0.047330633 -0.01542889 0.0015801708
0001c0 13 a7 b3 bb 5f 5c 69 3d 9b 14 f6 3b e1 ff 01 3d
       -0.0054825633 0.056972858 0.0075097806 0.031738166
0001d0 9a 69 c1 bc b8 42 93 3d bb ea bb 3d c7 b6 8d bd
       -0.023609925 0.0719046 0.09175631 -0.06919628
0001e0 bf 27 88 3c 19 6c 83 3c 26 25 8a 3c c3 46 30 bd
       0.016620515 0.016042756 0.016863417 -0.043036234
0001f0 08 d0 a8 3c bf a7 15 be cb 67 51 3d c1 43 a0 89
       0.02060701 -0.14614771 0.051124375 -3.8582314e-33
000200 be 4e c1 bd 0a 5e f1 3d 74 6a 25 3b f1 2d a2 bd
       -0.09438847 0.11785515 0.0025240453 -0.07918919
000210 df b7 91 3d f3 ef 0c 3d 48 2e 43 3c ed 2c 29 bd
       0.07115149 0.03440852 0.01191289 -0.04130261
000220 4a e9 7b bc 2a a9 93 bd 2e c1 bc 3c a8 5d ea bb
       -0.015375445 -0.0721 0.023041334 -0.007152278
000230 99 a5 9f bc cd 9c 41 bd e9 d4 a0 bd d1 b6 ad 3d
       -0.019488143 -0.047268678 -0.078531094 0.08482135
000240 92 ee 80 3c 99 89 8f bd c1 3b 25 3d 73 73 18 3d
       0.01573876 -0.070086665 0.04034019 0.037219476
000250 02 19 35 bc b2 ab 98 bc f3 0d 39 bc 33 9d be 3d
       -0.011053326 -0.018636558 -0.01129483 0.09307327
000260 b5 92 4e bd 55 02 8e 3a b7 5f 9a 3d 99 69 14 bd
       -0.05043288 0.0010834435 0.075377874 -0.03623352
000270 c2 60 21 3d 0f f2 1e 3c 07 22 6c 3c 6a e8 81 3b
       0.039398916 0.009701266 0.01441241 0.0039644735
000280 15 da 22 bb 89 eb 99 3c 89 dc 1e 3c 23 fc 5c ba
       -0.0024849225 0.01878907 0.009696134 -0.0008429905
000290 dd f6 6e bd d6 90 da 3a 49 42 8a bd 6a c5 be 3c
       -0.058340896 0.0016675245 -0.06750924 0.023287494
0002a0 98 1b 68 3d 01 14 c2 3c 15 2c cb bd 3e cd 23 bc
       0.05666694 0.02369118 -0.09920517 -0.009997664
0002b0 af 07 e6 3a b2 ad 0c bd 2a 15 db 3d d1 e4 f1 3c
       0.0017549897 -0.034345336 0.10697396 0.029528053
0002c0 10 c6 05 3d c7 24 70 bd 02 0d 91 bd 57 06 4c 3d
       0.03265959 -0.058628824 -0.07082559 0.049810734
0002d0 55 e0 71 3d 06 c5 6a bc b7 41 a7 bc 08 33 69 bd
       0.05905183 -0.014329201 -0.020417077 -0.056933433
0002e0 5a a6 d3 bd f8 7e 8d 3d 93 ab a3 bd 62 6b b8 3c
       -0.103344634 0.06908983 -0.079917096 0.022512142
0002f0 b1 02 49 3d 03 ae 7e 3d 90 26 c2 3d 40 86 16 be
       0.049074832 0.06217767 0.094800115 -0.1469965
000300 6f e1 aa bc 75 d3 8c bd 65 96 01 bd 2e 2a 6f 3c
       -0.020859448 -0.0687627 -0.031637568 0.014597459
000310 23 3b 72 bd f5 dd 65 3d 5d 88 34 3d d6 31 a2 bc
       -0.05913843 0.056119878 0.04407536 -0.019799154
000320 52 84 62 3c 8b b0 68 bd 68 bb 2f bd 73 66 56 3c
       0.013825493 -0.05680899 -0.042903334 0.013085949
000330 f2 26 a3 3c 03 c7 d0 bc ae 94 7e 3d a2 fd f4 bc
       0.019916032 -0.025485521 0.06215351 -0.029906098
000340 db dd 6a bd ab 73 bf 3c 6f 6f 96 bd 53 da f7 3c
       -0.057340484 0.023370584 -0.07345473 0.030255472
000350 7f 64 da 3d 14 19 db 3c 2f aa 9b 3c 9d af 9e bd
       0.10663699 0.026745357 0.019002048 -0.07748339
000360 f4 7d 7b 3c 60 59 ec 3c 80 d3 1e bd 54 90 51 3c
       0.015349854 0.028851211 -0.03877592 0.012790758
000370 d2 6d d4 3d a5 10 80 bd 61 24 86 bd c9 5a 35 09
       0.10372509 -0.06253175 -0.065499075 2.182977e-33
000380 0c 9f 74 3d ec b6 71 3b 6c 72 22 3d 1c f5 74 bd
       0.05972199 0.0036882712 0.039659902 -0.059804067
000390 c2 f7 cb 3c 3e 64 8e bc ca 6a 25 bd f4 40 08 3e
       0.024898414 -0.017381784 -0.040385045 0.13306028
0003a0 d5 8a 07 b9 cd f2 b5 3a 36 5e 11 3d 5b bf b3 3c
       -0.00012926322 0.0013881564 0.035490237 0.021941831
0003b0 44 80 80 3d 76 5a 4b bd 0b 84 18 bc 1b ce 4b 3c
       0.06274465 -0.049646817 -0.009308825 0.012439276
0003c0 0d 81 87 3d f8 a5 04 3d 4d 81 03 bd b0 6f 87 3c
       0.06616411 0.032384843 -0.032105733 0.016532749
0003d0 63 7b c6 3a 8c d6 7d 3c ab fd aa bc fb 4f 3d bd
       0.0015142973 0.0154930465 -0.020872911 -0.046218853
0003e0 48 95 d4 bd 9b f6 24 3d 29 24 c3 3d 97 f4 1a 3d
       -0.10380036 0.040274244 0.095283814 0.037830915
0003f0 8c 70 66 3c 52 56 d3 bc 25 ae 2b 3d 82 77 c0 bb
       0.014064919 -0.025797997 0.041914124 -0.0058736214

friendly_goodbye_1 f4 [384]
000000 d4 0c 8b bd 70 f6 16 bd ec 3e 68 3d 06 d1 62 ba
       -0.06789556 -0.036856115 0.056700632 -0.0008652363
000010 bc f5 6d 3d c3 25 3a 3c 8a ba 60 3d 27 ff 9e bd
       0.05809568 0.011361542 0.054865398 -0.0776351
000020 38 b8 9b 3b d8 94 cf bd 28 80 b1 bc 50 cf 60 bd
       0.004752185 -0.101358116 -0.021667555 -0.05488521
000030 3d b6 04 3d c3 01 20 bd 28 7e 8f 3c 1f 37 34 3d
       0.03240036 -0.03906418 0.01751621 0.04399788
000040 e4 7b 08 3d 26 d1 18 bc 47 b3 54 bd 0e 78 b5 bc
       0.033321276 -0.009327209 -0.051928785 -0.022151973
000050 91 b3 86 3b f7 7c 37 3d 0d 8a 36 3c 55 90 01 bc
       0.0041107615 0.04479691 0.011141312 -0.007907947
000060 7e bb 68 bd 2e c6 bd bb cc 59 23 3d de 06 b1 bb
       -0.05681943 -0.005791447 0.03988056 -0.00540243
000070 37 b5 7d bd 8e ec 41 3c ef b9 c1 ba fb 66 44 bd
       -0.061940398 0.011836184 -0.0014780144 -0.047949772
000080 61 2a 9c 3b 5b 9f 92 bc f3 9a a7 3d c8 37 1e 3d
       0.004765794 -0.017898252 0.08183851 0.038627416
000090 db eb ff 3c e6 b0 fd bd 43 80 a0 3d 25 35 1e 3d
       0.031240394 -0.12387256 0.07836964 0.0386249
0000a0 17 08 50 3b 34 45 04 bd 7d 8e e1 bc 0e 40 87 3d
       0.0031743103 -0.03229256 -0.027533764 0.06604014
0000b0 21 75 f6 39 b6 17 f5 3b 24 08 5d bd 61 3d 8d 3c
       0.00047008044 0.007479633 -0.05396284 0.017241182
0000c0 a0 f4 9f 3d 47 fa a1 b9 ca 8e 6c bc 1a 1f 57 3d
       0.078103304 -0.00030894784 -0.01443834 0.052519895
0000d0 c7 d5 83 bd 7f 56 0d 3d 8c 65 ef 3d 04 df 84 bb
       -0.06437259 0.034506317 0.116892904 -0.004054906
0000e0 ff 2b a9 3d 00 ac 25 bd 0f 79 6a 3d 16 66 28 3b
       0.08260345 -0.040447235 0.057244357 0.0025695614
0000f0 fe 90 fa bc 0e 7a 91 bc 9f 99 58 bc d0 8f aa 3d
       -0.030586716 -0.017758396 -0.01322022 0.08328211
000100 e2 5b bb bd f2 1c ee bb 18 2e 81 3d 4c ab 6e 3d
       -0.09148385 -0.007266634 0.0630762 0.05826883
000110 c7 4d cb 3c a7 9a 16 bd 5c e8 c3 bd 1b e6 c0 3c
       0.02481736 -0.03676858 -0.095658034 0.023547223
000120 36 86 c4 3b fa 68 c0 3d 5a 1b 10 3a ed af ca bc
       0.0059974445 0.09395023 0.000549724 -0.024742091
000130 45 73 91 3d c1 5f 91 bc 1d ef b8 3d f1 06 01 3d
       0.07102064 -0.017745854 0.09029982 0.03150076
000140 4b 05 b3 3d 32 48 59 bd a7 80 26 bd 75 54 67 bd
       0.08741244 -0.053047366 -0.040650036 -0.05647703
000150 d3 5f ac bd 3c d8 7a bd c2 c2 48 3d bc a6 df 3d
       -0.084167145 -0.061241373 0.04901386 0.10920474
000160 54 91 35 3d ce 0c f4 3c 56 d1 30 bd d9 47 0d bd
       0.04432805 0.029791262 -0.04316839 -0.034492347
000170 51 78 4b 3d 3d 6b d1 bb 25 63 b3 bd 73 a6 bc bc
       0.04967529 -0.0063909576 -0.08759145 -0.023028588
000180 af 3b 93 bc de 3d 87 3d d7 c1 82 bd 16 df 6a 3d
       -0.017972795 0.06603597 -0.06384628 0.057341658
000190 90 37 de 3c 6b 7b 2a 3c fd 2a f0 3c f9 07 5d bd
       0.027126104 0.010405402 0.029317373 -0.05396268
0001a0 4c 4c f2 3c e3 a8 0a 3c 3a a4 89 3a 12 17 a3 3c
       0.029577397 0.008463117 0.0010501214 0.019908462
0001b0 41 15 04 3d 41 ac 37 bd 19 06 36 bd 02 0e 88 3c
       0.03224683 -0.04484201 -0.04443941 0.016608242
0001c0 63 ee 52 bd 18 e4 cf 3d 67 ac 7e 3c 13 8e 36 3c
       -0.051496875 0.10150927 0.015544034 0.011142272
0001d0 dd 0e 7b bd 65 84 ad 3b 8d be c2 3d b5 9f 04 3b
       -0.06129347 0.0052953237 0.09509001 0.0020236794
0001e0 76 40 69 3d c9 76 0c 3d 76 1e 9b bd bf 1b be 3c
       0.05694624 0.03429297 -0.07574169 0.02320659
0001f0 c6 13 44 3d c6 2a 1a be 55 90 48 bd e5 15 20 8a
       0.04787042 -0.1505538 -0.04896577 -7.707838e-33
000200 26 61 a3 3c da 12 70 3d 6f 95 78 3d 70 d2 9a 3c
       0.019943785 0.05861173 0.060689386 0.018899173
000210 88 57 09 3d c2 0f dd 3c b0 18 d8 bc 8a b3 33 bd
       0.033530742 0.026985053 -0.02637896 -0.043872394
000220 cc 46 44 bd ba b9 b9 bc 9b 90 ea 3b a8 94 69 3c
       -0.04791908 -0.02267157 0.0071583516 0.014256634
000230 d2 2d 10 bd cb 18 a3 bd 56 07 ab 3c 48 b1 01 3d
       -0.035199948 -0.07963713 0.020877521 0.03166321
000240 bf c0 8d 3d 38 d7 e4 bd aa 0f 8f bd ee 05 05 3d
       0.06921529 -0.11173862 -0.069854096 0.032476358
000250 10 fe ac bd 54 0d ac bd cb 63 98 bc a1 6e eb 3c
       -0.08446896 -0.0840098 -0.018602272 0.028739275
000260 45 6f 0f bd 7d 28 19 bd 33 a5 82 bc 19 e2 9d bc
       -0.035018224 -0.03739213 -0.015947914 -0.01927285
000270 97 66 81 3b 54 0f ba bb c2 3f af bc 9b 94 bc 3d
       0.0039489972 -0.005678097 -0.021392707 0.09208032
000280 47 98 8f bc b8 1c 27 3d 47 5d 53 bd 16 4e 98 3c
       -0.017528666 0.040798873 -0.051602628 0.018591922
000290 e6 50 65 bd d6 28 9b bc 58 35 37 bd 2a dc 0c bd
       -0.055985354 -0.01894037 -0.044728607 -0.034389652
0002a0 a5 e1 1a bd e0 ea b4 3c 9f 51 31 bc 99 d1 07 3d
       -0.037812848 0.022084653 -0.010822683 0.033158872
0002b0 e3 bc b1 3d e8 89 7b 3d c3 85 96 3d d1 aa a1 3c
       0.086786054 0.061410815 0.07349732 0.019734772
0002c0 80 5a 29 3d f4 5b 20 bd 7f f4 85 bd a4 91 aa bb
       0.041346073 -0.039150193 -0.065407746 -0.00520535
0002d0 2b be 60 3d 22 eb 8d 3c 35 8c f6 bc 73 83 80 3b
       0.05486886 0.017324034 -0.030096153 0.00392192
0002e0 5e bc 58 bd 67 ad 9b 3c 18 df 2a bc 05 95 76 bc
       -0.052914016 0.019003583 -0.010429166 -0.015050177
0002f0 23 af c5 3c 1b 34 5a bd 52 1c 0c 3d 83 80 c9 bb
       0.024131363 -0.053272348 0.034206696 -0.006149353
000300 53 06 7b bd 03 b3 3b bc 71 c4 a5 3c b1 75 7f bd
       -0.061285328 -0.011456254 0.020235272 -0.0623681
000310 ce 19 69 3c 73 03 16 3d b5 85 97 bc fb d5 9e bb
       0.014227344 0.036624383 -0.018496374 -0.004847286
000320 b6 d6 e3 bc 63 f0 7a 3d a3 14 f9 3c 33 2a 4c 3d
       -0.027812343 0.061264407 0.030405348 0.04984493
000330 0c 49 63 bc d2 7b da bc ac 76 26 3d 24 a9 e6 3c
       -0.013872396 -0.02667037 0.040640518 0.028156824
000340 c0 9e 0e bd 25 c6 83 bc 7c 0b 6e bc 99 41 a6 bc
       -0.034819365 -0.016085694 -0.014529105 -0.020294951
000350 1b a8 2d 3e 97 b9 0b 3d ea 0b 6f 3c 9c 51 e0 bd
       0.16958658 0.03411254 0.014590243 -0.10953066
000360 d5 cd dd bd 05 34 08 bd cd 18 9f bc a3 f6 64 bc
       -0.10830275 -0.033252735 -0.019421006 -0.013974818
000370 c1 14 d1 3c 78 61 78 bd 0e f7 b5 bd f9 09 a7 09
       0.025522592 -0.06063983 -0.088850126 4.0213166e-33
000380 c1 44 00 3d 55 d9 42 bb aa d1 fa 3c 0a 3d 1c 3c
       0.03131557 -0.002973159 0.030617554 0.009536037
000390 d4 31 93 bc e0 f6 9a bd 32 59 4d 3d a9 c6 b4 3c
       -0.017968096 -0.07566619 0.05013389 0.022067385
0003a0 34 bd ee bc 76 11 6f bc e9 46 bb 3a c2 bb e9 3b
       -0.029142953 -0.014591565 0.0014288101 0.007132978
0003b0 88 a7 bf 3d 7c 90 f0 3c 92 f0 92 3c 8d 4e 0a 3b
       0.09358126 0.02936577 0.017936978 0.0021103949
0003c0 6f 4c 91 3d e3 31 2b bd 72 1d 03 3c c9 55 ad 3b
       0.07094657 -0.041795623 0.008002626 0.0052897674
0003d0 49 3a db bc 2a 69 d9 3d 87 3d f9 bc ed 79 63 3d
       -0.026761191 0.106157616 -0.030424846 0.0555362
0003e0 f7 e3 fe 3c 0e b9 8b 3d 5c e8 2c 3d 1d 2e 89 3b
       0.031114561 0.06822406 0.042213783 0.0041864053
0003f0 4c 9f 8f bd d4 0d a6 3b 82 65 b1 3c 42 5f 9f bd
       -0.07012805 0.0050675664 0.021654848 -0.07781841

friendly_goodbye_2 f4 [384]
000000 b0 89 84 3c ac 2a c9 bc ff d0 09 bd 37 f5 9b 3c
       0.016178936 -0.02455648 -0.03364658 0.019037826
000010 65 66 09 3d c4 c3 37 bc e3 4a f8 3d 86 d6 f2 bc
       0.033544917 -0.011216108 0.121236585 -0.029643308
000020 98 71 62 3c 78 e1 a0 3c c7 5a e4 3c ae 95 24 3d
       0.013821028 0.019638762 0.027875317 0.04018181
000030 40 b1 2b 3d 8c 77 d9 3c e8 e8 80 bd 46 9a 82 bd
       0.041917086 0.026546262 -0.06294423 -0.063770816
000040 fb 92 14 bc f8 f9 3c bd ae 42 77 bd db 21 c5 bc
       -0.009068246 -0.046136826 -0.060366325 -0.024063995
000050 05 28 4f bd b2 dc b4 3b 53 91 3b 3c 3f e9 77 3d
       -0.050575275 0.005519473 0.011448222 0.060525175
000060 2f 7d 69 bd 66 57 9a 3c 27 79 15 3d e0 e7 a7 3c
       -0.05700415 0.018840503 0.036492493 0.020496309
000070 cd 32 98 bd 7b 88 96 bc 81 6d fe bc 71 e8 0f 3d
       -0.074315645 -0.018375626 -0.031058075 0.035133783
000080 54 50 f9 bd a7 85 3a 3d f7 4b 9d b9 3d 44 17 3d
       -0.121735245 0.045537617 -0.00030001972 0.03693031
000090 1a 36 87 bb e7 d4 b7 bd ac 76 0f 3d 56 f9 f5 35
       -0.0041263225 -0.08976155 0.035025284 1.8326489e-06
0000a0 ba fa 56 bd 1c 2e 4f bc e8 59 36 3d 9e fd f4 3c
       -0.052485205 -0.012645271 0.044519335 0.02990609
0000b0 0a 64 29 bc 24 ab 14 bd ef 74 8a 3d e8 8f d5 bb
       -0.010338793 -0.036296025 0.067605846 -0.006517399
0000c0 ce 81 80 3d 83 de ad b9 fa de 0f 3c 9f 91 60 3b
       0.06274758 -0.00033162915 0.008781189 0.0034266484
0000d0 d5 f6 c4 bd 9d 50 68 3c 6b 79 37 bd b2 81 e8 bc
       -0.09617392 0.014179376 -0.044793528 -0.028382156
0000e0 ce 42 10 bd 4d b9 06 bd 50 4b e0 bd 80 8c c2 3c
       -0.03521996 -0.03289156 -0.10951865 0.023748636
0000f0 91 c3 85 3c ec 95 41 bd e0 a5 63 bd 54 e5 79 3d
       0.016328605 -0.047262117 -0.055578113 0.06100972
000100 08 33 b8 bc 62 d0 72 3d f9 5d ae bd 0c 09 e0 3d
       -0.022485271 0.05928076 -0.085140176 0.109392256
000110 21 b4 1a 3d 57 4c 69 3d 74 50 a6 bd ce 67 40 bc
       0.03776944 0.05695757 -0.08120814 -0.011743499
000120 3b 1e 43 bc 2c 9e 2d 3d cd 89 86 bc c9 18 5e bd
       -0.011909063 0.042387173 -0.01642313 -0.054222856
000130 6f 28 2b 3d 4d 72 0f bd 22 3a 28 3c a0 2b 3d bc
       0.041786607 -0.035021115 0.010267766 -0.011546046
000140 7a 30 98 3d 8f 6b 28 bd a8 3f 1e bd 44 a7 9a 3c
       0.07431121 -0.0411182 -0.038634926 0.018878587
000150 bd d3 ea 3c a1 01 2a bd a6 70 67 bc db ba 74 bd
       0.028665418 -0.04150546 -0.014125979 -0.05974851
000160 24 f9 b3 3c 56 7e 02 bd 0e 98 d6 bc 5f c7 ce 3c
       0.021969385 -0.031858765 -0.026195552 0.025241552
000170 ad fa 33 3d 48 51 82 3d 60 e6 39 bd 8d 88 9c bd
       0.043940235 0.063631594 -0.04538572 -0.076432325
000180 3a 28 fe bc 66 c2 94 3c d6 49 52 bd f4 ff 01 3d
       -0.03102504 0.018159103 -0.051339947 0.031738237
000190 12 10 0a 3d 14 36 23 3d 6a 45 c7 3d 87 f9 ef 3c
       0.033706732 0.039846495 0.097300366 0.029293789
0001a0 d4 9e de 3c 7b 06 1d 3d 68 4b 40 3d f4 9d 29 3c
       0.027175345 0.03833626 0.046946913 0.0103526
0001b0 09 5f e2 3a 9d 51 2e 3d 2b ec 9c bc d4 74 16 3c
       0.0017270754 0.0425583 -0.019155582 0.009183127
0001c0 1a d0 3c bc fc 3b 2b 3d aa 31 15 bd 93 84 06 3d
       -0.011524225 0.041805252 -0.036424316 0.032841276
0001d0 e1 e8 ea bd 51 72 e0 3c 19 ff 46 3a 71 1b d9 3d
       -0.114701994 0.02739826 0.0007591113 0.10600937
0001e0 ef 7a b1 3b 6f 94 22 3d fb 61 a2 3d de 70 bc 3c
       0.005416266 0.03969234 0.079288445 0.023003038
0001f0 e7 9e 95 bd b0 47 71 bd da 88 de 3d 38 91 22 8a
       -0.07305699 -0.058906257 0.10865946 -7.827329e-33
000200 d9 09 9d bc 57 c8 22 3d 30 da dd 3c 09 fa 03 3e
       -0.019169735 0.03974184 0.027081579 0.1288835
000210 e8 eb b8 3c c7 56 3d 3c 51 1b d3 bd be ad 5b bd
       0.022573426 0.011556334 -0.103079446 -0.05363249
000220 d3 4f 65 bd 7d 35 f7 bc 58 4f 7c 3d 7f 00 89 bd
       -0.05598433 -0.030176872 0.061599106 -0.06689548
000230 17 1d 2f bc 47 e3 22 bc 7c e5 72 3b ce 4a db 3b
       -0.010688088 -0.009941882 0.0037063053 0.006692267
000240 3e ee c7 3c d8 2a 49 3d 43 f3 15 bb f9 07 9d bd
       0.024405595 0.049113125 -0.002288059 -0.07667536
000250 55 1e 1e 3d d6 3b b3 bd 92 99 c9 3c 77 14 8a ba
       0.038603146 -0.08751647 0.02460936 -0.0010534663
000260 c0 9a db 3c 3e 47 c1 bc 0f c6 20 3c d4 e8 42 bd
       0.026807189 -0.023593541 0.009812846 -0.047585323
000270 61 0d f4 3d 3b 2b 48 3d b8 07 fd bd c5 a1 c7 3d
       0.11916614 0.048869353 -0.12354988 0.09747652
000280 66 6d a2 bc 7a cd 1b bd 0a e7 30 3c 24 d7 9d 3d
       -0.019827556 -0.038037755 0.0107972715 0.077070504
000290 e5 0e e1 bd f1 e5 9b bd e3 14 99 bc cf 81 a1 3b
       -0.10989169 -0.07612217 -0.018686717 0.0049288045
0002a0 1d 2e ad bc 51 ec 4e 3d 4c 4a 74 3c 39 ab 95 3d
       -0.021140153 0.050518338 0.014910292 0.07308049
0002b0 ac cc 01 3d 9a d2 e3 3d b1 93 2f bd 8f b4 ca 3c
       0.03168933 0.111241534 -0.04286546 0.0247443
0002c0 33 7c 29 bd 92 9a d6 3c 1c 4f 01 be 9c 7e 8d bd
       -0.04137821 0.026196752 -0.12627834 -0.069089144
0002d0 2c b1 28 bd df d5 5b bd 7f cb bc bd 6a 80 f7 ba
       -0.04118459 -0.05367076 -0.09218501 -0.0018882875
0002e0 eb 42 90 3d 9f de 39 3d c3 5f 5c bc f6 b7 e2 bc
       0.070440136 0.045378324 -0.013450566 -0.02767561
0002f0 e1 48 1a 3c b6 d5 d8 3d df d0 ee 3b ee f0 82 bd
       0.00941679 0.10587637 0.007288083 -0.0639361
000300 4e a0 35 3d 74 da 23 bc 0f fd f8 3c e2 47 88 bd
       0.04434233 -0.010000814 0.030394105 -0.066543356
000310 d8 54 87 3d fa 75 9a 3c 8b 81 87 bd 4b ae 6f 3d
       0.066079795 0.018855084 -0.06616505 0.058515828
000320 0c 0f 0c 3d 8f 21 0a bd db c0 ea 3c b6 6b 79 bb
       0.034194037 -0.03372341 0.028656414 -0.0038058585
000330 fa 06 3d bd 1a 22 1a 3c e9 61 a7 ba ef 3f 51 bd
       -0.04614923 0.0094075445 -0.0012770268 -0.051086362
000340 27 37 51 bd a5 8c 22 3d df 7e 2b bc b1 97 b4 3d
       -0.051077988 0.03968491 -0.01046726 0.08817995
000350 c6 40 9e 3d b1 50 13 bd 85 8a 12 bd d6 b9 33 bd
       0.07727198 -0.035965625 -0.035776634 -0.0438784
000360 45 5c 33 bd 19 9f f8 3c ea 95 78 bd 7c c5 73 bc
       -0.043789167 0.030349301 -0.060689844 -0.014878627
000370 59 81 96 3d 03 9d 55 3c 4c 7b ca bd 30 43 00 0a
       0.0734889 0.013037923 -0.09886798 6.1756124e-33
000380 e4 0f ab 3c 9d 92 85 bd 31 1c 10 3d b0 16 56 b9
       0.0208816 -0.06522105 0.035183135 -0.00020417082
000390 ac ed 4b 3d 96 00 49 bd 73 65 df bc 98 84 7a 3d
       0.04978721 -0.049072824 -0.027270054 0.061161608
0003a0 5c 54 ea 3d 2c 51 26 3d 38 75 c8 bd 57 9d 86 bd
       0.114418715 0.040604755 -0.09787983 -0.06572979
0003b0 c9 f4 e5 3d dc 32 71 3b d6 e7 f3 3d 6f 1b 19 bc
       0.1122833 0.0036803996 0.119094536 -0.00934492
0003c0 83 70 e2 3d ff 28 5c 3d 44 b0 ab bb a3 33 90 3d
       0.11056616 0.053750034 -0.0052395184 0.07041099
0003d0 2f 4b 47 bb 74 e4 8e bc 3e 28 a5 bd 50 3d 4a 3d
       -0.0030409803 -0.01744292 -0.08064316 0.04937488
0003e0 24 00 b5 bc 87 5f e9 3b 2a 96 54 bd 4a 50 35 bd
       -0.022094794 0.0071219834 -0.05190102 -0.044266023
0003f0 b3 c7 61 bd fd e3 b7 3c 90 5c 1e 3d 2f 76 43 3d
       -0.05512209 0.02244758 0.038662493 0.04772013

friendly_goodbye_3 f4 [384]
000000 ec d0 a2 3c fa 04 1b 3d 8c 8c 2e 3d 54 dd 68 bd
       0.019875012 0.037846543 0.042614505 -0.0568517
000010 c7 f2 97 bc cd 79 07 bd e3 95 97 3d 89 c4 ff bc
       -0.018548382 -0.033075143 0.074016355 -0.031221645
000020 6f e9 8d bc b3 7e 07 3c 21 29 5c bc 42 8b ba 3d
       -0.017323224 0.008269954 -0.01343754 0.091085926
000030 68 ec 62 3d 41 81 2b bd 5a 91 0a bd 21 01 57 3d
       0.055401236 -0.041871313 -0.033830024 0.05249131
000040 6e 13 80 3d 49 71 74 3c bd ec 39 bd dc 35 07 3d
       0.06253706 0.014919587 -0.045391787 0.03301035
000050 bf 67 ca bd 3e d0 b8 bd 3c 58 af bc a2 87 d4 bc
       -0.09883069 -0.09024094 -0.021404378 -0.025943581
000060 62 e6 e0 bb ed 46 0d b9 db e0 00 bc e8 70 e4 3c
       -0.0068634013 -0.0001347323 -0.00786611 0.02788587
000070 3d 27 8e bb 34 aa ae bd 3a 7b 8a bc 5c 31 e5 3d
       -0.0043381737 -0.085285574 -0.016904462 0.11191055
000080 59 59 d2 bd bb a7 01 3d 1e 56 f8 bc 24 e5 4c bc
       -0.10270948 0.0316541 -0.030314501 -0.012505803
000090 13 31 3e bd 94 10 37 bd 8c 82 23 3d d7 ea 49 3c
       -0.04643352 -0.044693545 0.03991942 0.012324057
0000a0 7d 07 fe bb 4e 43 65 bd 00 2a 46 3c 88 20 86 3d
       -0.0077523575 -0.05597239 0.0120949745 0.065491736
0000b0 d1 ac b2 bc 60 10 61 b9 44 c9 16 bd 9f c5 5a 3b
       -0.02181092 -0.00021463772 -0.036813036 0.0033381952
0000c0 ff ae 71 3c 67 11 89 3d cf d7 69 bd b8 8c f8 39
       0.014751195 0.06692772 -0.057090577 0.0004740709
0000d0 0a fa 22 bc 8d 3d 72 bd d1 dc 99 bc fe b3 d1 3c
       -0.009947309 -0.05914073 -0.018782051 0.025598522
0000e0 1a ca b0 3c 4c de 6a bd e4 25 29 bd e6 99 05 bd
       0.021580745 -0.057340905 -0.0412959 -0.032617472
0000f0 88 46 1d bd 7f 6a a4 3c 00 1c 73 bd 92 e7 a1 bc
       -0.038397342 0.020070313 -0.059352875 -0.019763742
000100 b2 32 46 3b e0 c4 9f bd 1e 6e 53 3d 14 99 a0 3d
       0.003024262 -0.07801223 0.051618688 0.07841697
000110 3d 60 b2 bd b2 ed af bd f9 fe 1e 3d af 7d 60 bc
       -0.08709762 -0.08590259 0.03881738 -0.01370184
000120 bf 00 5a 3d ae d1 55 3c 65 c5 06 bc 54 52 5d 3d
       0.053223368 0.01305048 -0.008225773 0.054033592
000130 82 24 a6 3c 61 34 88 bd 90 f1 df 3c 0b 39 51 3c
       0.02028108 -0.066506155 0.027336866 0.012769948
000140 03 5f b0 bd fb 04 15 3c d8 da f2 bc c8 db c0 3c
       -0.08611872 0.009095426 -0.029645368 0.0235423
000150 cc d8 69 bd ed ab 70 bc b4 af 2f 39 dd 91 d9 bb
       -0.05709152 -0.014689428 0.00016754755 -0.0066397027
000160 a8 ce 1f 3e 4d 92 a4 bd 0e 42 37 bc 07 26 1c bd
       0.15606177 -0.08035717 -0.011185182 -0.038122203
000170 3f 48 52 bd d7 32 93 3d 66 52 10 3b e2 8f 93 3d
       -0.05133843 0.07187431 0.002202177 0.07205178
000180 fe 5e 4e bc 76 6e 95 bd 72 1e 2a be 21 7f 5e 3c
       -0.01259589 -0.072964594 -0.16613176 0.013580115
000190 55 a7 19 3d 4e 06 2c 3d 0e 5f 2d bd 38 c0 01 bc
       0.037513096 0.0419982 -0.04232698 -0.007919364
0001a0 63 c7 ca 3c e3 09 a8 3c 57 8d 0f bd 80 76 58 bb
       0.024753278 0.020512527 -0.0350469 -0.0033029616
0001b0 d1 9a 92 3d ac 6f 34 bd db be 0f bd f9 38 e9 3c
       0.07158435 -0.04405181 -0.035094123 0.02846955
0001c0 81 a3 01 3e 1d 7c 38 3d c3 56 37 3c 92 66 3f 3c
       0.12660028 0.04504024 0.011190119 0.0116821695
0001d0 8a e6 7e bd 80 df 84 bc 5a ec 08 3d 89 db b1 bc
       -0.062231578 -0.016219854 0.033428527 -0.021711128
0001e0 ef c3 b7 3d 99 56 27 3d 62 1c 7f 3c 6c da 15 bc
       0.08972918 0.04085407 0.015570732 -0.009146314
0001f0 cb c0 a7 bd d8 13 ec bd 9c 25 3f 3d 20 e4 ec 89
       -0.08191069 -0.115272224 0.046666726 -5.702946e-33
000200 77 cb 1e bd 02 32 50 bc c5 2a 66 3c 56 6d 89 3c
       -0.038768258 -0.012707235 0.014048283 0.016775768
000210 24 fa 35 3d f3 6f 73 3d d2 f4 87 bb 3f 36 8b 3c
       0.044428006 0.059432935 -0.004149058 0.01699364
000220 bc ea 84 bd af 5b 8f bd d8 39 2a bd d5 58 65 bd
       -0.064900845 -0.06999909 -0.04155907 -0.05599292
000230 58 a3 e1 3b 63 b7 84 ba fb 2d 04 bd 56 f0 68 3d
       0.006885927 -0.0010125454 -0.032270413 0.056869827
000240 8b d6 3f bd 7d 13 6f bd 80 4b 07 3c 4a ca 4c 3d
       -0.046835463 -0.058368195 0.008257747 0.049997605
000250 51 ed 30 bc 75 cc f6 3c 39 74 00 bd b4 b5 48 bd
       -0.010798768 0.03012679 -0.03136084 -0.04900141
000260 73 22 05 bd 33 c1 20 3c b0 43 3d 3d bf 78 d0 bb
       -0.032503556 0.009811687 0.04620713 -0.0063620503
000270 a4 77 11 3e 55 ac 51 3d 53 2b a0 3c 7b a2 81 3d
       0.14205796 0.05118974 0.019551909 0.06329819
000280 fa 55 1f 3d 01 cd 91 bd 97 e6 15 3c 0b 17 d2 3c
       0.038900353 -0.071191795 0.009149215 0.025645753
000290 1e 25 c5 bd 25 6f 08 bb 7c 4f 84 bd f4 e8 3c 3d
       -0.0962622 -0.00208182 -0.06460473 0.0461206
0002a0 3c 4b 26 bd 61 62 3a bc 53 d8 b4 bb 16 8b 47 bd
       -0.040599093 -0.011375994 -0.005518952 -0.048716627
0002b0 b7 ec c9 bd bd ae 9d bc 21 c9 8d 3d 15 28 dc 3d
       -0.09859603 -0.01924836 0.06923128 0.107498325
0002c0 61 0a 22 3d 4b 6e bc bd fa ac ee bd 24 1e 5f bc
       0.03956068 -0.09200724 -0.116540864 -0.013618026
0002d0 28 4f d7 3b 03 05 c6 3c ec fa 84 3c a3 bc 35 3d
       0.0065707155 0.024172312 0.01623293 0.04436935
0002e0 88 88 8c 3c d2 f2 d7 bc 78 b3 8f bd ae 5a aa bd
       0.017154947 -0.026360903 -0.07016653 -0.08318077
0002f0 e4 13 6b 3b 59 a5 70 bd 49 c2 0e 3d 12 98 af bc
       0.003587001 -0.058751438 0.034853254 -0.021434817
000300 b6 bb 87 bc ba d7 b9 3c cd 10 ab bb 64 48 0f 3d
       -0.016569 0.022685874 -0.0052205087 0.034981146
000310 23 c3 e0 3c e8 d6 88 3d 53 e3 00 3d 01 7f d2 3c
       0.027436798 0.06681615 0.031466793 0.025695326
000320 9d 69 72 3c 42 79 ac bd 4a 68 a8 bc b4 54 a0 ba
       0.014795688 -0.084215656 -0.020557541 -0.0012232275
000330 0e ea ea 3d 7e 6c 36 3d 4d 7b 9a 3d 1a a8 a5 bc
       0.11470424 0.04453706 0.07543049 -0.020221759
000340 09 2a 7b 3d ff 19 00 3b 96 ac fc bc da f3 eb 3c
       0.061319385 0.0019546745 -0.030844014 0.0288028
000350 3d 69 00 3e 0f bb a3 3d 27 5c 91 bc 33 0a 7a bd
       0.12540145 0.07994663 -0.017744137 -0.061044883
000360 02 68 9f 3c e6 67 a4 bc d6 9c 68 3d 23 8e 55 bd
       0.019458774 -0.020069074 0.056790195 -0.052137505
000370 4b f9 e1 3d fa 21 74 bd 05 54 27 be 40 6a 8f 09
       0.11033877 -0.059602715 -0.16340645 3.4525915e-33
000380 79 80 0e bd 5e 1f 10 3b ab 66 6b 3d 38 ce 5f 3c
       -0.03479049 0.0021991353 0.05747096 0.013660006
000390 b3 a9 47 3d 00 71 19 bd 2a d2 00 bc 28 d2 22 3d
       0.048745822 -0.03746128 -0.007862607 0.039751202
0003a0 1e 0f 88 bd 9d f4 c2 3d e7 5a 89 bd 67 88 90 3d
       -0.066435084 0.095193125 -0.06706791 0.07057267
0003b0 26 11 a3 3c bd 82 00 3c c1 f1 20 bd e1 71 dd bb
       0.019905638 0.00784367 -0.039293054 -0.00675796
0003c0 29 52 23 3d 00 25 c7 3c 44 02 8b ba 66 44 1a b9
       0.039873276 0.024309635 -0.0010605534 -0.00014712065
0003d0 ad 5e 07 bd 6f 43 e8 b7 72 51 d9 bc 34 3c 9e 3d
       -0.033049274 -2.7687956e-05 -0.026528094 0.077263266
0003e0 81 77 53 bd f9 55 c8 3d 9c 36 64 3d bc c1 ba bd
       -0.05162764 0.09782023 0.055716142 -0.09118983
0003f0 87 2c da bd f1 99 06 bc d5 47 f5 3c a2 d4 d7 3c
       -0.10653024 -0.008215413 0.029941479 0.026346508

friendly_greeting_0 f4 [384]
000000 60 87 99 bd 55 e9 8b 3a a8 02 cc 3c 54 a9 82 bc
       -0.07496524 0.0010674397 0.02490361 -0.015949883
000010 a6 9f be bb 94 d6 70 bc 77 99 39 bd ac 5d f8 3b
       -0.0058173714 -0.014699597 -0.04531237 0.007579526
000020 a6 01 93 bd c7 6b cb bc 96 83 50 3c 81 a7 50 3d
       -0.07178049 -0.024831666 0.012726685 0.050940994
000030 de f0 9c bc 93 42 8e 3d d6 64 8d bd d2 2d 33 3d
       -0.019157823 0.06946292 -0.069039986 0.04374487
000040 3c 4f 8f bc ef de de bb 76 c2 27 bd 94 b0 85 bd
       -0.017493837 -0.006801478 -0.040956937 -0.0652782
000050 d6 81 b6 3c 5b 69 a7 bd 71 49 80 3d 8c e3 8d 3c
       0.022278707 -0.08174392 0.06264008 0.017320417
000060 0d ca b7 ba 4d 86 36 3d 96 ef 46 bc 8d 96 82 3d
       -0.0014022008 0.044561673 -0.012142083 0.063763715
000070 e8 d4 08 bd 2c e3 05 bd 17 2c 01 bd f9 16 d3 3d
       -0.03340617 -0.03268735 -0.031536188 0.10307116
000080 a8 9b 65 bd ea e5 78 3d 4e c0 72 3d 79 79 0f 3d
       -0.05605665 0.060766138 0.059265427 0.035027955
000090 ac e9 33 3d 63 8d 45 bd d0 a9 42 bd f9 01 52 3c
       0.04392402 -0.04823054 -0.047525227 0.012817853
0000a0 fd 1d d4 3c 09 9d 96 3c 3a c0 5a bc fe da 3e 3d
       0.025893206 0.018385427 -0.013351494 0.046595566
0000b0 59 c5 99 bc 47 20 2c 3e d4 09 73 3b 78 9d 5c bd
       -0.01877086 0.16809188 0.0037084715 -0.05386111
0000c0 11 c4 47 b9 db cb 6f 3d de 6c a4 bc 41 31 cc 3c
       -0.0001905116 0.05854402 -0.020071443 0.02492583
0000d0 00 33 3f bd e3 33 27 3d d9 fa 4e 3c 77 90 33 bb
       -0.046679497 0.040820967 0.012633049 -0.002739934
0000e0 a8 57 68 bc 3d 6b fd bd 10 e9 00 3d 5b b9 ba bd
       -0.014181055 -0.1237397 0.031472266 -0.09117385
0000f0 51 b3 ff 3c 47 0e d5 3c dd d4 2f bd 1a 6e d4 3d
       0.031213434 0.026007785 -0.04292761 0.10372563
000100 b4 a8 88 ba 86 d5 cb 3c 23 cf d7 bc d7 14 55 3d
       -0.0010426254 0.02488209 -0.026343888 0.052021828
000110 8c 74 55 bd 5a 61 dd 38 7b 70 15 bd de 6c 18 3e
       -0.0521131 0.00010556234 -0.036484223 0.1488528
000120 d8 5f 61 3c 1e 33 1c 3b 57 b7 06 3c cf 26 80 3c
       0.013755761 0.002383418 0.008222423 0.015643505
000130 d0 66 c4 3c 03 8d 30 bd 4f 5c 6e 3d 6c 52 3a bc
       0.023974806 -0.04310323 0.0581935 -0.01137219
000140 9e 26 93 bc 25 54 aa 3c 88 97 5d bd 24 e2 be bb
       -0.01796275 0.020792076 -0.05409959 -0.005825298
000150 8f dd 7f bd a5 ad e9 bd 15 bc 20 bd fe 7c 4f bd
       -0.062467154 -0.11410073 -0.03924187 -0.05065631
000160 16 6b 49 3d 70 ea ce bc 1c 37 69 bd 99 8c 24 3e
       0.04917439 -0.025258273 -0.056937322 0.16069259
000170 f5 fa 31 3c ce 92 f0 3c 27 eb e2 bd b9 e8 79 bd
       0.0108630555 0.029366877 -0.11080008 -0.061012957
000180 0b db 56 bc 10 47 01 3b 3d de be bd 50 6e a9 3c
       -0.013113747 0.0019726194 -0.09319732 0.020682484
000190 05 e7 0a 3d f5 8d ec bb 6e 8b 01 3d 43 14 1a 3d
       0.033911724 -0.007219071 0.03162711 0.03761698
0001a0 e0 8f 87 bc 7a a8 84 3a 98 1b 59 3c ee c6 43 3d
       -0.016548097 0.0010121011 0.013251208 0.047797136
0001b0 e0 87 49 bd c0 25 90 bd ee 89 59 3d 5f c1 ca 3b
       -0.049201846 -0.0703845 0.053110056 0.0061876024
0001c0 ed 75 16 bb 34 86 41 3d 61 7f bd bb 11 a5 bc 3d
       -0.0022958473 0.047247127 -0.005783007 0.092111714
0001d0 35 96 8a bd 53 b8 c8 3d 82 a9 c9 3c 1b 98 d6 bc
       -0.06766931 0.09800782 0.02461696 -0.026195576
0001e0 86 a6 44 3d 8c e8 33 3c 52 d5 ec bc 09 04 07 bd
       0.04801037 0.010980736 -0.028910313 -0.032962833
0001f0 9d dd f6 bb 4a cc 00 be e6 6a fc 3c 4c f0 a7 89
       -0.0075337426 -0.1257793 0.030812692 -4.042976e-33
000200 40 c3 e0 3d 2d 08 4c 3d 07 65 28 3c 27 b6 a9 3d
       0.10974741 0.049812485 0.010277993 0.08286696
000210 d3 a4 12 3d ff eb 3f 3b 87 08 3e bd f0 fe 93 3d
       0.03580172 0.0029284952 -0.04639485 0.0722636
000220 b0 3d e2 bd b2 11 94 bd cf f6 7a 3d 8e be 75 3d
       -0.11046922 -0.072299376 0.06127053 0.05999618
000230 9e a4 9d bd 2f 9c 30 bc 63 0c cb bd 7d 5b 15 bd
       -0.07697414 -0.010779425 -0.09914472 -0.036464203
000240 55 58 56 bb f7 6d 57 3d 52 23 61 3d 11 37 24 3d
       -0.0032706459 0.052595105 0.054965325 0.040091578
000250 4f cd 15 bb 45 e7 0f bc 9c fa 44 bd ee 2f bd bc
       -0.002285797 -0.008783166 -0.048090562 -0.023094144
000260 56 ad f7 bc 18 2b 8b 3c df 65 7b 3d 5a ac 00 bd
       -0.03023402 0.016988322 0.06137645 -0.031414367
000270 cf 37 0f 3d 2b 95 d0 3c e0 92 db 3c 05 45 a9 3c
       0.034965333 0.025461754 0.026803434 0.020662794
000280 79 50 46 b9 5c db 18 3c 49 c7 47 bd 07 bb 15 3d
       -0.0001891273 0.009329643 -0.048774038 0.036555316
000290 b6 cf 80 bd 67 0a 66 bd 18 63 48 bd b3 aa 29 38
       -0.06289618 -0.056162264 -0.04892263 4.0451716e-05
0002a0 d2 38 74 3d fc 39 a7 3c 28 60 a1 3c 92 a9 49 bc
       0.0596245 0.020413391 0.019699171 -0.012308495
0002b0 df 0f 62 bd 84 b8 ac bc 9f b5 1b 3d cd f8 27 3d
       -0.055190917 -0.021084078 0.038015004 0.04100876
0002c0 42 39 73 3d 8b 42 1b bd a4 8a b0 bd 1e 80 0d bd
       0.059380777 -0.037905257 -0.086201936 -0.03454601
0002d0 d4 68 1b 3c aa a1 77 3d df d2 a4 bd 98 5c 87 bd
       0.009485442 0.06045691 -0.08048033 -0.06609458
0002e0 15 1b bd 3c 37 f7 06 3d 8c 34 c7 bd ce b7 b6 3c
       0.023084203 0.032950606 -0.097268194 0.022304442
0002f0 3d 8c 32 3c 19 1e bf 3d 80 8e 34 3d 15 0b 0b be
       0.010897693 0.093319125 0.04408121 -0.13578446
000300 ef c1 02 3d 17 05 17 3d 56 b9 65 3b 46 42 45 bd
       0.03192323 0.03687009 0.0035053096 -0.048158906
000310 8f 98 17 3d ee 83 35 bc f6 b2 2b bc 25 cd 7f 3d
       0.037010726 -0.011078818 -0.010479679 0.0624515
000320 36 05 d5 3d f2 62 b0 bc a8 da 94 bd b6 d5 e6 3a
       0.104013845 -0.021531556 -0.07268268 0.0017611298
000330 75 31 36 bd d1 2f 88 bd 7b 25 72 3c ae 5d b7 3b
       -0.04448076 -0.06649745 0.014779444 0.0055958843
000340 64 d1 a6 3c a6 ff aa bc 2e aa b4 bd 14 47 3d bd
       0.020363517 -0.020873856 -0.08821522 -0.046210364
000350 07 62 43 3b 39 41 8b bc f9 ce 2f 3d ff 35 0d bd
       0.0029813068 -0.016998874 0.042921994 -0.034475323
000360 ff c1 a6 b9 cb c8 d4 3c 9d 0a 41 bc e2 04 8a bc
       -0.00031806526 0.025974652 -0.011782316 -0.016848031
000370 cf 01 95 3d 32 43 25 bb 76 82 27 bd 60 a9 06 08
       0.072757356 -0.0025217053 -0.0408959 4.0523258e-34
000380 1a 77 5d 3d c5 7a f4 3c 89 e5 d2 bb 91 8b 13 3c
       0.054068662 0.029843697 -0.006436054 0.009005443
000390 87 fd 07 3d f6 f3 55 3b e6 d1 5f bd a7 c1 f7 3d
       0.033200767 0.0032646633 -0.054643534 0.12097483
0003a0 fa 1d 1c bd 59 41 69 3c 6f f0 bd 3d 91 ce 42 3d
       -0.038114525 0.0142367715 0.09274375 0.04756028
0003b0 74 f0 a2 bc e4 77 34 bd f7 46 15 bc 51 46 8a 3d
       -0.019890048 -0.04405965 -0.009111158 0.06751693
0003c0 04 71 4e bc 0f a7 1c bd 94 75 90 3c 6c 54 ef ba
       -0.012600187 -0.038245257 0.01763419 -0.0018259413
0003d0 2e c8 93 bd c1 33 c7 3c 1c a3 bb bc 85 22 86 bc
       -0.072159156 0.02431667 -0.022904925 -0.016373882
0003e0 d6 16 a5 bd bc d5 dc 3c 3e 69 78 3d 9f 5a a4 3b
       -0.08060996 0.026957385 0.06064724 0.0050156857
0003f0 f7 7e 86 3d 8e 77 f4 bb 54 ff 07 3d d4 7b 88 3d
       0.06567185 -0.007460541 0.033202484 0.06664243

friendly_greeting_1 f4 [384]
000000 ac a1 d9 bd 8d 67 8e bc db ef 34 3d 8a 88 ca 3c
       -0.106265396 -0.017383361 0.044174057 0.02472331
000010 8c af ab 3d 80 a4 8f 3d d4 4d 6f 3d 68 a9 09 bc
       0.08383092 0.07013798 0.058423832 -0.008402206
000020 31 7f 75 bc 51 49 4c bc 03 91 04 bd ae d1 85 bd
       -0.014983938 -0.012468652 -0.032364856 -0.06534134
000030 fe 11 2b 3d 04 bc 6f 3d eb 5e 00 bd ca c0 27 bc
       0.041765206 0.058528915 -0.03134052 -0.010238836
000040 df aa c4 3d 2b de 16 bd 39 17 0b 3d 81 06 33 bc
       0.096029036 -0.03683297 0.033957694 -0.010926844
000050 60 dd 12 bd 99 ce 37 3d 80 5e 17 bd c0 1d 0e 3c
       -0.03585565 0.04487476 -0.036955357 0.008674085
000060 1b a6 67 bd da 31 f1 39 cc b9 da 3c cf 91 74 3d
       -0.056554895 0.00046004244 0.026699923 0.059709366
000070 80 9c 37 bd b6 e9 25 bd 8c 57 df bd da 41 8f 3c
       -0.044826984 -0.040506087 -0.1090537 0.017487455
000080 35 ca 80 bd 7c ee 04 3d 8f ed 2c 3d 83 db 0f 3d
       -0.06288568 0.032454 0.04221874 0.035121452
000090 99 fe a9 3c d8 7e c1 bd 5e 31 61 3d a3 78 be bc
       0.020751284 -0.09448022 0.05497872 -0.023250883
0000a0 87 bc 90 bb e9 ff 10 3d 85 52 b5 3b 41 5f f6 b9
       -0.0044170055 0.035400305 0.0055335187 -0.00046991746
0000b0 f9 5f e5 3c fc 92 0e 3c 23 83 f2 3c 57 b8 3c 3d
       0.027999865 0.008702036 0.029603546 0.046074238
0000c0 cf 8d fc 3d 8d 9d 34 3b 72 66 c4 bd 56 32 26 bd
       0.12331735 0.0027559728 -0.095898524 -0.040575348
0000d0 5e 01 e6 bc 96 8e 0a 3c 21 f0 17 3d 1a 73 cb 3d
       -0.028076824 0.008456847 0.03709424 0.09934063
0000e0 d9 06 d7 b9 1b 80 be bd e4 59 02 bd 04 c0 58 bb
       -0.00041013098 -0.09301778 -0.031824008 -0.0033073435
0000f0 20 8f b2 bb f6 7d 99 3c e8 c3 54 bd 84 e2 cb bc
       -0.0054491907 0.01873682 -0.051944643 -0.024888285
000100 02 d0 18 3c d3 11 17 bd fa 4f 08 bd 60 c5 ad bd
       0.009326937 -0.036882233 -0.033279397 -0.08484912
000110 bc f4 00 3c 41 95 40 bc f2 a9 fc 3c f3 ba 4a 3d
       0.007870849 -0.011754335 0.030842755 0.049494695
000120 e6 fb 7c bc 82 65 d8 39 a2 7e 83 bd 89 58 77 3d
       -0.015440917 0.0004127436 -0.06420638 0.060387168
000130 35 cd 26 bd 9f da b5 bd 72 42 6a 3d a9 a2 71 3b
       -0.040723044 -0.08879589 0.057192273 0.0036870635
000140 ea b0 0c 3e da 72 ba bb c3 17 0c bc b1 bf 86 3c
       0.13739362 -0.005689961 -0.008550587 0.016448827
000150 cd 66 11 bd fc 61 ea bb b7 3f 02 bd d4 3b e7 bc
       -0.03549843 -0.007152794 -0.031799044 -0.02822677
000160 b0 af f8 3b a2 d9 96 bb 7b 72 b2 3c 75 ff cb 3d
       0.007589303 -0.0046035806 0.021783104 0.09960834
000170 0b 85 9d bd 98 45 90 bc 2c a9 10 3a 9b fa 3e bd
       -0.076913916 -0.01761131 0.00055183726 -0.046625715
000180 6e 1f 8f 3c 48 8d bb 3d 6d c3 73 bc aa af fd 3d
       0.017471042 0.09157807 -0.014878136 0.12387021
000190 c7 05 0d 3d 1c 11 10 3d e0 92 8d 3d db 56 4e 3c
       0.034429338 0.035172567 0.0691278 0.01259395
0001a0 fc 6e 26 bd 0e ef a9 bc 2b 3f b0 3c 70 05 c7 3d
       -0.040633187 -0.020743873 0.021514496 0.09717834
0001b0 3f 79 ac bc 74 f5 cf bc 5a b2 c5 3d 5f 34 6e bc
       -0.021053908 -0.025385596 0.096531585 -0.014538853
0001c0 29 e9 2e bb 9e 50 8d 3d 93 4d 4c bc 2b 08 9d 3d
       -0.0026689267 0.06900142 -0.012469667 0.076675735
0001d0 11 ff 32 bc 8a 26 12 3d 89 e7 36 3d 2e 4f 6a 3c
       -0.01092507 0.035681285 0.044654403 0.0143011045
0001e0 b5 5a 80 3d 8d 6e 0c bd ea 1d 9c 3d ca dd 31 3d
       0.06267301 -0.034285117 0.07622893 0.043424405
0001f0 cb b1 40 3b 9f d5 c7 bd 7c 54 27 3d 8f 0e 2e 8a
       0.0029402848 -0.09757542 0.040852055 -8.3805334e-33
000200 50 66 73 bc 10 7d 38 3c d4 ce 2b 3d f4 ab a0 3b
       -0.014855936 0.011260286 0.041945294 0.004903311
000210 fd 79 7e 3c 63 35 81 bc 61 eb 12 3c 4a d7 e1 bc
       0.015532014 -0.015772527 0.0089672515 -0.027568478
000220 06 6a bb bd 27 f6 3a 3d 65 f5 17 bd d0 30 24 3d
       -0.09151082 0.045644905 -0.03709926 0.040085614
000230 5f 74 bd 3c 5b 64 b9 3d 40 01 9b bd 32 6a 15 bc
       0.02312678 0.090523444 -0.07568598 -0.009119557
000240 e2 57 c1 3c 73 fd 89 3c 8e f9 fd bc 01 44 96 3d
       0.023601476 0.016844487 -0.031002786 0.073371895
000250 2b ac 11 bd 24 06 61 bd a5 90 76 bd 71 ad 06 3d
       -0.035564583 -0.054937497 -0.060196538 0.03288025
000260 fa 8c 5c bd c0 1f 78 bd 3e 44 15 3c 88 8d ec bd
       -0.053845383 -0.060577154 0.0091105085 -0.115504324
000270 66 a5 ae 3d 8c 64 1f 3d 71 11 be bc 1d 05 7b 3d
       0.08527641 0.03891425 -0.023201676 0.061284173
000280 bf 17 ef bc e9 12 e8 bc 67 d0 43 bc b4 df 6e bd
       -0.029186128 -0.02832933 -0.011951542 -0.05831881
000290 6e 00 66 bd 5f 90 98 bc 50 67 90 bd d3 ef 68 3d
       -0.056152754 -0.018623529 -0.07050955 0.05686934
0002a0 b4 15 b2 3c 2a 01 bd 3b b6 68 ba 3a bf 9b 12 bd
       0.021738864 0.005767961 0.001422188 -0.035793062
0002b0 cc bb db bc 94 12 b3 3c 03 5a b8 3d 35 bc ba 3d
       -0.026822947 0.021859445 0.090015434 0.09117929
0002c0 4e 64 5a bc 90 68 97 bd 1c 65 a3 bd e7 b4 cb bc
       -0.013329579 -0.073929906 -0.079782695 -0.024866534
0002d0 47 de 90 3c 28 e9 ab 3c 86 22 9d bc 3c 0f e7 3c
       0.017684115 0.020985201 -0.019181501 0.028205507
0002e0 76 53 23 bd b0 00 e5 3d d9 fc 2a bc 31 db 61 bc
       -0.039874516 0.11181772 -0.01043626 -0.013785169
0002f0 b1 05 b6 bb a7 7a b6 3c 43 28 55 3d f7 3e cc bc
       -0.0055548777 0.022275282 0.05204035 -0.024932368
000300 e8 ca 8a bd 76 0a 85 bc e7 7b b2 3c fd bf 2a bd
       -0.067769825 -0.01624034 0.021787597 -0.041687
000310 21 81 34 3d ed 31 40 bd 92 6b 18 3c 62 b9 b0 3c
       0.04406846 -0.046922613 0.0093029905 0.021572772
000320 2c 7c 47 bd bb bb 44 3d 12 f6 93 3d c9 61 2b 3b
       -0.048702404 0.048030596 0.072246686 0.0026150814
000330 28 69 e7 3c 5e f2 84 bc 1d 98 1d 3d da 5d a8 3d
       0.028248385 -0.01622885 0.038475145 0.08221026
000340 48 90 dc 3d 6c bf 0d 3d e6 31 c3 bc 87 c1 b5 bd
       0.10769707 0.034606382 -0.023827504 -0.08874803
000350 ff 36 59 3b 27 0a 61 3d 71 61 4a bd 74 fa b3 bd
       0.0033144352 0.054941323 -0.049409334 -0.087880045
000360 f8 c8 50 bc e6 17 8d 3d 84 f2 ee 3c 54 27 31 3c
       -0.012743227 0.06889324 0.029168375 0.010812599
000370 e1 2e e0 3d 4c 6b 01 bc a4 1d 34 bd 3a f8 ed 09
       0.109464414 -0.007899117 -0.04397358 5.7289106e-33
000380 10 28 99 3d e2 91 9d 3c 66 29 2b 3d 90 f1 3b bd
       0.074783444 0.019234601 0.041787528 -0.04588467
000390 e6 0a 93 bd 4c 81 05 bd 86 c2 ce 3c 9a 9d da 3d
       -0.07179813 -0.03259401 0.02523924 0.10674591
0003a0 67 82 89 bc 70 37 38 3d ff b8 47 bd 41 1e 94 3c
       -0.016785813 0.044974744 -0.04876041 0.018080832
0003b0 8d d0 e8 bc 89 47 07 bd 36 34 85 3d f3 de 30 3d
       -0.028419757 -0.033027206 0.06504099 0.04318137
0003c0 db 3e e8 3d 56 27 38 bd f4 70 9c 3c 87 18 9a bd
       0.11340114 -0.04495939 0.019096829 -0.075242095
0003d0 de 96 dd bd 9f 73 ad 3d f0 f6 2a bd 13 be b8 bc
       -0.10819791 0.084693186 -0.041739404 -0.022551572
0003e0 34 09 40 bc bf 22 b9 3c 94 78 44 3d 24 77 04 3d
       -0.011720944 0.022599576 0.047966555 0.032340184
0003f0 43 d3 2e bb cc 69 4b 3b c3 37 e2 bc 80 ab 7f 3c
       -0.0026676215 0.0031038402 -0.02761448 0.015604854

friendly_greeting_2 f4 [384]
000000 62 2a 27 bd 8a c5 c3 bd 39 1c a3 3d ee e5 12 3c
       -0.040811904 -0.09559162 0.079643674 0.008965952
000010 52 6a 43 3d d7 b0 6f 3c 67 f4 6c 3d 7f 02 db bc
       0.047708817 0.014629564 0.057850268 -0.026734589
000020 cb bb a4 3c f7 0e 8d bd 1c 09 64 bd 94 76 70 bc
       0.020109078 -0.0688762 -0.05567275 -0.014676709
000030 e2 2d a5 bc 56 c8 c6 39 ed ca 88 bc f9 f6 c0 bb
       -0.02016348 0.00037914765 -0.016698325 -0.0058888164
000040 12 ad 8d 3d f4 c7 e9 bc 3a a7 22 3d 6c 34 02 bd
       0.06917776 -0.028537728 0.03971026 -0.031788275
000050 95 fd b7 3a 91 b4 5b 3c 91 f9 cd 3c 50 38 ab 3d
       0.0014037365 0.01340975 0.025143417 0.0836035
000060 60 0f fb bc 44 ce 2d 3d 72 b9 96 3c 67 76 55 3c
       -0.03064698 0.04243304 0.018398974 0.013028718
000070 dd 31 bb bc f6 3e de bd 2a c2 ff bd f9 99 4d 3d
       -0.022850925 -0.108518526 -0.12488206 0.050195668
000080 84 1d 00 bd 91 ae 11 3c 02 a7 a8 bb e2 38 2a 3d
       -0.03127815 0.0088917175 -0.005146862 0.041558154
000090 ab 18 ca 3c 31 7c ac bd 47 e3 06 3d 42 13 1b 3d
       0.024669966 -0.08422125 0.032931592 0.037860163
0000a0 65 a6 15 bb 3d 01 c9 3c 21 9a be ba d6 55 a4 3c
       -0.0022834775 0.024536723 -0.0014541784 0.020060461
0000b0 b5 0b 4b bc dd bb 9d 3d c1 81 27 bd 59 07 96 3d
       -0.012392928 0.07701848 -0.040895227 0.0732562
0000c0 ec 4c e9 3d c7 46 90 3c 81 b9 07 bd 55 cd 4c bc
       0.11391625 0.017611874 -0.033135895 -0.012500127
0000d0 4e fc 0e bd 90 93 83 bb 4b 8c 35 3d 89 64 9e 3d
       -0.034908585 -0.0040153936 0.044323247 0.07734019
0000e0 1e e0 af 3d 60 e7 c1 bd b1 df 92 3c da b7 31 bd
       0.08587669 -0.094679594 0.01792893 -0.043388225
0000f0 1d e3 29 bd c7 31 29 3d f5 77 26 bd f0 d1 82 bd
       -0.041476358 0.041307237 -0.040641744 -0.06387699
000100 7a 34 a7 bd 90 3b 5b 3c 0a 0b 34 3d 0a dd 19 bd
       -0.08164306 0.0133809 0.04395584 -0.037564315
000110 52 91 83 3b 30 69 c1 bd f6 29 5e bd 96 1a ec 3c
       0.0040151263 -0.09443891 -0.054239236 0.02882127
000120 4c a7 75 3b 7c 12 2b 3d 10 20 73 3d 92 f9 90 3b
       0.003748375 0.041765675 0.05935675 0.0044242823
000130 98 2f 45 bc f3 ab a8 bd 75 f1 08 3e f0 ff 7d 3d
       -0.012035273 -0.08235922 0.13373359 0.06201166
000140 4e fb 11 3d 00 0a 90 3c 36 ed 9d 3c f4 7c 33 bd
       0.035640053 0.017582893 0.01927815 -0.043820336
000150 ef e8 51 bd 26 3e ea bd c4 f4 2c 3b 86 15 8f 3d
       -0.051247533 -0.11437635 0.002639101 0.06986527
000160 b4 71 13 3c f4 3d 6c bd 48 65 7a bd cf 9d 8b 3d
       0.008999277 -0.05767627 -0.061131746 0.06817209
000170 ea 94 b4 3c b2 26 7b 3c 7a 88 ab bd d5 d4 43 bc
       0.022043664 0.01532905 -0.0837564 -0.011952599
000180 52 dc 3b bd 85 0a ae 3d 5d 4f a1 bd 6f 60 74 3d
       -0.04586441 0.084981 -0.078764655 0.05966228
000190 be 2a a3 bc 9f ed da bc f0 17 70 3d 1f fb fb bc
       -0.019917842 -0.026724635 0.05861658 -0.030759392
0001a0 0c ac 2c 3d 69 ee 09 3d 2b ce a0 bc 70 0c cb 3d
       0.042156264 0.03367463 -0.019629559 0.09914482
0001b0 7b 73 a0 3c b7 41 37 bd a3 94 af ba f8 1a e1 bc
       0.019586315 -0.044740405 -0.0013395738 -0.02747868
0001c0 70 00 42 3d 05 3d d4 3d 55 08 f6 3c 9f 93 aa 3d
       0.0473637 0.10363201 0.03003327 0.08328938
0001d0 10 c2 6c 3d 45 60 b6 3c 12 66 3b bc 5d b7 ed 3b
       0.05780226 0.022262702 -0.01143791 0.0072545246
0001e0 0f a8 f6 3c 12 b7 c6 bb d0 4c 5f bd 97 ce 1e 3c
       0.030109433 -0.006064304 -0.054516613 0.00969281
0001f0 ae 65 68 3d d3 37 9c bd 3a e7 e5 bc 20 4a 07 8a
       0.056737594 -0.07627835 -0.028064359 -6.513955e-33
000200 f0 f7 54 3c f6 7c 4e 3d 68 d3 c4 3d 0a 24 ec 3c
       0.012998566 0.05041214 0.09610635 0.028825779
000210 b6 9a 16 3d 54 28 2e 3c af 7f a6 bc 98 9a ce 3b
       0.036768638 0.010629732 -0.020324556 0.00630505
000220 09 8f fc bc a3 e6 14 bd 2b b9 56 3c 80 ca 34 3d
       -0.030829923 -0.036352765 0.013105671 0.04413843
000230 62 ba 14 bc 02 33 0e 3d 0c 7c 9f bd 31 ed 42 bc
       -0.00907764 0.034716614 -0.07787332 -0.011897371
000240 97 ad 83 bd 31 32 9a bd 2f 3d 55 3b 71 31 cd 3d
       -0.06429594 -0.075291045 0.003253769 0.10019196
000250 78 9a bd bd f9 3b da bd 45 51 93 bb 94 ec 8c 3d
       -0.09257978 -0.1065597 -0.004495772 0.06881061
000260 42 20 77 3a 8f 75 82 bd b8 85 ce 3b 3f 82 09 bc
       0.0009427109 -0.06370079 0.0063025616 -0.0083928695
000270 39 a8 9d 3c f2 10 ae 3b f0 ff ad bc 78 6b 3f 3d
       0.019245254 0.0053120786 -0.021240205 0.04673335
000280 00 a9 58 3d 1e 12 12 3d 98 7f 47 bd b6 9e 7f bd
       0.052895546 0.03566181 -0.048705667 -0.062407218
000290 33 c5 35 bd e8 4b 89 bd b8 a4 ad 3b dd 1f 58 3d
       -0.044377517 -0.06703931 0.005299177 0.052764762
0002a0 c5 59 36 bd 73 d9 0d bd 25 ce 37 3d 3d c5 39 3c
       -0.044519205 -0.034631204 0.04487433 0.011338529
0002b0 43 14 09 bd 49 99 20 bc a7 98 e5 bc 03 11 5b 3d
       -0.03346659 -0.009802171 -0.028026892 0.05348302
0002c0 69 55 19 3d 1b 3b 20 bd 23 15 9e bd aa 4c d6 3c
       0.03743497 -0.039118867 -0.07718875 0.026159603
0002d0 02 66 a1 3d 01 61 92 3d ef 52 44 bd 29 f1 9f bd
       0.078807846 0.07147408 -0.047930654 -0.078096695
0002e0 24 87 76 bd a7 7c 4c 3d 1c aa 0d bd 2e aa b0 bc
       -0.060187474 0.049923565 -0.034586057 -0.021565523
0002f0 9c 9d b7 3c 0d fe c3 3d c0 0e 36 3c 61 43 a7 bd
       0.022414021 0.09569941 0.011111915 -0.081671484
000300 55 66 51 bc 39 c7 7b bd a2 86 5b bc 0a f6 f3 3c
       -0.0127807455 -0.06146929 -0.013398798 0.029780407
000310 19 09 ce 3c 04 45 74 3c 4e bc 84 3b 40 b8 fe bb
       0.025150822 0.014909033 0.004050768 -0.007773429
000320 d9 29 04 bd 60 d7 03 bd bf 55 95 3c 2b 61 b6 3b
       -0.03226647 -0.03218782 0.018229363 0.0055657825
000330 9f 71 43 bd 4a 53 f8 bb e6 e9 f4 3c 7a 49 04 3d
       -0.04771578 -0.007578288 0.029896688 0.032296635
000340 66 4a 77 3d b8 c3 71 3b c2 b9 a0 3b 33 1d ca bd
       0.060373686 0.003689034 0.0049049566 -0.098688506
000350 2f 93 47 3d c2 81 c5 bc 43 80 0f 3c e2 01 cc bd
       0.04872435 -0.024109725 0.008758607 -0.099612966
000360 60 f1 57 bd b9 c9 86 3c c5 66 67 3d 22 67 11 bd
       -0.052720428 0.01645361 0.056494493 -0.035498746
000370 73 67 0d 3e c2 fd 66 bd c1 a5 87 bd 42 24 99 09
       0.13808994 -0.056394346 -0.06623412 3.6867507e-33
000380 f0 72 13 3e d0 be 3d 3c bb 5a 06 3d 4f af 96 3c
       0.14399314 0.011581138 0.03280137 0.01839414
000390 4e aa f8 bc d6 57 7e bd eb ad 85 bb 4f 8b c5 3c
       -0.030354645 -0.062095486 -0.0040795705 0.02411428
0003a0 e1 12 59 bd e7 fe 99 3d c0 11 80 3d af ed c1 3d
       -0.05299652 0.07519322 0.062533855 0.09469163
0003b0 3b 21 d7 3c b7 ab fe bc e3 0d 05 bd ef 15 47 3d
       0.026260963 -0.03108774 -0.032483947 0.048604902
0003c0 e4 5f 7f 3d 36 de 2d bd 70 b3 20 bd b1 34 0f bd
       0.062347308 -0.042448245 -0.039233625 -0.03496236
0003d0 5b c0 45 bd b1 0a cf 3c b1 de d8 3c dd 23 bc 3d
       -0.048279148 0.025273653 0.026473375 0.09186528
0003e0 50 72 39 bc 66 e4 04 3d a8 a4 67 3d b1 eb 9b 3d
       -0.011318758 0.03244438 0.056553513 0.07613314
0003f0 13 64 8c 3d 9a f5 a0 3c 70 4d de bd cd f2 e6 3c
       0.06855025 0.019648362 -0.10854614 0.028191948
