assets/vectorized/interactions_vectors.safetensors (safetensors, 51480 bytes, 32 tensors)

combat_0 f4 [384]
0	0xbd4a186c	-0.049339697
1	0x3daf1d1b	0.08550473
2	0x3d6a4a77	0.05719992
3	0x3d494843	0.04914118
4	0x3bae4422	0.0053181807
5	0x3c953ada	0.01821654
6	0x3cd3e891	0.025867732
7	0xbd4f8d1f	-0.050671693
8	0x3c7bf8a7	0.015379108
9	0x3db8e995	0.09028927
10	0x3e01e920	0.12686586
11	0xbd3b2f48	-0.045699388
12	0xbcca603f	-0.024704097
13	0xbcdafbb5	-0.026731351
14	0x3a2321bc	0.00062229834
15	0x3c748429	0.014924088
16	0xbca4758f	-0.020075588
17	0x3d9c4bbf	0.07631635
18	0x3aec84c4	0.0018044938
19	0x3c957424	0.018243857
20	0xbdf70e08	-0.12063223
21	0x3d9a2819	0.07527179
22	0xbd10cefe	-0.035353653
23	0x3d28df03	0.041228306
24	0xbda4a57e	-0.08039378
25	0xbcb83138	-0.022484407
26	0x3c0cf6e6	0.008603787
27	0xbb3d6109	-0.0028896949
28	0x3cb0768f	0.021540908
29	0xbd9ed5ba	-0.07755609
30	0x3d64d322	0.055865414
31	0xbdb9ace5	-0.0906618
32	0xbd401eb5	-0.046904285
33	0x3d7bd89f	0.061485883
34	0xbe0fd547	-0.14046203
35	0x3cb1393d	0.021633739
36	0x3d0bd2db	0.034136634
37	0x3d3e73a6	0.04649701
38	0x3ca3452c	0.019930445
39	0x3ad1e3cb	0.0016013322
40	0xbc81ff1c	-0.015868716
41	0xbced59ec	-0.028973542
42	0x3c774a93	0.0150934635
43	0xbcef96df	-0.029246746
44	0x3d814a65	0.06313018
45	0xbb2e80d9	-0.0026627092
46	0xbba8422e	-0.0051348424
47	0x3cfa540b	0.030557653
48	0x3d11a8cc	0.035561368
49	0xbd700f0a	-0.058608092
50	0xbda45e3b	-0.080257855
51	0x3d382290	0.044954836
52	0xbd969539	-0.07352681
53	0x3d0254a4	0.031819
54	0x3d20f270	0.039293706
55	0x39d6f9f4	0.0004100349
56	0xba57bc99	-0.00082297024
57	0x3d4e253c	0.05032848
58	0x3d307bc9	0.0430868
59	0x3d6fc733	0.05853958
60	0xbcab43be	-0.020906325
61	0xbd8d59b0	-0.06901872
62	0xbd4cbf5f	-0.049987193
63	0x3d3f4bab	0.046703022
64	0xbc88053e	-0.016604062
65	0xbda6506e	-0.081208095
66	0x3d0babd6	0.034099422
67	0x3dbd8669	0.09254152
68	0xbd1a4e3c	-0.037672266
69	0x3da42a6f	0.08015906
70	0x3bf9384c	0.007605588
71	0xbc881fab	-0.016616663
72	0xbc12ab3a	-0.008951956
73	0xbce6c4bb	-0.02816998
74	0x3c8a4c8a	0.0168822
75	0xbd51020b	-0.05102734
76	0xbd443a05	-0.047906894
77	0x3ccc7b0c	0.024961017
78	0xbd2ca68d	-0.042151023
79	0x3d08dcef	0.033413824
80	0x3d869c6e	0.06572805
81	0xbdac9f7f	-0.08428859
82	0xbd9d472f	-0.07679593
83	0x3cb8790f	0.022518663
84	0x3acbd70e	0.0015551762
85	0x3cd6845e	0.026186164
86	0x3b31d7f8	0.0027136784
87	0x3cec98b3	0.028881406
88	0x3dfc2a29	0.12312729
89	0x3cbe81bc	0.023255222
90	0x3d6cf2dc	0.057848796
91	0xbd06f455	-0.032947857
92	0x3d259f92	0.04043538
93	0x3d7b4d4d	0.061353017
94	0x3d214678	0.039373845
95	0xb985545c	-0.0002543059
96	0xbc37c6ba	-0.011216814
97	0xbdf1c6a3	-0.11805465
98	0xbdce1af9	-0.100637384
99	0x3dbd10a0	0.092316866
100	0x3d4401f7	0.047853436
101	0xbc1f62ef	-0.009728177
102	0xbdeca838	-0.11555523
103	0x3b337d5a	0.0027387948
104	0x3c9ed97a	0.01939081
105	0xbc63ef7d	-0.013912079
106	0x3d036e10	0.032087386
107	0xbcdd6516	-0.02702574
108	0xbd0cfabf	-0.034418818
109	0x3a25ce27	0.00063249696
110	0x3d37d828	0.044883877
111	0xbcf995f3	-0.03046701
112	0xbd8510dd	-0.06497357
113	0xbd6e052e	-0.05811041
114	0xbd872472	-0.06598748
115	0xbd5b8076	-0.053589307
116	0x3c5d7c5e	0.013518421
117	0xbd6fe535	-0.0585682
118	0x3d74a33f	0.059725996
119	0x3a1c84a6	0.0005970694
120	0x3db90a73	0.09035196
121	0x3d03d14e	0.03218203
122	0xba5d4484	-0.00084406906
123	0x3cce29a1	0.025166335
124	0xbbe072cb	-0.006849622
125	0xbccf07f8	-0.025272354
126	0x3cd2bf44	0.025725968
127	0x89a3e816	-3.9459075e-33
128	0x3d06e3d7	0.03293213
129	0x3c2e580c	0.010641109
130	0xbd361f57	-0.04446348
131	0xbdacfc65	-0.08446578
132	0xbbaac82d	-0.005211851
133	0xbce60828	-0.028080061
134	0x3c957ff6	0.018249493
135	0x3d35af86	0.044356845
136	0xbd0c5f73	-0.034270715
137	0xbd443c12	-0.04790885
138	0xbd157782	-0.036490925
139	0xbdbb442b	-0.091438614
140	0x3dbffd81	0.09374524
141	0x3c196bda	0.009364093
142	0xbd5776dc	-0.052603588
143	0x3ca88ed8	0.020575926
144	0x3d7b729a	0.06138859
145	0x3d96e09a	0.07367058
146	0xbd8c7373	-0.06857958
147	0x3d292335	0.04129334
148	0x3cd81037	0.02637492
149	0x3c07add7	0.008281193
150	0xbbb14bae	-0.005410633
151	0x3cd69851	0.026195677
152	0x3a45eb93	0.0007550057
153	0x3bea150f	0.0071436237
154	0xbccad479	-0.024759518
155	0xbb10479f	-0.0022015346
156	0xbc32fd78	-0.0109246895
157	0x3d2416f6	0.04006096
158	0x39ca43b4	0.00038578885
159	0xbd7527cd	-0.05985241
160	0x3c4f122d	0.012638611
161	0x3d6526cf	0.055945214
162	0x3c172bcd	0.0092267515
163	0x3d8cad85	0.06869034
164	0x3b29cfbc	0.0025911173
165	0xbd34c87e	-0.044136517
166	0x3d408e86	0.04701092
167	0xbce78f02	-0.028266434
168	0xbd86ee4d	-0.06588421
169	0xbc8e2162	-0.017349903
170	0xbdfd57ac	-0.12370238
171	0x3b8dbf79	0.004325804
172	0x3c6fa0b1	0.014625714
173	0xbd7161d3	-0.058931183
174	0xb968a15c	-0.00022185355
175	0xbd6c2e18	-0.057661146
176	0xbce452f5	-0.027871588
177	0xbb3f626c	-0.002920295
178	0x3d8bd095	0.06826893
179	0x3c405317	0.01173856
180	0xbcc0d731	-0.023540111
181	0x3d3bb015	0.04582222
182	0x3c9c8459	0.019106077
183	0x3b75f0d6	0.0037527583
184	0xbcc3b9bd	-0.023892278
185	0x3df7e2db	0.12103816
186	0x3d1002c4	0.035158888
187	0x3dbbab63	0.09163549
188	0xbaae4c4f	-0.0013297888
189	0xbd3d34ca	-0.04619292
190	0xbc3000df	-0.010742395
191	0xbcf73eca	-0.030181307
192	0xbdaa92d7	-0.08328789
193	0x3c92e79e	0.01793271
194	0xbdc47eab	-0.095944725
195	0x3cbaaab8	0.022786483
196	0xbc9b31e1	-0.018944683
197	0xbd52c41d	-0.05145656
198	0xbda31283	-0.07962515
199	0x3b3fd293	0.00292698
200	0x3d220252	0.039552994
201	0x3c2eb6f0	0.010663733
202	0xbc6be0e0	-0.014396876
203	0x3d5f7c99	0.054562185
204	0xbd022013	-0.03176887
205	0x3d56652d	0.052342582
206	0x3dc18298	0.09448737
207	0xbd6ff988	-0.05858758
208	0xbdde81fe	-0.10864638
209	0xbc921bf0	-0.017835587
210	0x3b1a889c	0.002357996
211	0x3d1a3091	0.037643973
212	0x3d02c887	0.03192952
213	0x3d447513	0.047963213
214	0x3d733153	0.05937321
215	0xbdaacff9	-0.08340449
216	0xbcc79a15	-0.024365464
217	0x3c5fc66b	0.013658146
218	0xbda54e76	-0.08071606
219	0x3c553b8e	0.013014687
220	0xbc66a58a	-0.0140775535
221	0x3c39e049	0.011344978
222	0x3d8cd66d	0.06876836
223	0x08f4d7d5	1.4735958e-33
224	0x3b177593	0.0023110851
225	0x3d6e2c11	0.058147494
226	0xbd922643	-0.07136204
227	0x3d0fefe0	0.035140872
228	0xbd8569ed	-0.06514344
229	0xbd0d8eb3	-0.034559917
230	0xbd14e547	-0.03635147
231	0x3d4ca116	0.04995831
232	0xbcc7f31e	-0.02440792
233	0x3c43f754	0.011960823
234	0xbc2c2f00	-0.010509253
235	0x3cf36802	0.02971268
236	0xbcca8674	-0.024722315
237	0x3d4820ac	0.048859283
238	0x3d7bba5c	0.061457023
239	0xbd465364	-0.04841937
240	0x3dd87148	0.10568482
241	0x3d547fca	0.05187968
242	0xbd0e1114	-0.034684256
243	0xbb82a292	-0.003986665
244	0xbd2dd5ed	-0.042440344
245	0xbb68c611	-0.0035518447
246	0x3e089cd0	0.13341069
247	0xbd1d19cd	-0.038354684
248	0x3ac6877c	0.0015146579
249	0x3c58feb5	0.013244321
250	0x3db33bcb	0.08751639
251	0xbd15399b	-0.03643189
252	0x3c81055b	0.015749624
253	0x3d1e4bb7	0.038646426
254	0x3c21f23d	0.009884414
255	0xbd5b58c3	-0.053551447

combat_1 f4 [384]
0	0xbdd0a6d3	-0.10188069
1	0x3d3f93e6	0.046771906
2	0xbd6f09ae	-0.05835884
3	0xbdcffa9e	-0.10155223
4	0xbc8971a1	-0.016777815
5	0x3d02bb11	0.03191668
6	0x3d1af038	0.037826747
7	0x3da0a20a	0.078434065
8	0xbc446701	-0.011987449
9	0x3d69c35a	0.057071067
10	0xbd8eb01d	-0.06967185
11	0xbdb53d8f	-0.08849632
12	0xbaebc650	-0.0017988179
13	0xbbd791de	-0.006578668
14	0x3cddd0af	0.027077047
15	0xbc4e2229	-0.012581387
16	0xbc8d6b1e	-0.017262992
17	0x3d9bcff5	0.07608024
18	0x3b7b3337	0.0038330087
19	0xbc02953b	-0.00797015
20	0xbd5acaa2	-0.053415902
21	0x3cf63a42	0.030057076
22	0xbd53dc06	-0.051723503
23	0x3d4b55a0	0.049642205
24	0x3cd76e8a	0.026297826
25	0xbd12f1d3	-0.035875153
26	0xbcde4c59	-0.027136015
27	0x3d9cbf11	0.076536305
28	0xbcceae00	-0.025229454
29	0xbdba6e6c	-0.091030926
30	0x3da537c9	0.08067281
31	0xbdf242d8	-0.11829156
32	0x3cdf5817	0.027263684
33	0x3d340f8a	0.04396013
34	0xbd8e6608	-0.06953055
35	0x3d88828f	0.06665527
36	0x3d976577	0.073924
37	0xbd0f9a2b	-0.035059135
38	0xbc58c3e5	-0.013230299
39	0x3cacd8d4	0.021099485
40	0xbd59130e	-0.052996688
41	0xbc0314b2	-0.00800054
42	0xbdac5c9b	-0.084161006
43	0xbc52b3c0	-0.012860239
44	0x3b8c55be	0.004282682
45	0xbb855d21	-0.0040699397
46	0xbd8e269c	-0.06940958
47	0x3d469d58	0.0484899
48	0xbc19e9b8	-0.009394102
49	0x3bbfbc84	0.0058513302
50	0x3bedcddd	0.007257207
51	0xbd84e315	-0.06488625
52	0xbc54260f	-0.012948527
53	0x3d8f7d93	0.07006373
54	0x3a887b11	0.0010412653
55	0x3cdf9700	0.027293682
56	0x3d324fec	0.04353325
57	0x3d08f7aa	0.033439316
58	0x3d363a03	0.044488918
59	0xbcbac5b4	-0.02279935
60	0xbd4bfdea	-0.0498027
61	0xbce0cc09	-0.027441042
62	0xbcf4525a	-0.029824425
63	0x3d8fa097	0.07013052
64	0x3d55d296	0.052202784
65	0xbd36285a	-0.044472076
66	0xbd049c42	-0.03237558
67	0x3d4c2173	0.049836587
68	0x3c48fbf1	0.012267099
69	0x3e1f8a06	0.15579996
70	0x3bbaff84	0.0057067294
71	0xbd24d227	-0.04023948
72	0xbca51635	-0.02015219
73	0x3d04f5af	0.032460865
74	0xbd6e4dc4	-0.05817963
75	0x3d87ee4f	0.06637251
76	0xbd5abcd0	-0.053402722
77	0xbd853510	-0.065042615
78	0xbd5465fd	-0.051855076
79	0x3cac67f0	0.021045655
80	0xbc1499b2	-0.009069847
81	0xbe3cf7b8	-0.18453872
82	0xbd5bf15b	-0.05369697
83	0x3ce58d6f	0.028021542
84	0x3d0cad6f	0.034345087
85	0xbc89a4f6	-0.016802292
86	0x3aec2f18	0.0018019406
87	0x3d19fe38	0.037595958
88	0x3dbc6cf0	0.09200466
89	0x3c2d71a9	0.010586181
90	0xbcc28f7c	-0.02375006
91	0x3d8c20c8	0.0684219
92	0x3d88d0a0	0.06680417
93	0x3cd65793	0.026164806
94	0x3d069fbe	0.032867186
95	0x3d2d8205	0.042360324
96	0xbd4442d8	-0.04791531
97	0x3cc02bd5	0.0234584
98	0xbde6b3fd	-0.11264799
99	0x3d988716	0.074476406
100	0xbbb58c88	-0.0055404343
101	0x3cf1bc91	0.02950886
102	0xbd0d453d	-0.03448986
103	0x3a9feb39	0.0012200839
104	0x3dbd0e04	0.09231189
105	0xbd8e764e	-0.069561586
106	0xbd0405d6	-0.032232128
107	0xbc52db46	-0.012869662
108	0x3d35ddc0	0.04440093
109	0x3c2b43ad	0.010453147
110	0x3a6898a0	0.00088728406
111	0x3d43f723	0.04784311
112	0x3d80296f	0.06257903
113	0xbd7c447e	-0.061588757
114	0x3c08d999	0.008352661
115	0xbd488c51	-0.04896194
116	0xbd98a3c9	-0.074531145
117	0xbd20c67b	-0.039251786
118	0xbc54c233	-0.012985754
119	0xbcf4ad98	-0.029867932
120	0x3d6107ca	0.05493907
121	0xbbcb9b80	-0.0062136054
122	0xbd9e2598	-0.07722014
123	0x3d06e062	0.032928832
124	0x3d060e88	0.0327287
125	0x3d4d8fc0	0.05018592
126	0x3db6f549	0.08933503
127	0x8942b20b	-2.3435616e-33
128	0xbc3c269d	-0.0114838155
129	0x3d4ff33c	0.050769076
130	0x3c03cc58	0.008044325
131	0xbcec3fd8	-0.028839037
132	0x3bb4d6bd	0.005518763
133	0xbcaa8930	-0.02081737
134	0xbcf99efe	-0.030471321
135	0x3dd912fd	0.10599325
136	0xbd012314	-0.031527594
137	0xbacec376	-0.0015774805
138	0xbb9a89d2	-0.0047161365
139	0xbdc99a6c	-0.09843907
140	0x3cdab26a	0.026696403
141	0x3d769e8b	0.060209792
142	0x3a7afd98	0.00095745316
143	0xbc6462e2	-0.013939591
144	0x3d7d259f	0.061803456
145	0x3d214573	0.039372873
146	0xbcd044a9	-0.025423365
147	0xbdc2fe8b	-0.095212065
148	0x3c11e7c6	0.008905357
149	0x3c435468	0.0119219795
150	0x3d10fc06	0.0353966
151	0xbc5bd7b5	-0.013418128
152	0xbc499700	-0.012304068
153	0x3d30ed52	0.043195076
154	0x3d241e83	0.04006816
155	0xbd2e81d2	-0.042604275
156	0xbd9d98bd	-0.07695148
157	0x3cb17018	0.021659896
158	0xbc251442	-0.010075631
159	0xbd720629	-0.059087906
160	0xbd03baa3	-0.032160413
161	0x3d52a921	0.051430825
162	0xbc95277e	-0.018207308
163	0x3d86d4cc	0.065835565
164	0xbca37010	-0.019950897
165	0xbd132a0b	-0.035928767
166	0xbdc7e69b	-0.097607814
167	0x3d80503e	0.06265305
168	0xbc900b70	-0.017583579
169	0xbd2cc2e8	-0.042178065
170	0xbd376b32	-0.044779964
171	0xbd3dfae9	-0.046381865
172	0x3c7f7851	0.0155926505
173	0xbdcc93e8	-0.099891484
174	0x3d37fb74	0.04491754
175	0x3c8c58c6	0.017132174
176	0xbd02a073	-0.031891298
177	0x3d39f0b3	0.045395564
178	0x3da2f89e	0.07957576
179	0xbb6c7a1c	-0.0036083525
180	0xbcf168c5	-0.029468903
181	0x3d5431ae	0.05180519
182	0x3c7ec6dc	0.015550341
183	0x3bbd669c	0.0057800543
184	0x3c9e19a8	0.019299343
185	0xbce927a0	-0.028461277
186	0x3de47d76	0.11156742
187	0x3d915404	0.07096103
188	0x3d8491fb	0.06473156
189	0x3cbaed6c	0.02281829
190	0xbc22d5de	-0.009938685
191	0xbaa3d2fb	-0.001249879
192	0xbd1eff7f	-0.03881788
193	0x3d99dff0	0.07513416
194	0xbc6fa064	-0.014625642
195	0xbd73d049	-0.059524808
196	0xbb0be998	-0.002134895
197	0xba33a17c	-0.0006852371
198	0xbc98d5e8	-0.018656686
199	0xbd42ec01	-0.047588352
200	0xbd36797f	-0.04454946
201	0xbbf94622	-0.0076072374
202	0xbd5a6b06	-0.05332472
203	0x3d2bb696	0.041922174
204	0x3b98c012	0.0046615684
205	0x3c8f25aa	0.017474014
206	0x3d612205	0.054964084
207	0xbd9fc9a0	-0.07802129
208	0xbcf72138	-0.030167207
209	0xbd68e803	-0.05686189
210	0x3d327692	0.04357011
211	0xbd2b18fa	-0.041771866
212	0x3d21e1da	0.03952203
213	0xbcc4ae80	-0.02400899
214	0x3bdcdff8	0.0067405663
215	0xbdcb3ec0	-0.09924078
216	0xbdbc986a	-0.09208758
217	0xbaa87f10	-0.001285525
218	0x3c9c09fb	0.019047728
219	0xbd0cf04a	-0.034408845
220	0x3b7a2066	0.0038166284
221	0x3cd3d821	0.025859894
222	0x3d0264c3	0.031834375
223	0x091b2ccd	1.8678512e-33
224	0xbd7c45c7	-0.061589982
225	0xbcd0aacf	-0.025472073
226	0xbd0685fc	-0.03284262
227	0x3ded9cba	0.11602159
228	0x3d5463ed	0.05185311
229	0x3c486b51	0.0122326175
230	0xbdf1cdab	-0.11806806
231	0x3d4223a8	0.047397286
232	0xbc7b5209	-0.015339383
233	0xbc5ef6c8	-0.013608642
234	0xbcc1d38c	-0.023660444
235	0xbc830012	-0.015991244
236	0xbb6ae485	-0.0035841775
237	0x3da30adb	0.07961055
238	0x3dcf8cea	0.10134299
239	0xbd81ce35	-0.06338159
240	0x3de725cd	0.11286507
241	0x3c587cf3	0.013213384
242	0xbcd06b40	-0.025441766
243	0x3d27e4e7	0.040989783
244	0x3d8886a9	0.066663094
245	0x3cbf69ee	0.02336594
246	0x3920384b	0.0001527976
247	0x3d914105	0.070924796
248	0x3d60b052	0.054855652
249	0x3d306f37	0.043074813
250	0x3be3da4e	0.006953514
251	0xbcdfa486	-0.02730013
252	0x3d9ca023	0.07647731
253	0xbceb5c29	-0.028730469
254	0x3d726992	0.05918271
255	0xbd089eab	-0.033354443

combat_2 f4 [384]
0	0x3d894a1c	0.06703588
1	0xbcf23b94	-0.029569425
2	0xbd98b8f3	-0.07457151
3	0x3c5319dd	0.012884584
4	0x3c9b6a74	0.01897166
5	0xbd086224	-0.03329672
6	0x3c029b0e	0.007971538
7	0x3d2dce88	0.04243329
8	0x3d0dd4d6	0.034626804
9	0x3d3be318	0.04587087
10	0x3c43cbf2	0.01195048
11	0xbcff2e13	-0.0311499
12	0xbdb48f96	-0.08816449
13	0x3d44dba7	0.04806104
14	0x3d16b6cc	0.036795422
15	0x3caeb749	0.021327632
16	0xbde1c217	-0.11023348
17	0xbd32286c	-0.04349558
18	0x3cb91ae2	0.022595827
19	0x3d6e2ea9	0.058149967
20	0x3cf2ec96	0.029653829
21	0x3add082f	0.0016863401
22	0x3c89bd4d	0.016813898
23	0xbd68ef80	-0.05686903
24	0xbdd1b9dd	-0.10240529
25	0xbd356961	-0.04428995
26	0x3d0c855b	0.034306865
27	0x3d2254ed	0.039631773
28	0x3d3bde2b	0.045866173
29	0xbd809aa6	-0.06279497
30	0x3dc69ed0	0.0969826
31	0xbceaa92c	-0.02864512
32	0xbc624511	-0.013810412
33	0x3d2b4253	0.0418113
34	0x3dc9cb5b	0.0985324
35	0x3d34ec4d	0.044170666
36	0x3c7aad6e	0.015300138
37	0x3ccff965	0.025387475
38	0xbd1b7ca5	-0.037960667
39	0x3cf2581b	0.029583028
40	0x3cca7f42	0.024718884
41	0xbdcf30a4	-0.10116699
42	0xbc22deb9	-0.0099407965
43	0x3dcc4785	0.09974579
44	0xbd06a479	-0.032871697
45	0x3d0335ca	0.03203372
46	0xbd0a799d	-0.033807386
47	0xbca0d80e	-0.019634273
48	0x3d8baf92	0.06820597
49	0xbd44ada7	-0.04801717
50	0x39fa95d4	0.00047795346
51	0x3be01af4	0.0068391506
52	0xbd8722a2	-0.065984026
53	0xbd56fddb	-0.05248819
54	0x3d224a6b	0.03962175
55	0xbd0a6d52	-0.033795662
56	0x3cb0d904	0.021587856
57	0xbb882fdd	-0.0041560964
58	0xbd39da50	-0.045374215
59	0xbd4bea72	-0.04978413
60	0x3d85543f	0.06510209
61	0x3d4201f0	0.04736513
62	0xbd629512	-0.055317946
63	0xbd1646d1	-0.03668863
64	0x3b1636b7	0.0022920796
65	0xbb0197a8	-0.0019774232
66	0xbd2a3a6e	-0.04155963
67	0xbb70f506	-0.003676714
68	0x3c14b6da	0.009076798
69	0xbc782203	-0.015144828
70	0xbc0b4520	-0.008500367
71	0xbc391bb8	-0.011298113
72	0xbd5dafca	-0.054122724
73	0x3d860548	0.06543976
74	0xbd053972	-0.032525487
75	0xbd80778e	-0.06272803
76	0xbd6879a6	-0.056756638
77	0x3c813cbd	0.015776033
78	0x3cd501e8	0.026001886
79	0xbd445d3b	-0.047940474
80	0xbc20f448	-0.009823866
81	0x3ca365b4	0.019945957
82	0xbd393eca	-0.045225896
83	0x3c94ea30	0.018178076
84	0x3a68ba47	0.0008877855
85	0x3d8c00fd	0.06836126
86	0x3ca3e855	0.020008245
87	0x3b0a8fd5	0.002114286
88	0x3e1585f0	0.14601874
89	0x3d990ce5	0.074731626
90	0xbcdd3396	-0.027002137
91	0x3cc6d051	0.024269255
92	0xbd883d03	-0.06652262
93	0xbc176f21	-0.009242804
94	0x3d8d9d27	0.0691474
95	0xbcf5046a	-0.029909331
96	0xbbec549f	-0.007212236
97	0xbdad2759	-0.084547706
98	0xbc265f1d	-0.010154513
99	0x3db9e42d	0.09076724
100	0xbd4569fc	-0.048196778
101	0x3d7d0552	0.061772652
102	0xbd5f0a6c	-0.0544533
103	0xbd940e28	-0.072292626
104	0x3cc81792	0.024425302
105	0x3d357ee3	0.04431046
106	0x3d72abbe	0.059245817
107	0xbb2546dc	-0.0025219237
108	0xbd5b9945	-0.053612966
109	0xbd06674d	-0.03281336
110	0x3da7c28d	0.081914045
111	0xbd1cf219	-0.03831682
112	0x3da0c6de	0.07850431
113	0xbd2f8d2b	-0.042859238
114	0x3d096b68	0.033549696
115	0x3ce7661a	0.028246928
116	0xbd4dfd19	-0.0502902
117	0xbc2e3481	-0.010632635
118	0x3d8f0ed1	0.06985248
119	0x3d050694	0.032476977
120	0x3d64c7da	0.055854656
121	0x3d3001a7	0.042970326
122	0xbd8d8fb9	-0.069121785
123	0xbc656550	-0.014001206
124	0xbdb4fd17	-0.088373356
125	0xbd838b1e	-0.06423019
126	0x3cad4183	0.021149402
127	0x89b84ac0	-4.4366683e-33
128	0xbd64dd87	-0.055875327
129	0x3cfe05ec	0.031008683
130	0xbdd49e5c	-0.10381767
131	0x3cf164fc	0.029467098
132	0x3d42628a	0.047457255
133	0xbd533d79	-0.051572297
134	0xbd41e887	-0.047340896
135	0x3c2695c1	0.01016754
136	0xbe01274b	-0.12612645
137	0x3d66db45	0.056361455
138	0x3d9a9969	0.07548792
139	0xbe14f7f4	-0.14547712
140	0xbcc03935	-0.023464778
141	0x3c4f5352	0.012654142
142	0x3d42aed8	0.047530025
143	0xbc241e82	-0.010017039
144	0x3cda2788	0.026630178
145	0x3d3741f4	0.044740632
146	0xbd86f230	-0.06589162
147	0xbd120bf0	-0.035655916
148	0x3c12d5a0	0.008962065
149	0xbc979ef8	-0.01850842
150	0xbb12bbb1	-0.0022389705
151	0xbd768fe5	-0.060195822
152	0x3c988c96	0.018621724
153	0xbd0e3695	-0.034720022
154	0xbcb2da48	-0.0218326
155	0xbd599b41	-0.053126577
156	0x3d335808	0.043785125
157	0xbb2c6d30	-0.0026310198
158	0x3c09f472	0.008420097
159	0xbdb881da	-0.09009142
160	0xbd2f19ca	-0.042749204
161	0x3c8fd586	0.01755787
162	0xba7a23ab	-0.0009542058
163	0x3ce6a2f2	0.02815387
164	0x3dcd2c78	0.10018247
165	0xbd4d415f	-0.05011117
166	0x3cca95b1	0.024729582
167	0xbdb26d9a	-0.08712311
168	0x3c94a3e9	0.018144565
169	0x3c529d3a	0.012854869
170	0x3d9b4b13	0.07582679
171	0x3b97385c	0.004614873
172	0xbb06a9c4	-0.0020547966
173	0x3db43c79	0.08800597
174	0x3c129eee	0.008949025
175	0x3d4afe68	0.049559027
176	0xbd03e892	-0.03220422
177	0x3c2a79cc	0.010405015
178	0x3cd879ad	0.026425207
179	0xbc44efc2	-0.012020053
180	0xbd0b04f9	-0.03394029
181	0x3cc4651e	0.023973998
182	0xbd95dbca	-0.07317312
183	0xbd02b975	-0.031915147
184	0xbd03359a	-0.03203354
185	0xbd2799b9	-0.040918086
186	0x3c86f023	0.016471928
187	0x3c31545e	0.010823337
188	0x3d5e8dad	0.05433433
189	0x3d045d0c	0.0323153
190	0xbcff4b42	-0.031163815
191	0x3ca3e6df	0.020007549
192	0xbd2a1933	-0.041527938
193	0xbd9be7b0	-0.0761255
194	0x3b1e07c6	0.002411352
195	0x3bde63b5	0.0067867883
196	0x3da9aee2	0.082853094
197	0xbcdf0360	-0.027223289
198	0xbe1247f9	-0.14285268
199	0xbd13050e	-0.035893492
200	0xbbc56691	-0.0060241898
201	0xbd19ec10	-0.037578642
202	0xbddf78f1	-0.109117396
203	0x3d8baada	0.06819697
204	0x3d77bac3	0.060480844
205	0x3d6a6a92	0.05723054
206	0x3e0483d1	0.12940909
207	0xbd67d37f	-0.056598183
208	0x3d607dbe	0.054807417
209	0x3ba99905	0.005175712
210	0x3cc3f7d5	0.023921886
211	0xbc3c117d	-0.011478779
212	0xbcd53761	-0.026027383
213	0x3c524371	0.012833462
214	0x3aad32dd	0.0013214011
215	0xbbde7cb5	-0.0067897686
216	0xbd96970f	-0.07353031
217	0x3cd99679	0.026561009
218	0xbe01dc16	-0.12681612
219	0xbcba9b70	-0.022779197
220	0x3db80553	0.089853905
221	0x3cbff644	0.023432858
222	0x3cab5122	0.02091271
223	0x090f27eb	1.7231768e-33
224	0x3c4f1a91	0.012640611
225	0x3cf4fd2f	0.029905884
226	0x3c096ede	0.008388249
227	0xbd071331	-0.032977287
228	0xbd4d7f4a	-0.05017022
229	0x3d9dce8f	0.077054136
230	0xbc718125	-0.014740263
231	0xbdcae795	-0.09907452
232	0x3982daeb	0.0002495864
233	0x3cd81932	0.026379202
234	0xbc3f5dde	-0.0116800945
235	0x3d10780e	0.035270743
236	0x3dd7ac3d	0.10530899
237	0xbd1735eb	-0.036916655
238	0x3cc4be0c	0.024016403
239	0xbde0b588	-0.10972124
240	0x3d34f5d1	0.04417974
241	0x3d85ad8c	0.06527242
242	0x3bc5fab4	0.006041849
243	0x3dc68d16	0.09694879
244	0xbc39e85c	-0.011346903
245	0xbc0c1276	-0.008549323
246	0xbc7c7c0a	-0.015410433
247	0xbc855851	-0.016277464
248	0x3db627ea	0.08894332
249	0x3daa9233	0.083286665
250	0xba9b7080	-0.0011859089
251	0x3d0fac01	0.035076145
252	0xbd8c9678	-0.06864637
253	0xbb1637e6	-0.0022921502
254	0xbd941c89	-0.07232005
255	0xbdc1347e	-0.0943384

combat_3 f4 [384]
0	0x3bf0fecb	0.0073545924
1	0x3e03b20b	0.12860887
2	0x3c0987b1	0.008394168
3	0x3bb1e394	0.0054287408
4	0x3b05e020	0.0020427778
5	0x3d2cd2b6	0.042193137
6	0x3e0524b0	0.13002276
7	0xbc190ba2	-0.009341152
8	0x3d57e078	0.052704304
9	0x3d6aac86	0.057293437
10	0x3bf970f0	0.00761234
11	0x3cbd3f89	0.023101585
12	0x3c6d99da	0.014502013
13	0x3afbde21	0.001921598
14	0xbcf256a5	-0.029582331
15	0x3d83d615	0.06437317
16	0x3d3b2196	0.045686327
17	0x3de6d4b2	0.11271037
18	0x3c719c47	0.014746732
19	0x3d8f1518	0.06986445
20	0xbc869596	-0.01642875
21	0x3c531232	0.012882756
22	0xbcb29fbf	-0.021804688
23	0x3c92cd11	0.017920049
24	0xbdb72f4c	-0.08944568
25	0x3bd58908	0.0065165795
26	0x3ce80bf5	0.028326014
27	0x3d47cb81	0.04877806
28	0x3cb22df6	0.021750432
29	0xbe15d0c9	-0.14630426
30	0x3d612b83	0.054973137
31	0xbd244c4d	-0.04011183
32	0x3cf11363	0.02942819
33	0x3da79c1d	0.08184073
34	0xbe46a103	-0.19397359
35	0xbbee5b02	-0.0072740326
36	0xbd5357e9	-0.05159751
37	0x3c74b270	0.014935121
38	0x3c43621c	0.011925247
39	0x3d14a7e8	0.03629294
40	0xbb0df078	-0.0021658223
41	0x3b9899f3	0.004657024
42	0xbccf93b5	-0.025338987
43	0xbb8c8e60	-0.0042894334
44	0x3d04e143	0.03244139
45	0x3cc1df42	0.023666028
46	0xbd844eb7	-0.06460326
47	0x3da9a459	0.082833
48	0x3d812ea6	0.063077256
49	0xbd2ad41b	-0.041706186
50	0xbd3bced3	-0.04585154
51	0x3d7ac7f5	0.06122585
52	0xbccd3b7c	-0.025052778
53	0x3d97426c	0.07385716
54	0x3dc6d207	0.09708028
55	0xbdab2aea	-0.083577946
56	0x3dc9f725	0.09861592
57	0x3d2f10f7	0.04274079
58	0x3bd73341	0.0065673892
59	0xbbffc0a6	-0.007804948
60	0xbb31c3db	-0.0027124796
61	0x3d90a9ef	0.07063662
62	0xbda662bb	-0.081243
63	0x3d17b502	0.037037857
64	0x3bd02b79	0.0063528386
65	0xbbe42c26	-0.0069632707
66	0x3d8e7079	0.06955046
67	0x3cd82190	0.026383191
68	0x3c8c4c02	0.017126087
69	0x3dea4933	0.11439743
70	0x3d205904	0.039147392
71	0x3a0cb462	0.00053674553
72	0x3d5754ec	0.052571222
73	0xbd9255e7	-0.07145291
74	0x3b5724ee	0.0032828408
75	0x3c1472ec	0.009060603
76	0xbd558040	-0.05212426
77	0x3c88b638	0.016688451
78	0x3da85e25	0.08221082
79	0x3ce52d9b	0.027975848
80	0x3c6ea55b	0.014565791
81	0xbcb5ffef	-0.022216765
82	0x3c19273a	0.009347731
83	0xbcefe1f1	-0.029282542
84	0xbb86f534	-0.004118586
85	0xbc5d0b05	-0.013491397
86	0xbd00a3a3	-0.031406056
87	0xbcf1d8e2	-0.029522363
88	0x3e24ce27	0.16094266
89	0xbdaf830e	-0.085699186
90	0xbdc501e1	-0.09619499
91	0x3d925eff	0.07147025
92	0x3d7383b3	0.05945177
93	0xbaadf302	-0.0013271275
94	0x3c997667	0.018733216
95	0xbc2e1ca6	-0.0106269475
96	0xbd031050	-0.03199798
97	0x3c551792	0.013006108
98	0xbdae6158	-0.085146606
99	0x3e16e2c2	0.14734939
100	0x3d1c8dcf	0.038221177
101	0x3d3e6252	0.046480484
102	0xbe22fc05	-0.1591645
103	0xbcd22e47	-0.025656832
104	0xbc3aa773	-0.011392462
105	0x3bd18a59	0.006394666
106	0x3cfe1a2b	0.031018337
107	0xbd6d8114	-0.057984427
108	0xbd7006e3	-0.058600318
109	0x3cdd8b82	0.027044062
110	0x3b19c2c1	0.002346203
111	0x3cae2420	0.02125746
112	0xbb293cc5	-0.0025823575
113	0x3d94df96	0.07269208
114	0xbd7e09c4	-0.062021032
115	0x3d7dccbf	0.06196284
116	0xbc8310ca	-0.015999217
117	0xbc43a655	-0.011941512
118	0xbd17e7de	-0.03708636
119	0xbd0173df	-0.031604644
120	0x3d0cd6a4	0.034384385
121	0xbd582119	-0.05276594
122	0xbd47df23	-0.048796784
123	0x3ce6deef	0.028182475
124	0xbd6d0694	-0.0578676
125	0xbd581adc	-0.05275999
126	0xbdaa611a	-0.08319302
127	0x895b5c9f	-2.6404716e-33
128	0x3d2879e4	0.04113187
129	0xbe08655f	-0.1331992
130	0xbda9f5ba	-0.08298822
131	0x3cfb22d5	0.030656258
132	0x3c3d8e6d	0.0115696015
133	0xbce88ef2	-0.028388474
134	0x3bd047ef	0.0063562314
135	0xbd122da6	-0.035688065
136	0xbd938571	-0.07203186
137	0x3bf116d9	0.00735746
138	0xbcd3ee49	-0.02587046
139	0xbd35f128	-0.044419438
140	0x3c9d1de2	0.019179288
141	0xbd009752	-0.03139431
142	0x3dabfcdb	0.08397838
143	0xbd0a7638	-0.03380415
144	0x3abfec3f	0.001464255
145	0x3db8e155	0.09027354
146	0xbdb1c8bf	-0.086808674
147	0x3bb0f9ca	0.005400871
148	0x3d49aa40	0.04923463
149	0x3dc802f4	0.09766188
150	0xbd830b80	-0.06398678
151	0x3c96a960	0.018391311
152	0xbcc93161	-0.024559679
153	0x3d9a861a	0.07545109
154	0xbd5cad84	-0.053876415
155	0x3c462b18	0.012095235
156	0x3d8793f5	0.066200174
157	0xbc8775bb	-0.01653563
158	0x3c88ddb0	0.016707271
159	0xbd2e9b56	-0.04262861
160	0xbd99cd3b	-0.07509848
161	0x3d50285c	0.05081974
162	0xbc5ceacb	-0.013483713
163	0xbd0edcab	-0.034878414
164	0xbd82c0b4	-0.063844115
165	0xba14ccc2	-0.0005676263
166	0xbbf967ef	-0.007611267
167	0xbc20288a	-0.00977529
168	0xbced881a	-0.028995562
169	0xbc52c4c9	-0.0128643
170	0xbd930a4c	-0.07179698
171	0xbda699cb	-0.081348024
172	0xb9e0f1a9	-0.0004290466
173	0xbd1fb00f	-0.038986262
174	0x3c9354de	0.017984804
175	0xbd3d40a8	-0.04620424
176	0xbdae1f82	-0.085021034
177	0xbd85e749	-0.06538255
178	0x3d77334d	0.06035166
179	0x3c075231	0.008259342
180	0x3d2a0451	0.041508023
181	0x3ad147e0	0.0015966855
182	0xbcea952f	-0.02863559
183	0x3bcc5e38	0.0062368177
184	0x3d06544e	0.032795243
185	0xbd23e6ee	-0.040015154
186	0xbb9e3945	-0.0048286044
187	0x3d81570b	0.0631543
188	0xbcdb7ab2	-0.026791904
189	0x3c35f0aa	0.011104742
190	0xbb5d1dd8	-0.0033739712
191	0x3dcca061	0.09991527
192	0xbd33606b	-0.043793123
193	0xbd95ecbd	-0.07320545
194	0xbda8a08b	-0.08233746
195	0x3c138909	0.00900484
196	0x3c21d03a	0.009876305
197	0xbd55d6c4	-0.05220677
198	0xbd0bf67c	-0.034170613
199	0xbd4d45ab	-0.05011527
200	0x3c6465db	0.0139403
201	0xbce57870	-0.02801153
202	0xbd5b7c7c	-0.053585514
203	0xbd493112	-0.049119063
204	0x3d96677a	0.07343955
205	0xbc0ac003	-0.008468631
206	0x3c3a6eaa	0.011378923
207	0xbd135360	-0.035968184
208	0x3d594fe7	0.053054716
209	0x3c910795	0.01770381
210	0xbc8385e9	-0.016055064
211	0x3c8fa824	0.01753623
212	0xbd77fe54	-0.06054528
213	0xbc982aba	-0.018575061
214	0xbd07106a	-0.032974638
215	0xbd9d87e5	-0.076919354
216	0x3caa6587	0.020800365
217	0x3d985adb	0.07439204
218	0xbdd36eab	-0.103238426
219	0xbbbe0025	-0.005798357
220	0xbcc0b1ad	-0.023522222
221	0xbd045cb3	-0.032314967
222	0x3c5b0a0c	0.013369095
223	0x08e1e7e8	1.3596216e-33
224	0xbbb35fe8	-0.0054740794
225	0x3c573985	0.013136272
226	0xbd1dcf5e	-0.03852784
227	0x3dee621d	0.116398074
228	0x3d0b3ec0	0.03399539
229	0x3c8c36bf	0.017115949
230	0xbb258a63	-0.0025259487
231	0x3ca46ec3	0.020072347
232	0xbd0cb431	-0.03435153
233	0xbc7e3e2e	-0.0155177545
234	0x3c2c1b18	0.0105045065
235	0x3bd9b59c	0.006643964
236	0x3d26fab3	0.04076643
237	0x3d41c76a	0.047309317
238	0x3d7364fa	0.05942247
239	0x3cfeb556	0.031092327
240	0x3dbba7ae	0.09162842
241	0x3d14b446	0.036304735
242	0xbdd16368	-0.10224038
243	0x3caa2209	0.020768182
244	0x3d93207c	0.0718393
245	0xbd110c31	-0.035412017
246	0x3d1e708d	0.038681556
247	0xbda77cf5	-0.081781305
248	0xbcbfdc57	-0.023420496
249	0xbd37104e	-0.044693284
250	0x3dd19e8a	0.10235317
251	0x3d4ae352	0.049533196
252	0xbcf4ea53	-0.02989689
253	0xbc330982	-0.01092756
254	0xbc1b38c8	-0.009473987
255	0xbc796409	-0.015221604

combat_4 f4 [384]
0	0xbba7428b	-0.005104368
1	0x3dd0392d	0.101671554
2	0xbc273fcd	-0.010208082
3	0xbd079a33	-0.03310604
4	0xbcc39d40	-0.023878694
5	0x3d282f7b	0.041060906
6	0x3e196c17	0.14982639
7	0xbd1a6ef5	-0.037703473
8	0xb6e6f229	-6.8827253e-06
9	0xbd89b368	-0.06723672
10	0x3df1cab8	0.11806244
11	0xbd048e90	-0.03236252
12	0xbc86e70d	-0.016467595
13	0x3da7f8da	0.082017615
14	0x3c474bac	0.012164038
15	0x3ca44d9a	0.020056535
16	0x3df36ef8	0.118864
17	0x3cdb4b39	0.026769267
18	0xbc5e974a	-0.013585875
19	0x3d3ad342	0.045611627
20	0x3cb2a7c8	0.02180852
21	0x3a93ba9d	0.0011270825
22	0xbcaf9d05	-0.021437177
23	0xbd0ed8b5	-0.034874637
24	0xbdc5cde5	-0.09658412
25	0x3d7c4df1	0.06159777
26	0x3c525e89	0.012839922
27	0xbd33a7b6	-0.043861113
28	0x3ca2a88e	0.019855764
29	0xbd994486	-0.07483773
30	0xbd81ea97	-0.063435726
31	0xbd2089c6	-0.03919389
32	0x3bd94b68	0.0066313036
33	0x3d1f62a3	0.038912427
34	0xbe0df55d	-0.1386313
35	0xbc4044ae	-0.0117351245
36	0xbc4eef67	-0.01263032
37	0x3cbbd079	0.022926556
38	0x3db4cc9f	0.08828091
39	0xbc5ff471	-0.013669119
40	0xbd6df946	-0.058099054
41	0x3c03832b	0.008026878
42	0x3d275c9a	0.040859796
43	0xbbc521e3	-0.0060160025
44	0x3cc1e670	0.023669451
45	0x3d412758	0.04715666
46	0x3c1cbf0c	0.0095670335
47	0x3d26915d	0.040665973
48	0xbccc16f7	-0.024913294
49	0xbd69b312	-0.05705554
50	0x3c70aa3a	0.014689023
51	0xbc49334f	-0.012280299
52	0x3c909ebe	0.01765382
53	0x3da8b3b7	0.08237403
54	0x3deb882d	0.11500583
55	0xbd26de9a	-0.040739633
56	0x3db163b9	0.08661599
57	0xbba025e2	-0.0048873285
58	0x3d366407	0.044528987
59	0x3d1f444c	0.038883492
60	0x3ca29727	0.019847466
61	0x3c8d3710	0.01723817
62	0xbc35a9f6	-0.011087885
63	0x3cbeeb0e	0.023305442
64	0xbd1b7744	-0.037955537
65	0xbd105bd6	-0.03524383
66	0xbba0b4a3	-0.004904346
67	0xbb8047c2	-0.003914804
68	0x3d62717e	0.055284016
69	0x3de95a3e	0.113941655
70	0xbc2fc372	-0.01072775
71	0xbb4a9edc	-0.0030917441
72	0xbc8e0af0	-0.0173392
73	0xbcf9b7e1	-0.030483188
74	0xbd7146f4	-0.058905557
75	0x3ce78279	0.028260456
76	0xbd153497	-0.036427107
77	0xbc79429a	-0.015213633
78	0x3db8d4ed	0.09024987
79	0x3b3fb5b0	0.0029252581
80	0x3c32956f	0.010899886
81	0xbc9a896a	-0.018864352
82	0x3bb2be2a	0.005454798
83	0x3d4c3ebd	0.04986452
84	0xbca862ec	-0.020554982
85	0x3a305532	0.0006726562
86	0x3d8ac302	0.06775476
87	0xbd30514f	-0.043046292
88	0x3d5e9c9d	0.054348577
89	0x3d24c0ba	0.04022286
90	0x3b81fd01	0.003966928
91	0x3c01d63e	0.0079246145
92	0x3d6f7f4d	0.058471013
93	0xbd46e1fa	-0.04855535
94	0xbd8d0325	-0.068853654
95	0xbd3adbd6	-0.04561981
96	0xbdbc9c95	-0.09209553
97	0xbd3c63d1	-0.04599363
98	0xbe055247	-0.13019668
99	0x3dee7a56	0.116444275
100	0x3d5fe4b7	0.05466148
101	0x3c2f4634	0.01069789
102	0xbc907db1	-0.01763806
103	0x3a7fe2de	0.0009761284
104	0x3d3ee82f	0.046608146
105	0xbcd2ab14	-0.025716342
106	0x3c6c96b8	0.014440231
107	0xbd908569	-0.07056696
108	0xbd0c2bf6	-0.034221612
109	0x3d9e5061	0.07730175
110	0xbd85cdb0	-0.065333724
111	0x3d5ae670	0.05344242
112	0xbcac8f73	-0.021064496
113	0x3d0fa34f	0.035067853
114	0xbd584204	-0.052797332
115	0x3dc26daa	0.09493573
116	0x3d03543d	0.032062758
117	0x3cb1db0c	0.021710895
118	0xbd09f737	-0.033683028
119	0x3b5b2f3e	0.0033444907
120	0x3d394543	0.04523207
121	0xbbd66010	-0.0065422133
122	0x3d1a0135	0.037598807
123	0x3cdc9fcc	0.026931666
124	0xbca90f42	-0.020637158
125	0xbd9e4ce4	-0.077295095
126	0xbd1a38c2	-0.037651785
127	0x88b0876d	-1.0624453e-33
128	0x3d8161ae	0.06317459
129	0xbdac5b2b	-0.084158264
130	0xbd935ec0	-0.071958065
131	0xbc945b11	-0.01810983
132	0x3d3660ad	0.04452579
133	0x39caf007	0.00038707277
134	0xbd9bb733	-0.07603302
135	0xbd0e21a7	-0.034700062
136	0xbb53ec5f	-0.0032336933
137	0x3d238e16	0.039930426
138	0xbd39e4c0	-0.04538417
139	0xbd642c0e	-0.055706076
140	0x3c944bd9	0.018102573
141	0xbd27bed4	-0.040953472
142	0x3d048c9a	0.03236065
143	0x3d25dc76	0.04049345
144	0xbc8aeedb	-0.016959598
145	0x3d9976ff	0.074934
146	0xbca5bc8b	-0.020231506
147	0xbc940ecc	-0.018073462
148	0x3ceb1ca4	0.02870018
149	0xbd55ab11	-0.052165095
150	0xbcc65db8	-0.02421461
151	0x3d08ca61	0.03339613
152	0xbdad40ca	-0.08459623
153	0x3c5c13dd	0.01343247
154	0xbd2d02de	-0.042239062
155	0xbc3632eb	-0.011120538
156	0x3de2d005	0.11074833
157	0x3c69b8ef	0.014265283
158	0xbd1b6c20	-0.037944913
159	0xbb4a9a24	-0.003091463
160	0x3d1e2442	0.038608797
161	0x3d98768d	0.07444487
162	0x3baa2f82	0.0051936517
163	0xbc68badb	-0.014204706
164	0x3d0f843d	0.03503822
165	0xbd001329	-0.031268273
166	0xbbfdb57c	-0.007742582
167	0xbc772256	-0.01508387
168	0xbd4f7083	-0.05064441
169	0x3ba695ba	0.0050837668
170	0xbcc8813e	-0.02447569
171	0x3ba8ac68	0.0051475056
172	0x3d9293ed	0.07157121
173	0xbd82e3e7	-0.06391125
174	0xbc067da3	-0.008208665
175	0xbd016d76	-0.03159853
176	0xbdac9817	-0.08427446
177	0xbcc822bf	-0.02443063
178	0x3c8b142a	0.016977388
179	0xbb539928	-0.0032287333
180	0x3c86854f	0.016420988
181	0x3ca13ead	0.019683206
182	0xbdb16ae5	-0.08662967
183	0xbc2beeab	-0.010493915
184	0xbb8d599b	-0.0043136603
185	0x3d9f37b9	0.077743
186	0xbc973e19	-0.018462228
187	0x3d00f7bd	0.03148626
188	0x3cae9dd7	0.021315498
189	0x3d319160	0.04335153
190	0x3d0b463f	0.03400254
191	0x3caeab15	0.021321813
192	0xbd279e3f	-0.0409224
193	0xbd8f8511	-0.07007802
194	0xbd8077b3	-0.06272831
195	0x3b24d6ac	0.0025152368
196	0x3c8b9327	0.017037941
197	0xbd795fb9	-0.060882304
198	0xbdbeb829	-0.093124695
199	0x3cc4de2b	0.02403172
200	0x3de371ec	0.11105713
201	0xbcdb259d	-0.026751334
202	0xbdf8e031	-0.12152136
203	0xbd9ea030	-0.07745397
204	0x3d85dbbe	0.06536053
205	0xbda860c9	-0.08221585
206	0x3c84d152	0.016213093
207	0xbd431198	-0.0476242
208	0x3c3e491e	0.011614112
209	0x3c160d8a	0.009158501
210	0x3c75bd84	0.014998797
211	0x3c040e40	0.008060038
212	0xbd793be2	-0.060848124
213	0xbd25229b	-0.040316205
214	0xbd79354c	-0.060841843
215	0xbd0d342d	-0.034473587
216	0x3d5ecd25	0.05439486
217	0x3de12f73	0.10995378
218	0xbdcb7ccf	-0.09935915
219	0x3bc84870	0.006112151
220	0x3bf8ec77	0.007596548
221	0xbd4799a3	-0.048730504
222	0x3d813e8a	0.063107565
223	0x088ce28e	8.479206e-34
224	0x3d7db66d	0.061941553
225	0xbc2322f0	-0.00995706
226	0xbc614298	-0.013748787
227	0xbd99457c	-0.07483956
228	0x3dba327b	0.0909166
229	0x3b9b12d5	0.0047324696
230	0xbd55ab44	-0.052165285
231	0xbd096009	-0.033538852
232	0xbde1e1e9	-0.11029417
233	0xbd76f23a	-0.0602896
234	0xbded58ae	-0.1158918
235	0xbc8d3eb0	-0.017241806
236	0x3dc0b767	0.09409981
237	0x3dc16515	0.09443108
238	0x3d0a44f7	0.033757176
239	0xbc933718	-0.017970607
240	0x3d82a71a	0.06379528
241	0x3bfe0a6f	0.0077527086
242	0xbda0d7b1	-0.0785364
243	0xbba942c2	-0.005165429
244	0x3c1c4c6a	0.009539703
245	0xbd84d064	-0.0648506
246	0x3d9d2349	0.07672746
247	0x3cd6b279	0.02620815
248	0xbd0bb392	-0.0341068
249	0x3d2a5293	0.041582655
250	0x3d91f4e0	0.07126784
251	0x3caee489	0.021349208
252	0xbd05df3a	-0.03268359
253	0x3d1fe006	0.039032005
254	0xbbe01b0a	-0.006839161
255	0xbd9870bd	-0.07443378

combat_5 f4 [384]
0	0x3c2119ee	0.009832842
1	0x3db26e2f	0.08712422
2	0xbd52b101	-0.051438335
3	0x3bae1456	0.005312483
4	0xbda41fb1	-0.08013857
5	0x3c9781f9	0.018494593
6	0x3c85aeae	0.016318645
7	0xbacf8e6f	-0.0015835295
8	0xbd9171f1	-0.07101811
9	0xbd82d6ce	-0.06388627
10	0x3d1ee43f	0.03879189
11	0xbda0c8c7	-0.07850795
12	0x3d05953d	0.032613028
13	0x3ca73544	0.020411141
14	0x3d921dcc	0.071345896
15	0xbd85dbba	-0.0653605
16	0xbc0d3636	-0.008618882
17	0x3bf63115	0.0075131753
18	0xbb309c23	-0.0026948533
19	0xbd0f1873	-0.034935426
20	0xbd57525c	-0.05256878
21	0x3df4432c	0.119268745
22	0xbd64429d	-0.05572759
23	0x3cc3dafb	0.023908129
24	0xbd870caf	-0.06594216
25	0x3c8d180d	0.017223382
26	0xbd837f6d	-0.06420789
27	0xbdbb99eb	-0.09160217
28	0xbcdfd5ed	-0.027323687
29	0xbdd08ca8	-0.10183078
30	0x3d324962	0.043527015
31	0x3bb86170	0.00562685
32	0xbd77b3c6	-0.06047418
33	0x3bb580df	0.0055390443
34	0xbc412729	-0.011789122
35	0x3da933f2	0.08261861
36	0x3be887e7	0.007096279
37	0x3d1bb565	0.03801479
38	0xbd79dab9	-0.060999606
39	0xbb3dce67	-0.0028962137
40	0x3c38dc60	0.01128301
41	0x3cbb35dd	0.022852832
42	0x3bbfe848	0.0058565475
43	0xbccf560c	-0.025309585
44	0xbb543731	-0.003238153
45	0xbd885dcf	-0.066585176
46	0x3c862a56	0.01637761
47	0x3cdf488e	0.027256276
48	0x3cd5b7b8	0.02608858
49	0x397293fd	0.00023134048
50	0xbd9bc69e	-0.076062426
51	0x3c71906f	0.014743908
52	0x3d45dffd	0.048309315
53	0xbc547067	-0.012966252
54	0x3d297d2b	0.041379135
55	0x3cff1712	0.03113893
56	0x3cccf992	0.025021348
57	0x3ab75086	0.001398579
58	0xbcf0d00f	-0.029396085
59	0xbd42a216	-0.04751786
60	0xbd040f75	-0.032241303
61	0x3d18a167	0.0372633
62	0xbc0e6b52	-0.008692579
63	0x3d29a842	0.04142023
64	0xbcb642f4	-0.022248723
65	0xbcb807a3	-0.022464579
66	0x3c8212e3	0.015878147
67	0x3d8a5ad2	0.06755604
68	0x3d0a8900	0.03382206
69	0x3e180a6b	0.14847724
70	0xba9aee0e	-0.0011820213
71	0xbd9813fc	-0.07425687
72	0xbc09e6e6	-0.008416867
73	0xbd576dd7	-0.052594986
74	0x3d34f1d3	0.044175934
75	0x3cd1c4a7	0.025606466
76	0xbdae7d56	-0.0852
77	0xbcc91781	-0.02454734
78	0x3d02e9af	0.03196114
79	0x3cc92c2e	0.0245572
80	0xbd3d87b4	-0.046271995
81	0xbca9d980	-0.020733595
82	0xbdae29d5	-0.085040726
83	0xbce671b1	-0.028130384
84	0xbc9144ec	-0.01773306
85	0x3e0f35c4	0.13985354
86	0xbd336f1e	-0.04380714
87	0x3cbdf09a	0.023186017
88	0x3cda3652	0.02663723
89	0xbbd65baf	-0.0065416913
90	0x3d84ff81	0.06494046
91	0xbd81982b	-0.06327852
92	0xbcb661fb	-0.022263518
93	0x3d9d8690	0.076916814
94	0xbd490418	-0.04907617
95	0xbcb323b9	-0.02186762
96	0xbd91b358	-0.07114285
97	0xbd334720	-0.043769002
98	0xbdb5d7a4	-0.08879021
99	0x3dbc4f25	0.09194783
100	0xbd1f2118	-0.03884992
101	0x394bae5c	0.00019424543
102	0xbd4e65d0	-0.050390065
103	0x3dd94fcb	0.106109224
104	0x3c996ccb	0.018728634
105	0xbd81d3bd	-0.06339214
106	0x3bf01cb4	0.0073276404
107	0xbcd384b3	-0.025820112
108	0xbd3da1d5	-0.046296913
109	0x3c9fe617	0.019518895
110	0x3d40db3c	0.04708408
111	0x3cfa3e2d	0.030547226
112	0xbd6a940b	-0.05727009
113	0xbd797690	-0.060904086
114	0x3d9fd4a1	0.078042276
115	0x3d9973eb	0.07492813
116	0x3d8da98a	0.06917103
117	0xbc5d6f0d	-0.013515246
118	0xbb8a55f9	-0.0042216745
119	0x3d05cbb1	0.03266496
120	0x3e1e7769	0.15475239
121	0xbd362c66	-0.044475935
122	0xbceb4d32	-0.028723333
123	0x3cd16d34	0.025564767
124	0x3dab5bb2	0.08367099
125	0xbd052ca9	-0.032513294
126	0xbca7242d	-0.020402992
127	0x892c807c	-2.076416e-33
128	0x3d9064c7	0.07050472
129	0x3d20c965	0.039254565
130	0x3d11c96d	0.035592485
131	0x3b314c76	0.002705363
132	0x3b10c057	0.00220873
133	0xbd5bab02	-0.053629883
134	0x3c84cd11	0.016211065
135	0xbc9f86df	-0.019473491
136	0x3d373fea	0.044738688
137	0x3d528c85	0.05140354
138	0x3bed196b	0.007235696
139	0x3d4359ea	0.04769317
140	0x3c32019f	0.010864644
141	0xbc281b10	-0.010260358
142	0xbd0da4f8	-0.034581155
143	0xbdd0bf88	-0.10192782
144	0x3c2993de	0.010350196
145	0x3da98b50	0.08278525
146	0x3ce86937	0.028370483
147	0xbd3976fb	-0.045279484
148	0x3cf7ec20	0.03026396
149	0xbbad03e8	-0.0052800067
150	0xbd3adc5f	-0.04562032
151	0xbd9eba06	-0.07750325
152	0xbc0a79e5	-0.0084519135
153	0x3d18e9a6	0.0373322
154	0x3c2e06d8	0.010621749
155	0x3d301495	0.04298838
156	0x3b2af6f3	0.0026087135
157	0x3da99e82	0.08282186
158	0x3d0e4f35	0.034743506
159	0xbd9ac8d1	-0.07557834
160	0xbb9b94dc	-0.00474797
161	0xbc80639f	-0.015672503
162	0x3d2821b2	0.04104776
163	0xbd4e4a13	-0.05036361
164	0xbdfa878c	-0.12232885
165	0xbd475253	-0.048662495
166	0x3d6ac54b	0.05731706
167	0x3c52b626	0.01286081
168	0xbd6017d6	-0.05471023
169	0xbce07de4	-0.02740378
170	0xbd86de06	-0.06585316
171	0x3b6439c1	0.0034824463
172	0x3d0d5065	0.0345005
173	0xbcb9d3be	-0.022683974
174	0x3c6e22e3	0.014534685
175	0xbd51aeed	-0.051192213
176	0xbcfa078b	-0.030521175
177	0xbd74348a	-0.059620418
178	0x3e06c744	0.13161951
179	0x3ce996e3	0.028514331
180	0x3d946d6e	0.072474346
181	0xbcc8e9f1	-0.024525614
182	0x3d913f42	0.070921436
183	0xbd53e297	-0.051729765
184	0x3be2edc2	0.0069253156
185	0x3cfff3ad	0.031244123
186	0x3d171c10	0.036891997
187	0x3d50091f	0.05078995
188	0xbd1e0d24	-0.03858675
189	0xbc1126f9	-0.008859389
190	0x3d50aced	0.050946165
191	0x3c32c446	0.010911053
192	0x3d0bb92b	0.034112137
193	0xbc6d742e	-0.014493031
194	0xbcfe7d3c	-0.031065576
195	0x3d69e7cb	0.05710582
196	0xbd312d95	-0.04325636
197	0x3d794ccc	0.060864255
198	0x3c42cad4	0.011889178
199	0x3d392a3f	0.045206305
200	0xbc95c8b7	-0.018284185
201	0x3cd85e4c	0.026412152
202	0xbc20179a	-0.009771252
203	0xbc05c420	-0.008164436
204	0x3ddd9d1e	0.10820983
205	0x3d1f9f10	0.038970053
206	0x3d722dd0	0.05912572
207	0xbcccce6a	-0.02500077
208	0x3bce8a8a	0.0063031362
209	0x3d8f9dbc	0.07012507
210	0xbdcc8327	-0.09985953
211	0xbc44bc8c	-0.012007844
212	0xb930be66	-0.00016855597
213	0xbd5b3329	-0.053515587
214	0x3d77c02d	0.060486007
215	0xbd057676	-0.032583676
216	0xbdc281fc	-0.09497449
217	0xbd7eebff	-0.062236782
218	0xbce17c78	-0.027525172
219	0xbd0392ce	-0.032122426
220	0x3d110571	0.03540558
221	0xbdcb49ea	-0.09926207
222	0x3b53fb94	0.0032345997
223	0x071beb3b	1.1730032e-34
224	0x3ce9d90a	0.028545875
225	0xbce3d817	-0.027813
226	0x3d40bdc2	0.047055967
227	0xbd602ec0	-0.054732084
228	0xbd6939a0	-0.05693972
229	0xbd68e13b	-0.05685542
230	0x3ce8a43c	0.028398626
231	0x3d39f783	0.04540206
232	0xbd2c55f4	-0.04207416
233	0xbd02f390	-0.03197056
234	0xbe084a0e	-0.133095
235	0x3db4d6cf	0.08830034
236	0xbd0cf608	-0.03441432
237	0x3cf4d9c5	0.029888997
238	0x3d91d307	0.071203284
239	0xbba376da	-0.0049885334
240	0x3d1c0998	0.038095087
241	0xbd8e37cf	-0.069442384
242	0x3a9044e4	0.0011006859
243	0x3c8a054c	0.016848229
244	0xbbd2f270	-0.006437592
245	0xbcfe29c2	-0.031025771
246	0x3cfbee22	0.030753199
247	0x3ca5a0d4	0.02021829
248	0xbb245237	-0.0025073418
249	0x3c082f36	0.008312037
250	0x3cec12f7	0.028817637
251	0x3cad8a34	0.021184064
252	0x3d7a4cdc	0.061108455
253	0xbd454c35	-0.04816838
254	0x3c014c01	0.007891656
255	0xbd66cfd5	-0.056350548

combat_6 f4 [384]
0	0xbce5d423	-0.028055256
1	0x3dd0efdc	0.102019995
2	0xbda72c75	-0.081627764
3	0xbce96e26	-0.028494906
4	0xbba4230f	-0.005009062
5	0x3d4f7af5	0.05065437
6	0x3c85b401	0.016321184
7	0x3ccf39cf	0.02529612
8	0x3d362721	0.04447091
9	0x3bb52f23	0.005529301
10	0xbd46efd6	-0.04856857
11	0xbcc9db07	-0.024640573
12	0x3d88d852	0.06681885
13	0x3be422a3	0.006962137
14	0x3d62276b	0.055213373
15	0xbcef6cb7	-0.029226644
16	0x3cc18139	0.023621188
17	0x3c40bd61	0.011763901
18	0xbdb61705	-0.088911094
19	0xbd8f0040	-0.069824696
20	0xbe133b73	-0.14378147
21	0xbd3c36ed	-0.04595082
22	0xbc3156d6	-0.010823926
23	0xbc73584b	-0.014852594
24	0xbd340a56	-0.04395517
25	0xbd244e5f	-0.040113803
26	0xbba2c921	-0.004967824
27	0x3bd32fec	0.0064449217
28	0x3d46d08e	0.048538737
29	0xbe16864f	-0.14699672
30	0xbc759cf6	-0.014991036
31	0xbd06ca10	-0.032907546
32	0x3c8e1736	0.017345052
33	0x3d461b88	0.0483661
34	0xbe36d75b	-0.17855589
35	0x3c39105a	0.011295402
36	0x3cb0f11b	0.021599343
37	0x3c4bb314	0.012432832
38	0xbc8127fb	-0.015766134
39	0x3c3e5ba1	0.011618526
40	0xbab8f78c	-0.0014111861
41	0xbd7efb4f	-0.062251385
42	0x3bf4295d	0.00745122
43	0xbc9512ca	-0.018197436
44	0x3d3d4840	0.04621148
45	0x3ce307b7	0.02771364
46	0xbcedb856	-0.029018562
47	0x3d5262bc	0.05136369
48	0x3d40fd5e	0.04711663
49	0xbc5532ca	-0.013012597
50	0xbd100daa	-0.03516928
51	0x3c28ec48	0.01031024
52	0xbd629e76	-0.0553269
53	0x3dceda68	0.101002514
54	0x3d05b41d	0.032642473
55	0x3d8a8b4a	0.067648485
56	0x3cb467b0	0.022022098
57	0x3c99a9f5	0.0187578
58	0xbc4f4a17	-0.012651942
59	0xbd405a5c	-0.046961173
60	0x3779bd37	1.4885612e-05
61	0xbd3312f6	-0.043719254
62	0xbc8072b6	-0.015679698
63	0xbb820a86	-0.0039685396
64	0xbd9e43a5	-0.07727746
65	0xbe13e6a1	-0.14443447
66	0xbc065584	-0.008199099
67	0x3e010cc7	0.1260253
68	0xbc3bca64	-0.011461828
69	0x3d8906bc	0.066907376
70	0x3daa3717	0.08311289
71	0xbc1aebe2	-0.009455653
72	0xbcb2c443	-0.0218221
73	0xbdafa2da	-0.08575983
74	0x3d99df3f	0.07513284
75	0x3d7cefe0	0.0617522
76	0x3caead4d	0.02132287
77	0xbd3f2fd9	-0.04667649
78	0xbc4d12d9	-0.012516701
79	0xbdbd9336	-0.09256594
80	0x3c042427	0.00806526
81	0x3d2b328f	0.041796263
82	0xbdeaf8ca	-0.11473234
83	0x3d6aba80	0.057306767
84	0x3d30eb58	0.04319319
85	0xbd119e00	-0.03555107
86	0xbc1f025a	-0.0097051505
87	0xbcfb3cd8	-0.030668661
88	0x3dd279aa	0.10277112
89	0x3cde8277	0.02716182
90	0x3d0ffd12	0.035153456
91	0x3d255886	0.040367626
92	0x3d242f3a	0.0400841
93	0x3d6a4a86	0.057199977
94	0x3d23a4c6	0.039952062
95	0x3d7c0144	0.061524644
96	0xbd2fb4e8	-0.042897135
97	0xbdb3b733	-0.08775177
98	0xbdd6504a	-0.10464533
99	0x3d9aa566	0.075510785
100	0x3ccf9452	0.02533928
101	0xbc9d9f8f	-0.019241123
102	0x39f12a10	0.0004599844
103	0xbab0c43f	-0.001348622
104	0x3d08454c	0.03326921
105	0xbcf0e707	-0.029407037
106	0x3d10d722	0.035361417
107	0xbc1035bc	-0.008801874
108	0x3ccb4753	0.024814283
109	0xbd12d4c9	-0.03584746
110	0x3ca0a287	0.01960875
111	0x3c70916d	0.01468311
112	0xbd3c6e8e	-0.04600387
113	0xbccd76f5	-0.025081137
114	0xbd88f7c8	-0.066878855
115	0xbdab7ef3	-0.08373823
116	0xbce81f78	-0.028335318
117	0xbcd398a5	-0.025829623
118	0x3bfe54ef	0.0077615897
119	0xbda380d5	-0.07983557
120	0x3d358ab4	0.04432173
121	0x3b7d1996	0.0038619987
122	0xbda64c3a	-0.08120008
123	0x3ce53d2e	0.027983274
124	0x3ccd208f	0.02503994
125	0xbcc04969	-0.023472505
126	0x3cdbe649	0.026843207
127	0x8998047f	-3.6596897e-33
128	0x3c2bf345	0.010495012
129	0xbd406d47	-0.046979215
130	0xbd4e410e	-0.05035501
131	0x3c11e318	0.008904241
132	0x3cd2f9bc	0.025753848
133	0xbcc9c5ba	-0.024630416
134	0x3d736e24	0.05943121
135	0xbd7cc202	-0.061708458
136	0xbd868fb9	-0.06570382
137	0xbd2617b9	-0.040549967
138	0xbd342163	-0.043977153
139	0xbc69e696	-0.014276167
140	0xbc0f8a47	-0.008760995
141	0x3c19240e	0.009346975
142	0x3e14b5fc	0.14522547
143	0xbd0496ab	-0.03237025
144	0xbbeeaeec	-0.007284036
145	0x3d491915	0.049096186
146	0xbd2e0ab0	-0.04249066
147	0xbd616e9d	-0.05503713
148	0x3bbdf15e	0.0057965955
149	0x3d11e574	0.035619214
150	0xbc5261b0	-0.012840673
151	0xbd2bb24a	-0.041918077
152	0x3d49fc3d	0.04931282
153	0xbc676802	-0.0141239185
154	0xbab95b09	-0.001414151
155	0xbdb5d040	-0.08877611
156	0xbdf043bf	-0.117316715
157	0x3d0c438a	0.034244098
158	0x3d41595e	0.047204368
159	0xbd55c856	-0.05219301
160	0xbdc0f423	-0.094215654
161	0x3d34bfe4	0.044128314
162	0xbd160e42	-0.03663469
163	0x3da379a1	0.07982183
164	0xbd6c9b81	-0.057765488
165	0xbdb08c0e	-0.08620463
166	0x3ca17731	0.019710155
167	0x3c629a97	0.013830802
168	0xbda4aee1	-0.08041168
169	0xbc9054a5	-0.017618487
170	0xbc1e3ccc	-0.00965805
171	0xbc9cd407	-0.019144071
172	0x3bcb917c	0.0062124114
173	0x3b24690c	0.0025087027
174	0xbce07c5c	-0.02740305
175	0x3d3157bb	0.043296557
176	0xbcf604f9	-0.030031668
177	0xbc486f51	-0.012233571
178	0x3d8de85b	0.06929084
179	0x3c3ede58	0.011649691
180	0x3c0c6bd2	0.008570628
181	0xbd0414d7	-0.032246437
182	0x3c1237e3	0.008924457
183	0x3d7eba32	0.06218929
184	0x3cd13e91	0.02554253
185	0x3d64d18d	0.055863906
186	0xbccc86b2	-0.024966571
187	0xbca67ac6	-0.020322215
188	0x3d26d36c	0.04072897
189	0xbcdab775	-0.026698807
190	0x3bc66922	0.0060550133
191	0x3de7910a	0.11306961
192	0xbd255424	-0.040363446
193	0xbc715bf7	-0.014731399
194	0xbb9b08ec	-0.004731288
195	0xbd3cd6c7	-0.046103265
196	0x3d1fe0c4	0.039032713
197	0xbd0b9819	-0.0340806
198	0xbd42cf4a	-0.047560968
199	0xbd5c3566	-0.053761862
200	0x3d098d9c	0.033582315
201	0x3d9d695c	0.07686111
202	0x3ba7a1b9	0.0051157144
203	0xbba75ea3	-0.005107717
204	0x3c869ce2	0.01643223
205	0x3cf2da91	0.029645236
206	0x3e015d83	0.12633328
207	0xbdbe3779	-0.09287924
208	0xbd84f4ef	-0.0649203
209	0x3cd0236e	0.02540752
210	0xbcb83e25	-0.02249057
211	0x3d2e0f2c	0.042494938
212	0xbc441847	-0.011968679
213	0x3dc40d3f	0.09572839
214	0x3d532442	0.05154825
215	0xbd7414e4	-0.059590235
216	0xbd43c7ce	-0.04779797
217	0x3c924b92	0.0178583
218	0xbda8d7a7	-0.082442574
219	0x3b4e2021	0.0031452256
220	0xbc37e6fc	-0.011224505
221	0x3dab4fa8	0.083648026
222	0xbd01cf4a	-0.031691827
223	0x0982dcf9	3.1504163e-33
224	0xbc9f40dd	-0.019440109
225	0x3cd24687	0.025668396
226	0x3d3080d5	0.043091614
227	0x3ce70091	0.028198512
228	0xbc597dcb	-0.01327462
229	0xbcf53a6c	-0.029935084
230	0x3d7ed8a7	0.062218335
231	0xbd7d21db	-0.061799865
232	0xbd05e6e1	-0.032690886
233	0x3de1cb50	0.11025107
234	0xbbc69cb2	-0.00606116
235	0x3d05a073	0.03262372
236	0xbc561603	-0.013066771
237	0x3b6f90b8	0.0036554765
238	0x3dd6e29a	0.104924396
239	0xbd492514	-0.049107626
240	0x3db682ae	0.08911644
241	0xbc8e0333	-0.01733551
242	0x3d02d792	0.031943865
243	0xbbc4c696	-0.0060051186
244	0x3c302d89	0.010753044
245	0xbd87792a	-0.06614907
246	0xbd0d64fc	-0.034520134
247	0x3d1390c9	0.03602675
248	0xbaee80a2	-0.0018196295
249	0x3d1c04b6	0.03809043
250	0x3d850200	0.06494522
251	0x3b7a867e	0.0038227136
252	0xbd8468ed	-0.064653255
253	0xbc112e78	-0.008861177
254	0x3c415e8e	0.011802329
255	0xbd1cf4d9	-0.038319442
