assets/vectorized/intents_vectors.safetensors (safetensors, 88936 bytes, 55 tensors)

example_charm_0 f4 [384]
0.01903985 0.08964633 0.021574542 -0.0023268203 0.02530735 0.022437526 0.20013176 -0.06651247
-0.058331355 -0.052640326 -0.008320473 -0.07972545 0.07876878 0.053487763 0.064560495 0.061601847
0.11719568 0.07527616 -0.071770154 -0.0401019 0.030874416 0.02649926 0.03574022 0.011799131
-0.12502076 0.03703352 -0.023697022 -0.007083723 -0.029607642 -0.026771722 -0.049808834 -0.020725569
0.007960435 0.07624823 -0.062382713 0.020762537 -0.022734758 0.022603888 0.021302227 0.0025271056
-0.0073244153 -0.0008615394 0.012436986 0.09243984 0.020155586 0.016101658 -0.057264026 0.05004886
0.022808919 -0.054346118 -0.036834624 -0.021719268 0.0043440573 -0.011989555 -0.018634431 0.009168373
0.05556784 0.08937276 -0.0039844713 0.037157934 -0.04038632 -0.052906584 0.022724131 -0.008309331
-0.08405823 -0.009212078 -0.053141758 0.10592864 0.014124048 0.093075275 -0.035347488 0.11243026
0.019538708 -0.061623383 -0.025366396 -0.0037918098 0.027052244 -0.034147806 0.08665301 -0.048335493
-0.039451208 -0.086763486 -0.05427387 0.015049333 -0.032702558 0.038521864 0.027037926 -0.095638
0.063041635 0.020765893 0.091286294 -0.10099103 -0.05379181 -0.049428474 -0.0013824966 -0.0333644
-0.15435445 -0.05150257 -0.12211399 0.11046758 0.07353943 -0.033265334 0.0017236696 -0.057280894
-0.02238336 -0.009629317 0.043157127 -0.033065494 -0.021981271 0.041124646 0.07788479 0.05836148
-0.017022751 0.06468095 -0.015930986 0.0399222 -0.025617892 -0.0005677738 0.06310556 -0.018893804
0.02878409 0.04022558 -0.008587061 0.057252675 -0.07432297 -0.0066502052 0.08046049 -4.3074837e-33
0.03823718 0.051640365 -0.064296514 0.0074164863 0.0036008537 -0.105595954 -0.04456198 -0.044813935
-0.002973576 0.009733404 -0.013163676 -0.057706345 0.050409853 -0.03664521 0.014059975 0.012113569
-0.05766378 0.041655257 0.058310293 -0.011714764 -0.006709978 -0.038828775 0.0062832693 -0.05322809
-0.030947205 -0.07427758 -0.00356713 -0.025048014 0.031226495 0.03145803 -0.015626935 -0.0026808488
0.050762266 0.03590274 0.0021588574 0.03911949 0.04248218 -0.016847348 0.019894958 -0.13950117
-0.06763132 -0.015566983 0.030827058 -0.028296772 0.060768753 0.0076592043 -0.005182164 -0.047101554
-0.0585909 -0.025247367 0.0045502344 0.012024149 0.0013467837 -0.02873328 -0.008914486 -0.015184086
0.003927149 0.09060508 0.04938604 -0.024185736 0.05405276 0.054802075 0.0068829805 0.077863805
0.01950948 -0.097896166 -0.09908005 0.055505738 0.03856659 -0.06814421 -0.13017642 -0.012067578
-0.06679508 0.054532018 0.007155045 -0.07790756 0.010795469 0.023915198 0.053410113 -0.091951646
0.028404517 -0.10046872 -0.03816361 0.06672229 0.011514906 -0.024392927 0.034290675 -0.08974196
-0.011630148 0.02445509 -0.021890672 0.016996458 0.048425384 -0.02471754 0.008227148 1.3316406e-33
0.014415364 0.054456778 0.118477695 -0.000616865 -0.029089104 -0.01669831 -0.0218601 0.027268093
0.030962754 0.058100123 -0.09191779 0.08413868 0.03921772 -0.016097592 0.028841304 -0.113073654
0.05814566 0.03402788 0.028641347 0.03131036 -0.049945686 -0.008439817 0.004790931 0.035709884
-0.0390747 0.016787384 0.08486866 0.0032315073 0.033797916 -0.017622778 -0.020433651 -0.054644074
00000000: 76f9 9b3c 7f98 b73d 18bd b03c 917d 18bb
00000010: 5c51 cf3c e7ce b73c 57ef 4c3e b137 88bd
00000020: dcec 6ebd 629d 57bd 9852 08bc 1947 a3bd
00000030: 8751 a13d fc15 5b3d 4b38 843d 3852 7c3d
00000040: 4a04 f03d 632a 9a3d 3bfc 92bd e441 24bd
00000050: 58ec fc3c fa14 d93c 5664 123d 2451 413c
00000060: 7105 00be 76b0 173d 4220 c2bc 931e e8bb
00000070: ba8b f2bc 5f50 dbbc 5904 4cbd abc8 a9bc
00000080: 7c6c 023c 0828 9c3d 0485 7fbd 3216 aa3c
00000090: 3e3e babc ca2b b93c 0282 ae3c cc9d 253b
000000a0: a601 f0bb eed8 61ba 80c4 4b3c 1951 bd3d
000000b0: 541d a53c a0e7 833c af8d 6abd 0900 4d3d
000000c0: c5d9 ba3c 099a 5ebd e7df 16bd 9bec b1bc
000000d0: 9858 8e3b d76f 44bc 3ca7 98bc f236 163c
000000e0: 1a9b 633d 1109 b73d 2b90 82bb eb32 183d
000000f0: 206c 25bd 93b4 58bd f527 ba3c dc23 08bc
00000100: b926 acbd 41ee 16bc 2cab 59bd 1df1 d83d
00000110: 8d68 673c 409e be3d 87c8 10bd d641 e63d
00000120: a40f a03c cd68 7cbd 30cd cfbc 0380 78bb
00000130: ab9c dd3c 92de 0bbd 2277 b13d 70fb 45bd
00000140: 9797 21bd 0eb1 b1bd 474e 5ebd 7a91 763c
00000150: 1ef3 05bd 1ac9 1d3d a47e dd3c dbdd c3bd
00000160: f91b 813d 3c1d aa3c 4ff4 ba3d 63d4 cebd
00000170: cd54 5cbd 8375 4abd e334 b5ba 1ca9 08bd
00000180: 180f 1ebe 5cf4 52bd e616 fabd d43c e23d
00000190: d79b 963d 3b41 08bd c1ec e13a 5f9f 6abd
000001a0: 4f5d b7bc 48c4 1dbc 87c5 303d af6f 07bd
000001b0: 1112 b4bc 5172 283d 1082 9f3d 720c 6f3d
000001c0: 4c73 8bbc 7277 843d b381 82bc 7685 233d
000001d0: 9ddc d1bc a8d6 14ba 7d3d 813d 2ec7 9abc
000001e0: 9dcc eb3c 94c3 243d bfb0 0cbc c881 6a3d
000001f0: a436 98bd f7e9 d9bb 78c8 a43d 06ed b289
00000200: 979e 1c3d d984 533d e4ad 83bd ff05 f33b
00000210: 4dfc 6b3b b142 d8bd 9f86 36bd d18e 37bd
00000220: 54e0 42bb db78 1f3c 75ac 57bc 7d5d 6cbd
00000230: 907a 4e3d 4a19 16bd cf5b 663c fe77 463c
00000240: db30 6cbd b49e 2a3d c6d6 6e3d 48ef 3fbc
00000250: 60df dbbb ec0a 1fbd e2e3 cd3b b305 5abd
00000260: fe84 fdbc d81e 98bd 83c6 69bb 7e31 cdbc
00000270: b5ce ff3c 23da 003d 0f04 80bc 2eb1 2fbb
00000280: 18ec 4f3d c00e 133d 9e7b 0d3b c23b 203d
00000290: cb01 2e3d 7303 8abc c0fa a23c 65d9 0ebe
000002a0: 4a82 8abd a90c 7fbc 0789 fc3c a2ce e7bc
000002b0: a8e8 783d 10fa fa3b 24cf a9bb 8fed 40bd
000002c0: 03fd 6fbd 91d3 cebc 221a 953b f000 453c
000002d0: 9086 b03a 0e62 ebbc 100e 12bc acc6 78bc
000002e0: 50af 803b 288f b93d 0449 4a3d 2a21 c6bc
000002f0: 6d66 5d3d 2478 603d a08a e13b 0f77 9f3d
00000300: 58d2 9f3c c97d c8bd 7bea cabd fc59 633d
00000310: 00f8 1d3d 318f 8bbd f84c 05be 17b7 45bc
00000320: dccb 88bd f75c 5f3d de74 ea3b 008e 9fbd
00000330: 7bdf 303c cee9 c33c 90c4 5a3d 2551 bcbd
00000340: 97b0 e83c 8bc2 cdbd 7251 1cbd b2a5 883d
00000350: 04a9 3c3c add3 c7bc 6174 0c3d a2ca b7bd
00000360: 608c 3ebc 0a56 c83c 1154 b3bc 283c 8b3c
00000370: b259 463d 707c cabc 29cb 063c ba41 dd08
00000380: 6b2e 6c3c 120e 5f3d 6fa4 f23d 1cb5 21ba
00000390: 464c eebc e5ca 88bc f413 b3bc 5661 df3c
000003a0: 9aa5 fd3c 65fa 6d3d 653f bcbd e650 ac3d
000003b0: c3a2 203d 19df 83bc 9944 ec3c 2993 e7bd
000003c0: 252a 6e3d d160 0b3d 42a1 ea3c 4b3f 003d
000003d0: d993 4cbd 2847 0abc 3efd 9c3b 8744 123d
000003e0: cb0c 20bd b285 893c 9fcf ad3d b2c7 533b
000003f0: af6f 0a3d a55d 90bc 7964 a7bc 77d2 5fbd

example_charm_1 f4 [384]
0.029556405 0.06656489 0.008466163 -0.062226843 0.022829585 0.102384076 0.046706107 0.028522465
-0.10570693 -0.038680576 -0.066440806 -0.019064525 0.006444965 0.05424945 0.10031676 0.053375047
0.09371994 0.050622385 -0.119926445 0.017001731 -0.03725408 -0.02453196 -0.026928227 -0.036438428
-0.050659765 -0.026731227 0.04014343 -0.03438755 -0.053328138 -0.021989075 0.04079989 -0.037486374
-0.012746721 -0.014222088 0.06543235 0.014375911 -0.038824566 0.06765474 0.0039948984 0.01981955
-0.01805521 -0.060220364 0.05372968 0.04754912 -0.0013922147 0.0011811933 -0.0080404505 0.09059538
0.044797365 -0.049025558 -0.031104237 -0.045566738 -0.02186497 -0.07546264 0.058932897 0.06357708
0.040382903 0.09380876 0.011855355 -0.0032481179 0.032645293 -0.002717319 -0.055067535 -0.021224147
0.030911908 0.103485696 0.0334591 0.07164726 -0.00842345 0.0041816942 0.04780137 0.046321936
0.0397134 0.041046523 0.018438427 0.021073509 -0.05026359 -0.012256397 0.08670419 -0.0062009166
-0.053706747 -0.042784285 -0.10644834 0.033284426 -0.015510351 -0.010834593 0.05264348 -0.004554355
0.02828202 -0.008506095 0.027188333 0.027246948 -0.041982017 -0.004077704 -0.031597592 0.0076154056
-0.043460093 -0.040408194 -0.10444852 0.104398035 0.019994494 -0.0029150492 -0.00052248844 -0.09671382
0.031417944 -0.01912188 -0.071522154 0.06642685 0.023192476 -0.009926838 -0.032127984 0.011968389
-0.011675571 0.06750682 0.087519124 -0.030404728 -0.016800353 0.025057578 0.0243876 -0.04560228
0.026452826 7.408257e-05 0.02912485 0.049777 0.0049560377 -0.07304036 -0.018186199 -3.6458442e-33
0.01203324 0.07841017 0.068179995 0.10950854 -0.0012961129 -0.044863947 -0.03784227 -0.002659167
-0.03753204 0.029705975 0.031269558 0.05727797 0.094455555 -0.046365194 -0.013146489 -0.015129268
0.033393554 -0.073318 -0.07392569 -0.0031819693 0.017203799 -0.099370316 -0.0074754953 -0.08780154
-0.010531465 -0.08542837 0.020965038 -0.019092923 0.12493751 -0.0028928644 0.060953632 0.03661462
-0.069972485 -0.09448012 -0.01709157 -0.009791186 0.0016723393 -0.06875888 -0.0021976614 -0.050468996
-0.08476823 0.044608556 0.03652267 0.03630801 0.03231848 0.08270085 0.09118001 -0.18223703
-0.07597472 0.014877588 -0.028302575 -0.019959832 0.043810014 -0.05394346 0.060114723 -0.09475803
-0.012412105 0.01615816 0.038544603 -0.071779154 0.03819902 -0.04502874 -0.01812789 0.06580744
-0.118061736 -0.049123194 -0.03180648 -0.024585858 0.034354016 -0.061495256 -0.056991417 0.029995067
-0.0377003 -0.013787982 -0.03568927 -0.010693238 -0.039742723 -0.017044043 0.019906111 -0.03666425
0.105499856 -0.02392392 -0.02449252 0.026764536 0.10486157 -0.0024183309 -0.008904404 0.0049608815
0.005983289 -0.011048821 -0.050234575 0.027074674 -0.08196477 -0.038372662 -0.025072232 2.025403e-33
-0.010856146 0.035073306 0.051934738 -0.064503126 0.07904022 0.009106363 -0.002386937 -0.07045688
0.040596258 0.026331695 -0.055506084 -0.0001840675 0.08739834 -0.031052392 -0.0453438 -0.05748163
-0.079686545 0.032747895 -0.04032697 -0.039036766 -0.11716011 -0.0018221566 0.009550727 -0.04203349
0.027823696 0.056013286 0.04844921 0.006722416 0.035116706 -0.017412463 0.025858235 -0.043396518
00000000: 4620 f23c 2c53 883d a9b5 0a3c 93e1 7ebd
00000010: 1c05 bb3c beae d13d e74e 3f3d f2a7 e93c
00000020: e07c d8bd 866f 1ebd 1e12 88bd 352d 9cbc
00000030: 4930 d33b ac34 5e3d e072 cd3d cb9f 5a3d
00000040: 3df0 bf3d 6b59 4f3d ff9b f5bd 3747 8b3c
00000050: bc97 18bd 40f7 c8bc 9698 dcbc 7640 15bd
00000060: 9d80 4fbd 72fb dabc 706d 243d f6d9 0cbd
00000070: 9b6e 5abd 6f22 b4bc c91d 273d 508b 19bd
00000080: 9fd7 50bc c303 69bc 6501 863d f188 6b3c
00000090: 8206 1fbd 918e 8a3d a3e7 823b 9c5c a23c
000000a0: 85e8 93bc a1a9 76bd a713 5c3d dec2 423d
000000b0: f97a b6ba 45d2 9a3a 18bc 03bc 128a b93d
000000c0: 717d 373d 06cf 48bd 50ce febc 30a4 3abd
000000d0: 2a1e b3bc 288c 9abd 9f63 713d b334 823d
000000e0: 8b68 253d cf1e c03d f73c 423c 60de 54bb
000000f0: 12b7 053d 0c15 32bb 7f8e 61bd 43de adbc
00000100: f83a fd3c 4ff0 d33d 690c 093d ccbb 923d
00000110: 8302 0abc 9806 893b 5fcb 433d 12bc 3d3d
00000120: 85aa 223d 6620 283d 2f0c 973c 5aa2 ac3c
00000130: 32e1 4dbd 0ecf 48bc f791 b13d 0f31 cbbb
00000140: 9bfb 5bbd 933e 2fbd 9601 dabd 4055 083d
00000150: 211f 7ebc 9483 31bc b1a0 573d b33c 95bb
00000160: b2af e73c 265d 0bbc 11ba de3c fe34 df3c
00000170: 56f5 2bbd 439e 85bb 7a6c 01bd a78a f93b
00000180: 3603 32bd 1083 25bd 1be9 d5bd a3ce d53d
00000190: 7ecb a33c 690a 3fbb 9bf7 08ba e511 c6bd
000001a0: 1ab0 003d 7da5 9cbc 357a 92bd cd0a 883d
000001b0: 26fe bd3c 2da4 22bc a298 03bd 1017 443c
000001c0: e54a 3fbc 0441 8a3d 3a3d b33d 5613 f9bc
000001d0: e5a0 89bc 8d45 cd3c 81c8 c73c 75c9 3abd
000001e0: 99b3 d83c c75c 9b38 3d97 ee3c f8e2 4b3d
000001f0: 4266 a23b 2f96 95bd 39fb 94bc 4471 9789
00000200: 1127 453c 8395 a03d f4a1 8b3d 0346 e03d
00000210: 55e2 a9ba 42c3 37bd 7f00 1bbd 6b45 2ebb
00000220: 32bb 19bd f259 f33c 8214 003d 4e9c 6a3d
00000230: ea71 c13d 6ee9 3dbd 5f64 57bc c0e0 77bc
00000240: aec7 083d bf27 96bd 5a66 97bd 9688 50bb
00000250: fbee 8c3c aa82 cbbd 00f5 f4bb 4bd1 b3bd
00000260: 2a8c 2cbc 12f5 aebd dfbe ab3c c368 9cbc
00000270: 3ddf ff3d 3696 3dbb 84aa 793d 36f9 153d
00000280: bc4d 8fbd cb7e c1bd 9f03 8cbc 366b 20bc
00000290: 6532 db3a 75d1 8cbd a406 10bb 94b8 4ebd
000002a0: f79a adbd 76b7 363d cc98 153d b5b7 143d
000002b0: 6260 043d 105f a93d 96bc ba3d 589c 3abe
000002c0: a298 9bbd 20c1 733c cdda e7bc cd82 a3bc
000002d0: 2172 333d d1f3 5cbd db3a 763d 7f10 c2bd
000002e0: 245c 4bbc 1e5e 843c f2e0 1d3d f300 93bd
000002f0: 9376 1c3d 0e70 38bd f180 94bc 0dc6 863d
00000300: 5aca f1bd 6735 49bd 8347 02bd 4868 c9bc
00000310: ccb6 0c3d 73e2 7bbd d56f 69bd 37b8 f53c
00000320: a16b 1abd fde6 61bc e92e 12bd b132 2fbc
00000330: 44c9 22bd f39f 8bbc 2412 a33c 412d 16bd
00000340: 4f10 d83d 19fc c3bc 8aa4 c8bc 4d41 db3c
00000350: aac1 d63d dc7c 1ebb c7e3 11bc e48e a23b
00000360: 770f c43b 1d06 35bc c5c2 4dbd b5cb dd3c
00000370: 25dd a7bd a72c 1dbd 4864 cdbc 8f43 2809
00000380: fadd 31bc 07a9 0f3d 85b9 543d 371a 84bd
00000390: d7df a13d db32 153c 286e 1cbb b24b 90bd
000003a0: 4348 263d 91b5 d73c 595a 63bd 3e02 41b9
000003b0: e7fd b23d 9661 febc 6cba 39bd dc71 6bbd
000003c0: b332 a3bd a822 063d e52d 25bd 04e5 1fbd
000003d0: a4f1 efbd 6ed5 eeba a77a 1c3c 4f2b 2cbd
000003e0: 85ee e33c 306e 653d ae72 463d b647 dc3b
000003f0: 89d6 0f3d 95a4 8ebc a6d4 d33c 8cc0 31bd

example_charm_2 f4 [384]
-0.06531256 0.054837447 -0.021573108 -0.013648659 -0.021553319 -0.028648105 0.11381003 -0.015206147
-0.07173309 0.006618165 -0.0032953392 -0.08347957 -0.0049092406 0.06801 0.04399968 0.0085822195
0.034775253 0.003011208 0.009313123 -0.0148876505 -0.0046263477 -0.17765753 0.0143607855 -0.02515571
-0.0159085 0.04095685 -0.022545941 -0.0088932365 -0.035320863 -0.009057888 -0.0072474694 -0.009758152
0.05496903 -0.013602972 -0.07214173 0.010887324 -0.03129035 0.09166254 -0.0030695111 -0.017395912
0.0045241327 -0.03084352 0.015341958 -0.061417267 -0.06762484 0.038811382 0.06668189 0.09564048
-0.040621486 -0.0138745 0.033103846 0.00996956 -0.041148327 -0.0006892654 0.088404424 0.024130754
-0.0033816125 -0.04443702 0.054983735 -0.061885037 0.02740888 0.005016287 -0.035768315 0.0063430504
-0.003766492 -0.0041116094 -0.003548666 0.061693285 -0.07534445 -0.01991252 0.12903973 -0.031686924
-0.041026272 -0.080304936 0.00052753213 0.054859105 0.044701822 -0.037075046 0.09002706 -0.049242888
-0.05792988 0.05741499 0.011462237 0.007482191 0.020830533 -0.08404848 0.0012061669 -0.020322343
0.08787144 -0.078583874 -0.018819878 0.020489043 -0.04075048 0.019055622 0.024495956 0.05121266
0.02794447 -0.027189799 0.013149534 0.1167812 0.11204929 0.049921002 -0.03748352 -0.089301065
0.07574623 0.08390525 -0.07601784 0.05823392 0.075154826 0.039931767 -0.061349977 0.0007494314
0.019139199 -0.009561723 -0.056910902 0.08386334 -0.09557141 0.05491878 -0.046713416 0.0077107125
0.15106012 0.037133742 -0.025736494 -0.0030461105 0.028704662 -0.023256414 -0.03357315 -2.8589751e-33
-0.06867792 0.05914672 -0.011428972 0.0200573 0.04094004 0.036254767 0.047699198 0.007849158
0.005078531 -0.014606188 0.02753529 0.05586221 0.073939756 -0.018374825 -0.060035765 -0.0137410695
0.010667543 -0.0450844 0.07980747 -0.008574854 0.04243034 -0.03878116 0.004271721 0.004666791
0.005886833 -0.0015257385 -0.03787756 -0.03970983 0.15766114 0.029308204 0.032768935 0.034694497
0.030047266 -0.040604066 -0.046442185 0.088647865 -0.030632472 -0.05918768 -0.03097817 -0.059666827
-0.015903434 -0.03225589 -0.0066729486 0.02801876 -0.021618415 0.030424282 0.09989057 -0.0068487814
-0.042334046 0.009737297 -0.048373602 -0.03283572 -0.07948338 -0.005612127 0.001645946 -0.03180513
-0.01760454 -0.017693287 -0.03188869 -0.028163252 0.088378005 -0.0005715314 -0.07794171 0.10210744
-0.08894156 0.009659192 0.0046611307 -0.02497325 -0.07444229 -0.0077505037 0.023122495 0.05385663
-0.11872134 0.07920304 -0.11738129 0.00080245215 0.07101417 0.034568116 0.04934157 -0.04855362
-0.040899538 -0.010166852 0.011063805 0.0135306 0.012626421 0.034977265 -0.044486307 -0.042358674
0.053667367 0.013854605 -0.03602791 -0.046932515 0.034180865 0.010619248 -0.025690202 1.2799824e-33
-0.036703352 -0.0004855679 0.033551715 0.0038913398 0.085225314 0.070931226 0.005586922 -0.020198893
0.023698326 0.07010588 -0.041509107 -0.024045764 0.06773674 -0.0059190807 0.038717385 -0.046676327
0.044834312 0.15758617 -0.006206474 0.0138084125 0.01408242 0.10130456 0.012480298 0.030032406
-0.02905222 0.021846572 -0.029039647 -0.05750476 -0.0069983676 0.10971451 -0.025361508 0.009184784
00000000: 97c2 85bd 3b9d 603d 16ba b0bc a09e 5fbc
00000010: 9690 b0bc 6eaf eabc 3c15 e93d 3423 79bc
00000020: cce8 92bd 31dd d83b 9ef6 57bb 56f7 aabd
00000030: b2dd a0bb d448 8b3d 0239 343d 709c 0c3c
00000040: 7f70 0e3d b057 453b 1296 183c 55eb 73bc
00000050: 9e98 97bb dbeb 35be 8049 6b3c 5913 cebc
00000060: 8b52 82bc 5fc2 273d 44b2 b8bc f0b4 11bc
00000070: 9cac 10bd 8967 14bc 2e7c edbb a8e0 1fbc
00000080: 3527 613d 00df 5ebc 0bbf 93bd bf60 323c
00000090: 4f2a 00bd 92b9 bb3d da29 49bb df81 8ebc
000000a0: 2d3f 943b 8dab fcbc d65c 7b3c ac90 7bbd
000000b0: e47e 8abd aff8 1e3d 8490 883d 28df c33d
000000c0: b762 26bd df51 63bc e697 073d 5e57 233c
000000d0: 268b 28bd d1af 34ba 610d b53d dcad c53c
000000e0: 0b9e 5dbb 9803 36bd a036 613d 2a7b 7dbd
000000f0: 9688 e03c aa5f a43b cc81 12bd 5dd9 cf3b
00000100: 40d7 76bb aeba 86bb bc90 68bb 19b2 7c3d
00000110: 314e 9abd 951f a3bc fe22 043e 26ca 01bd
00000120: 2a0b 28bd ea76 a4bd 154a 0a3a f1b3 603d
00000130: 4219 373d 01dc 17bd 1b60 b83d e9b2 49bd
00000140: e247 6dbd fb2b 6b3d 1bcc 3b3c 2b2d f53b
00000150: cba4 aa3c 9c21 acbd 3f18 9e3a 0b7b a6bc
00000160: f1f5 b33d 95f0 a0bd 252c 9abc a3d8 a73c
00000170: fae9 26bd 891a 9c3c beab c83c 5ec4 513d
00000180: cdeb e43c 24bd debc 2571 573c fb2a ef3d
00000190: 197a e53d f779 4c3d 5288 19bd 7ae3 b6bd
000001a0: d720 9b3d 84d6 ab3d 3eaf 9bbd b186 6e3d
000001b0: c6ea 993d 7e8f 233d 1d4a 7bbd 7d75 443a
000001c0: cfc9 9c3c c6a8 1cbc 681b 69bd 8bc0 ab3d
000001d0: f2ba c3bd 84f2 603d 9156 3fbd 25aa fc3b
000001e0: 81af 1a3e 8d19 183d 57d5 d2bc 41a1 47bb
000001f0: 0a26 eb3c 3c84 bebc 0084 09bd ad83 6d89
00000200: 02a7 8cbd d543 723d 9540 3bbc 354f a43c
00000210: beb0 273d e17f 143d 3c60 433d c199 003c
00000220: ce69 a63b cb4e 6fbc b091 e13c c6cf 643d
00000230: ba6d 973d cd86 96bc 10e8 75bd 3922 61bc
00000240: ebc6 2e3c 6baa 38bd 1972 a33d 8b7d 0cbc
00000250: 70cb 2d3d fed8 1ebd cbf9 8b3b e1eb 983b
00000260: 56e6 c03b 4afb c7ba 8025 1bbd c6a6 22bd
00000270: ec71 213e c217 f03c b838 063d d11b 0e3d
00000280: af25 f63c 7350 26bd 293a 3ebd 038d b53d
00000290: f3f0 fabc c86e 72bd eec5 fdbc 3465 74bd
000002a0: eb47 82bc c11e 04bd c0a8 dabb 9987 e53c
000002b0: 1a19 b1bc 583c f93c 6d93 cc3d be6b e0bb
000002c0: 7766 2dbd 2f89 1f3c 6623 46bd bf7e 06bd
000002d0: 2fc8 a2bd efe5 b7bb c8bc d73a 1946 02bd
000002e0: 6537 90bc 83f1 90bc b79d 02bd 9fb6 e6bc
000002f0: 87ff b43d d3d2 15ba e79f 9fbd b51d d13d
00000300: fe26 b6bd 9641 1e3c 66bc 983b b494 ccbc
00000310: 3375 98bd f0f7 fdbb 636b bd3c c598 5c3d
00000320: 2d24 f3bd 3435 a23d 9a65 f0bd a75b 523a
00000330: e16f 913d 4c97 0d3d 631a 4a3d 29e0 46bd
00000340: 4686 27bd de92 26bc f644 353c 73af 5d3c
00000350: 0cdf 4e3c 5244 0f3d 4637 36bd 4a80 2dbd
00000360: 50d2 5b3d 6dfe 623c 0092 13bd 4f3c 40bd
00000370: 3c01 0c3d 5bfc 2d3c 4274 d2bc 6eac d408
00000380: 4156 16bd d293 feb9 866d 093d d905 7f3b
00000390: 9c8a ae3d 6444 913d 8012 b73b 2678 a5bc
000003a0: fe22 c23c ac93 8f3d 7405 2abd 9ffb c4bc
000003b0: 8fb9 8a3d d9f4 c1bb 1f96 1e3d ad2f 3fbd
000003c0: 2fa4 373d 455e 213e ad5f cbbb ae3c 623c
000003d0: f3b9 663c c478 cf3d 2a7a 4c3c 8506 f63c
000003e0: ecfe edbc 95f7 b23c 8ee4 edbc 1c8a 6bbd
000003f0: 9052 e5bb 00b2 e03d f0c2 cfbc c77b 163c

example_charm_3 f4 [384]
0.014402195 0.043341458 -0.01022125 -0.022830788 -0.04177556 0.01901611 0.08080818 -0.001089564
0.0059282547 -0.037126042 -0.014921805 -0.05226775 -0.038249854 -0.034204856 0.06829793 -0.025151087
-0.0017942272 0.013670249 0.0024205334 -0.07713556 0.025508007 -0.052785996 -0.0062339883 0.017544942
0.014836765 -0.030838085 -0.004445579 -0.031057457 0.012674913 -0.00683923 -0.00096137973 0.073199734
0.03428092 -0.00020361581 -0.07162135 -0.077893615 0.03360927 0.08070649 -0.027252855 0.08119726
-0.0155615145 0.027796019 -0.029471576 0.0993885 0.039272208 0.028177716 -0.021981876 0.044422247
0.033198453 0.0083371205 -0.05473079 -0.012542354 0.021516908 -0.03500267 -0.00215287 -0.02786104
0.008693486 -0.019196546 0.0013729448 0.12226839 -0.058073953 -0.011735561 -0.06413557 0.02901048
0.037517007 0.057624027 -0.075656004 0.10606854 -0.015516825 -0.0059075532 -0.0190115 -0.044541705
0.0003241273 -0.05343692 0.026166353 -0.12562634 0.022369504 0.08638492 -0.04389738 0.071717404
-0.048072923 -0.0415582 -0.018628683 0.08019829 -0.015716381 -0.01621776 0.0233679 -0.026975635
0.09461354 -0.011473069 -0.08707329 -0.0071542324 -0.03520023 -0.07627014 0.05984375 0.034882523
0.0006483907 -0.05487293 -0.06538839 0.13233158 0.02102944 0.108530335 0.030473785 -0.053789437
-0.007959396 0.07996845 0.006444398 0.09754566 0.022586033 0.003974881 0.05980056 0.042607043
0.08573415 0.014879147 -0.010200779 0.014453357 -0.021119546 -0.019643756 -0.0028776864 -0.04423347
0.014740576 0.06220344 0.039813276 0.06894101 -0.09843811 0.003190117 0.008689861 -1.9605569e-33
-0.0066318735 0.038471002 0.02062683 0.063703045 0.04913231 0.03263203 -0.03679051 0.02504351
-0.037764773 0.037896555 0.07025564 0.022740323 -0.008170475 -0.01064569 -0.012580721 0.018699775
0.07106486 0.11413662 0.029792797 -0.10927395 0.009964981 -0.07100048 0.019694783 0.026916306
0.060205102 -0.02674766 0.03260791 -0.041694183 0.050013628 -0.010512672 -0.026457902 0.025043275
0.09678021 -0.043898903 0.032327008 0.05142941 -0.011244614 -0.0075342776 -0.05298682 -0.05961244
-0.040498115 -0.0052420557 0.07107403 0.010738735 -0.099817395 -0.02653509 -0.08556003 -0.08994847
-0.045551114 0.0964421 -0.053686652 0.05519437 -0.039695 0.034424722 -0.08060416 -0.01953314
-0.017852344 0.053757124 -0.009054456 -0.06307691 -0.012893766 0.016446223 -0.03297974 0.05609905
-0.034741428 -0.039922927 -0.03729595 -0.038652822 0.10018465 -0.034277484 -0.05521261 0.11252208
0.013950258 -0.044906475 -0.041666664 0.06369002 -0.051157378 -0.018986687 0.022142256 0.019101141
0.1308028 -0.07711137 0.0502297 0.07978869 0.036341973 0.010349973 0.13753508 -0.029956726
-0.055206705 0.07792658 -0.060622267 0.021447664 -0.026649566 0.020210246 0.10438127 7.980575e-34
-0.011848093 -0.09080369 -0.0052794465 -0.046851706 0.005600879 -0.0639347 -0.06976547 -0.018307693
0.005980566 0.015604164 -0.08295132 0.06885077 -0.03925245 -0.019230314 0.058654685 0.0437816
0.036261145 0.055260703 -0.08004671 -0.008247729 -0.049844243 0.04573617 -0.006621058 0.0024877908
-0.009979985 0.0390256 0.065050974 0.044418786 -0.05916891 -0.0046215276 -0.06310944 -0.04076375
00000000: 2ff7 6b3c d086 313d 0877 27bc a207 bbbc
00000010: d91c 2bbd acc7 9b3c c27e a53d b3cf 8eba
00000020: ce41 c23b 7a11 18bd 967a 74bc b516 56bd
00000030: e1ab 1cbd 641a 0cbd c9df 8b3d a709 cebc
00000040: 462c ebba 2ef9 5f3c d0a1 1e3b 40f9 9dbd
00000050: 2bf6 d03c 2136 58bd 7c46 ccbb 69ba 8f3c
00000060: e715 733c 27a0 fcbc 38ac 91bb 356c febc
00000070: 70aa 4f3c 9f1b e0bb 1a05 7cba bee9 953d
00000080: 266a 0c3d b481 55b9 37ae 92bd b086 9fbd
00000090: e0a9 093d 7249 a53d 6141 dfbc c04a a63d
000000a0: b9f5 7ebc 7ab4 e33c 606e f1bc 338c cb3d
000000b0: e5db 203d f4d4 e63c 5613 b4bc 1af4 353d
000000c0: 1afb 073d 6b98 083c 652d 60bd 727e 4dbc
000000d0: 3a44 b03c f65e 0fbd 2a17 0dbb d63c e4bc
000000e0: 206f 0e3c 1342 9dbc 62f4 b33a da67 fa3d
000000f0: f4de 6dbd 8346 40bc 8259 83bd 63a7 ed3c
00000100: 6fab 193d 2c07 6c3d 89f1 9abd 763a d93d
00000110: 483a 7ebc 2694 c1bb 01be 9bbc 5d71 36bd
00000120: a1ef a939 ace0 5abd d25a d63c 31a4 00be
00000130: 4040 b73c 94ea b03d bdcd 33bd 93e0 923d
00000140: 1de8 44bd ee38 2abd 2e9b 98bc 003f a43d
00000150: a4bf 80bc 1cdb 84bc 0a6e bf3c 02fc dcbc
00000160: bec4 c13d 8af9 3bbc 7b53 b2bd 0d6e eabb
00000170: 1e2e 10bd 8533 9cbd b81e 753d fae0 0e3d
00000180: c3f8 293a 70c2 60bd 59ea 85bd ee81 073e
00000190: ef45 ac3c 2745 de3d 29a4 f93c 5052 5cbd
000001a0: 2068 02bc 80c6 a33d 872b d33b 05c6 c73d
000001b0: 5806 b93c b83f 823b 6ff1 743d b984 2e3d
000001c0: 6395 af3d aac7 733c 2b21 27bc c6cd 6c3c
000001d0: e602 adbc f1eb a0bc 9197 3cbb 282e 35bd
000001e0: 7582 713c 09c9 7e3d 3f13 233d f230 8d3d
000001f0: eb99 c9bd 4811 513b eb5f 0e3c 6fe0 2289
00000200: 3050 d9bb c593 1d3d 99f9 a83c be76 823d
00000210: f63e 493d 2aa9 053d a5b1 16bd 0c28 cd3c
00000220: 3caf 1abd 6b39 1b3d 30e2 8f3d ea49 ba3c
00000230: 75dd 05bc 436b 2ebc 5e1f 4ebc 4530 993c
00000240: 748a 913d 76c0 e93d 0610 f43c 05cb dfbd
00000250: 2944 233c b368 91bd f456 a13c 967f dc3c
00000260: a099 763d e91d dbbc df8f 053d 85c7 2abd
00000270: 17db 4c3d 583d 2cbc 3ebe d8bc 8e27 cd3c
00000280: b434 c63d 56cf 33bd 5369 043d a5a7 523d
00000290: 543b 38bc 1ae2 f6bb b508 59bd 2d2c 74bd
000002a0: 5ae1 25bd 8dc5 abbb 438f 913d 85f1 2f3c
000002b0: 106d ccbd 1e60 d9bc 193a afbd e736 b8bd
000002c0: ce93 3abd 7083 c53d 89e6 5bbd 7e13 623d
000002d0: 3997 22bd f000 0d3d cb13 a5bd f703 a0bc
000002e0: 143f 92bc 6e30 5c3d 2459 14bc 782e 81bd
000002f0: 6040 53bc 3bba 863c c415 07bd 1ec8 653d
00000300: 074d 0ebd 3986 23bd a3c3 18bd 6c52 1ebd
00000310: 9c2d cd3d 8c66 0cbd 9e26 62bd fa71 e63d
00000320: 9f8f 643c daef 37bd aaaa 2abd ea6f 823d
00000330: 668a 51bd f889 9bbc ad63 b53c ff79 9c3c
00000340: 2bf1 053e 91ec 9dbd a8bd 4d3d 4168 a33d
00000350: 52db 143d ef92 293c ffd5 0c3e cf67 f5bc
00000360: 6d20 62bd f997 9f3d 0e4f 78bd 03b3 af3c
00000370: 3150 dabc f58f a53c d9c5 d53d 9d99 8408
00000380: 811e 42bc 49f7 b9bd 35ff acbb 93e7 3fbd
00000390: 9487 b73b 32f0 82bd 33e1 8ebd 04fa 95bc
000003a0: a0f8 c33b 9ca8 7f3c 62e2 a9bd a201 8d3d
000003b0: 2dc7 20bd e488 9dbc e53f 703d 5654 333d
000003c0: 9186 143d 0c59 623d 88ef a3bd 7c21 07bc
000003d0: 7a29 4cbd da55 3b3d 76f5 d8bb 340a 233b
000003e0: 1783 23bc 4fd9 1f3d 7239 853d 79f0 353d
000003f0: 195b 72bd 2f70 97bb 863f 81bd e4f7 26bd

example_charm_4 f4 [384]
-0.038697716 0.03740138 -0.009619345 -0.016804744 -0.11437392 -0.049807813 0.09925554 -0.0219136
0.028093226 -0.04487137 -0.034464285 -0.009899333 -0.07446371 0.02556428 0.07668387 -0.016201325
0.017526155 0.054639343 -0.056149274 0.038190182 -0.06820627 -0.017174853 -0.0074230377 -0.021232475
0.051481344 -0.033675216 0.023146821 0.0021530408 0.056402337 0.0111840395 0.020092016 0.049311206
0.052234203 0.0345029 -0.043520503 0.042709507 -0.059211437 -0.027791286 0.0039614993 -0.005910476
-0.036563337 0.012007731 -0.014264186 -0.0032885578 -0.03391579 0.0019724874 0.02023527 0.1386644
-0.020834794 -0.0058696982 -0.057906106 -0.0015662705 -0.03246692 0.0032652016 -0.0011165916 0.118409164
-0.018861052 0.05807693 0.04053241 0.01567651 -0.010801409 -0.06433504 -0.010210107 0.043623477
0.0059049972 0.03490549 0.04722017 -0.001694845 -0.084872976 0.052287962 0.02295244 -0.063113496
0.014201758 -0.02844834 0.010998661 -0.02027532 0.068191916 -0.028898934 0.040413514 0.035294443
-0.017924434 -0.036767423 -0.11547024 -0.057292204 -0.03528203 -0.05035829 0.053696696 0.008925864
0.091149114 -0.046582777 -0.037018437 0.00782646 -0.029648777 -0.09949108 -0.019830827 0.04486925
-0.040291686 0.060741283 -0.012882495 0.055659447 0.019336207 0.010615942 -0.03702345 -0.12608749
-0.058746085 0.0072283633 -0.013941301 0.019497192 -0.058047235 0.08973562 -0.15964708 -0.017070007
0.012511755 0.07545133 0.038473517 0.06138346 0.0024369925 -0.018560328 0.046301045 -0.09458458
0.05464429 -0.02020596 -0.036109447 0.0037230304 -0.100527234 0.05178027 0.074722834 -3.2777727e-33
0.021341816 -0.0018836666 -0.057357125 0.09280937 -0.004389548 0.079088695 0.053373065 -0.0055608368
-0.036757596 0.14452876 -0.0048204656 0.013111839 0.0334436 -0.012378302 -0.043760553 -0.032553308
-0.08767516 -0.008181133 0.02928918 -0.014924571 -9.6225085e-05 -0.0058283643 0.009889387 0.059628528
0.07651776 -0.068540104 0.042844426 -0.053710584 0.074507385 -0.03880979 -0.044209834 0.028336685
0.02884019 -0.03663281 0.006750095 0.046631105 -0.023861188 -0.016347604 0.025571948 0.013953635
-0.07553323 0.019436222 -0.051394343 -0.0075492207 0.050623257 0.08386095 -0.011607619 -0.07218376
-0.117988735 0.0033190052 -0.10758677 0.061923277 -0.041272905 0.022312222 -0.008355726 -0.07992507
0.017320273 -0.009954952 -0.0051910877 0.04025388 0.0075573605 -0.05104429 -0.035546042 0.001920257
0.032627787 0.06841902 -0.0987134 0.07204938 -0.021541055 -0.06306996 0.012688619 0.042099975
0.01288617 -0.028034858 -0.069129996 0.016607469 0.035974357 0.115551494 0.031169832 -0.013137781
-0.00026387864 -0.025935331 0.04023839 0.09327198 0.022013664 0.012515316 -0.012109264 -0.0342142
0.044364117 0.05518884 -0.10209418 0.012537947 0.035952702 0.05043167 0.12251804 1.4547738e-33
0.070963606 0.05687666 -0.03858001 0.08938152 0.009610505 0.059106473 -0.030631594 -0.019536836
0.034090843 0.017502239 -0.055904772 0.021267423 0.055870604 -0.03728869 0.11196665 -0.10302423
0.09431209 -0.0134523725 0.06632925 0.03467318 0.052115105 0.014327148 -0.06743419 -0.012347277
0.018781606 -0.026701933 0.034048628 -0.049110778 -0.11476592 0.056583464 -0.012740692 -0.03172835
00000000: 7f81 1ebd 3032 193d 759a 1dbc 1aaa 89bc
00000010: e03c eabd 4703 4cbd 7d46 cb3d 2684 b3bc
00000020: c423 e63c 0bcb 37bd 6c2a 0dbd d030 22bc
00000030: 6e80 98bd 2e6c d13c 6f0c 9d3d a4b8 84bc
00000040: 0393 8f3c 81cd 5f3d c8fc 65bd 4f6d 1c3d
00000050: bbaf 8bbd 47b2 8cbc f43c f3bb baef adbc
00000060: 1ade 523d 06ef 09bd 679e bd3c 081a 0d3b
00000070: 2306 673d 433d 373c 0398 a43c 8cfa 493d
00000080: 88f3 553d ea52 0d3d 8e42 32bd 2af0 2e3d
00000090: b187 72bd 8daa e3bc 77cf 813b abac c1bb
000000a0: 70c3 15bd 13bc 443c 55b4 69bc d884 57bb
000000b0: 49eb 0abd d944 013b 70c4 a53c 0afe 0d3e
000000c0: bbad aabc 9956 c0bb f42e 6dbd 514b cdba
000000d0: 08fc 04bd fefc 553b 995a 92ba 8180 f23d
000000e0: 7e82 9abc 13e2 6d3d 5005 263d 066c 803c
000000f0: 65f8 30bc 17c2 83bd 4b48 27bc 88ae 323d
00000100: b57e c13b 0ff9 0e3d f069 413d 9025 deba
00000110: e2d1 adbd e72b 563d c106 bc3c a641 81bd
00000120: 7eae 683c 7e0c e9bc ba33 343c 6e18 a6bc
00000130: 34a8 8b3d 75bd ecbc a488 253d e890 103d
00000140: 43d6 92bc 7099 16bd a97b ecbd 3bab 6abd
00000150: e483 10bd 7f44 4ebd 11f1 5b3d c93d 123c
00000160: 63ac ba3d 95cd 3ebd a5a0 17bd 8d3a 003c
00000170: fee1 f2bc fbc1 cbbd 4274 a2bc d2c8 373d
00000180: e508 25bd dacb 783d 1a11 53bc 29fb 633d
00000190: f766 9e3c 7dee 2d3c e7a5 17bd 141d 01be
000001a0: bc9f 70bd e8db ec3b 0e6a 64bc 93b8 9f3c
000001b0: f0c2 6dbd 4fc7 b73d 867a 23be 66d6 8bbc
000001c0: 1bfe 4c3c 3a86 9a3d 6896 1d3d 396d 7b3d
000001d0: f3b5 1f3b d40b 98bc 2aa6 3d3d 8fb5 c1bd
000001e0: b1d2 5f3d f886 a5bc 80e7 13bd 16fe 733b
000001f0: 39e1 cdbd 8c17 543d 4908 993d 4227 8889
00000200: 08d5 ae3c 5de5 f6ba 4eef 6abd d712 be3d
00000210: 33d6 8fbb 41f9 a13d b79d 5a3d ae37 b6bb
00000220: 228f 16bd 59ff 133e fff4 9dbb 0ad3 563c
00000230: 28fc 083d 5dce 4abc 443e 33bd 9e56 05bd
00000240: 098f b3bd 290a 06bc ddef ef3c 3086 74bc
00000250: 73cc c9b8 ddfb bebb 1807 223c 0b3d 743d
00000260: 58b5 9c3d c15e 8cbd a37d 2f3d a1ff 5bbd
00000270: 5497 983d 04f7 1ebd 5f15 35bd 5622 e83c
00000280: 4342 ec3c 490c 16bd e72f dd3b 4200 3f3d
00000290: 8a78 c3bc 69eb 85bc 437c d13c c99d 643c
000002a0: 2bb1 9abd b638 9f3c e082 52bd 745f f7bb
000002b0: 555a 4f3d 4abf ab3d e22d 3ebc 14d5 93bd
000002c0: 14a4 f1bd ab83 593b 7456 dcbd 43a3 7d3d
000002d0: c70d 29bd 1fc8 b63c 74e6 08bc c1af a3bd
000002e0: 3fe3 8d3c 181a 23bc 001a aabb 41e1 243d
000002f0: bca3 f73b d113 51bd ba98 11bd 22b1 fb3a
00000300: b7a4 053d 451f 8c3d 402a cabd a08e 933d
00000310: de76 b0bc d32a 81bd ede3 4f3c 0671 2c3d
00000320: 8420 533c 5ca9 e5bc 0794 8dbd 630c 883c
00000330: d959 133d 43a6 ec3d e057 ff3c d93f 57bc
00000340: 3159 8ab9 5576 d4bc 03d1 243d 6105 bf3d
00000350: 0056 b43c 0a0d 4d3c ef65 46bc 3024 0cbd
00000360: 26b7 353d b10d 623d c116 d1bd f66b 4d3c
00000370: 2443 133d 7091 4e3d bdea fa3d 3cb7 f108
00000380: 5e55 913d 80f7 683d 1306 1ebd a90d b73d
00000390: 6175 1d3c a119 723d 1cef fabc b70b a0bc
000003a0: d7a2 0b3d db60 8f3c 67fc 64bd 0539 ae3c
000003b0: 93d8 643d 07bc 18bd c54e e53d 5efe d2bd
000003c0: b226 c13d 5767 5cbc a1d7 873d 7705 0e3d
000003d0: a676 553d 6abc 6a3c f01a 8abd 3c4c 4abc
000003e0: e2db 993c 03be dabc 9376 0b3d 6228 49bd
000003f0: 650a ebbd 10c4 673d 56be 50bc 96f5 01bd

example_deceive_0 f4 [384]
-0.112339474 0.16986154 0.029242747 0.019657822 0.034048133 -0.021016404 0.18001407 -0.09116474
0.020146046 -0.07444978 0.039431013 -0.076271385 0.06298956 -0.023574734 0.017052561 0.008925329
0.021183632 0.1121057 -0.03502475 -0.061883885 0.008036424 -0.0590308 -0.009524373 0.042083614
-0.06685722 -0.029541373 0.054413676 0.038365766 -0.098873645 -0.04624582 0.032418054 0.013121914
-0.02964881 0.00825462 -0.00070665963 -0.036578428 0.010417865 -0.0025690184 0.06320736 -0.045849115
0.0111737605 -0.059113763 0.038540777 0.08307788 -0.0015711965 0.08866377 0.0015744071 0.10967287
0.012002977 -0.018714843 -0.004598997 0.021000512 -0.03255069 -0.0302338 -0.049491398 -0.04992265
0.026177568 0.088634424 0.031667266 0.13607047 0.029519178 0.024687719 0.05257942 0.04309646
-0.06288504 0.02263278 -0.04355505 -0.015695294 0.08073118 -0.0427802 0.031857744 -0.038370363
-0.018713836 0.002996363 -0.030675469 -0.010277498 -0.0072070695 -0.00648228 0.06732967 -0.0073011615
0.004605508 0.015055182 -0.04035607 0.05400958 -0.013353086 -0.02467187 -0.009650856 -0.005663688
0.019095156 -0.008490086 0.06154722 -0.047203172 0.015110656 -0.052408762 0.09640846 -0.0348282
-0.06194432 0.008375337 -0.104855925 0.07125732 0.029257962 -0.05717155 -0.032464143 -0.0474355
0.05037012 -0.023407325 0.047421027 -0.019646458 0.015674014 0.02153138 0.09064705 0.05634252
0.010806077 0.017232066 0.012349824 0.045556456 0.0037988375 0.053051837 0.03298784 -0.019737646
0.015773183 0.036802262 0.013266391 0.10082594 -0.031376794 -0.02460613 0.04367661 -4.8495967e-33
-0.0053495807 0.07283115 -0.015398026 -0.030658163 -0.027812626 -0.0723051 -0.028076729 -0.02662748
-0.029438589 0.09181067 -0.0143052675 -0.014396691 0.035264336 -0.027127115 -0.10872958 0.091294385
-0.015595413 0.061162274 0.10380206 -0.0011811875 0.031827677 -0.038112722 0.030775791 -0.0030462288
0.014591093 0.0026043153 0.007762942 -0.018542582 -0.04467322 0.020342559 0.022709822 -0.030920243
0.12080107 -0.00298144 0.07065261 0.04403157 0.07480362 -0.0716877 0.018474769 -0.06541616
-0.055126265 -0.016734956 0.04495458 0.013433978 0.00085130526 0.004873433 -0.02079111 -0.032627907
-0.024861958 -0.03651204 -0.073228806 0.017444994 -0.030718219 0.013412939 -0.08410528 -0.031165058
-0.0013131904 0.059258107 0.01669322 -0.0367025 0.01659987 -0.017777495 -0.12706389 0.0314214
0.00015282462 -0.07919234 -0.05519429 -0.031283297 -0.017523903 -0.022508247 -0.0349789 -0.02470913
-0.0073096757 0.024667028 -0.009888003 0.010707482 0.030398203 0.13362154 -0.03590716 -0.033740602
0.007183393 -0.0077213137 -0.05340492 -0.03266155 -0.01841599 0.014089061 0.014603206 -0.04849284
-0.053371064 0.036345005 0.0011731155 0.0037162816 0.043162428 0.061975103 -0.04421502 1.9821008e-33
-0.089169964 0.0054750578 0.113955535 -0.0662075 -0.005192842 -0.12188299 0.023483943 0.027140599
-0.05160112 0.045759104 -0.023446126 -0.011952432 0.074723065 0.03284123 0.023483627 -0.03084254
0.066987984 0.062042713 -0.029351542 0.031227114 -0.02187245 0.032138288 0.02150692 0.035067394
-0.0269832 0.011337397 0.12706806 0.018647557 0.016253637 -0.0011075512 0.054928828 0.012229159
00000000: 3d12 e6bd 2ff0 2d3e 7c8e ef3c 7109 a13c
00000010: 0e76 0b3d 982a acbc 9c55 383e 94b4 babd
00000020: 5209 a53c 2079 98bd 6a82 213d 2c34 9cbd
00000030: ac00 813d cd1f c1bc d0b1 8b3c 8b3b 123c
00000040: 4c89 ad3c ac97 e53d 1d76 0fbd f579 7dbd
00000050: 35ab 033c 48ca 71bd 1e0c 1cbc de5f 2c3d
00000060: 70ec 88bd c000 f2bc e0e0 5e3d 6c25 1d3d
00000070: 447e cabd 426c 3dbd cbc8 043d 4cfd 563c
00000080: 10e2 f2bc 633e 073c 203f 39ba 43d3 15bd
00000090: b1af 2a3c fa5c 28bb dc72 813d 48cc 3bbd
000000a0: 2612 373c 4621 72bd efdc 1d3d bc24 aa3d
000000b0: 9bf0 cdba 5a95 b53d 565c ce3a 2b9c e03d
000000c0: 22a8 443c df4f 99bc 2fb3 96bb 4409 ac3c
000000d0: df53 05bd e0ac f7bc 7eb7 4abd b17b 4cbd
000000e0: 5772 d63c f785 b53d 89b5 013d 0f56 0b3e
000000f0: 34d2 f13c e63d ca3c 855d 573d ea85 303d
00000100: dfc9 80bd 6168 b93c c866 32bd 6b93 80bc
00000110: 6456 a53d 4a3a 2fbd 447d 023d 3e2a 1dbd
00000120: c24d 99bc a15e 443b 1f4b fbbc f362 28bc
00000130: 4829 ecbb 4e69 d4bb 23e4 893d 953e efbb
00000140: cde9 963b 03aa 763c 684c 25bd 2639 5d3d
00000150: e7c6 5abc a91c cabc a01e 1ebc 7596 b9bb
00000160: 726d 9c3c 001a 0bbc f018 7c3d 1d58 41bd
00000170: af92 773c 92aa 56bd cc71 c53d 04a8 0ebd
00000180: 54b9 7dbd b638 093c b4be d6bd 5cef 913d
00000190: 65ae ef3c b72c 6abd 1ff9 04bd ba4b 42bd
000001a0: e650 4e3d b8c0 bfbc 8d3c 423d 9cf1 a0bc
000001b0: ca66 803c 9462 b03c 29a5 b93d 6ac7 663d
000001c0: f90b 313c 432a 8d3c eb56 4a3c 6899 3a3d
000001d0: ebf5 783b e24c 593d 421e 073d d8b0 a1bc
000001e0: c336 813c f8bd 163d 475b 593c d57d ce3d
000001f0: f484 00bd cb92 c9bc 3fe6 323d c271 c989
00000200: 894b afbb 7f28 953d 0148 7cbc d426 fbbc
00000210: 4ed7 e3bc b214 94bd 2b01 e6bc df21 dabc
00000220: 3229 f1bc 3c07 bc3d a460 6abc 19e0 6bbc
00000230: 5671 103d af39 debc 9dad debd 8df8 ba3d
00000240: e783 7fbc 4b85 7a3d 2d96 d43d 13d2 9aba
00000250: bd5d 023d 161c 1cbd 831d fc3c 3da3 47bb
00000260: 7b0f 6f3c 29ad 2a3b 4760 fe3b 9de6 97bc
00000270: 44fb 36bd 70a5 a63c f309 ba3c 734c fdbc
00000280: 8d66 f73d 4364 43bb 51b2 903d 735a 343d
00000290: a432 993d 00d1 92bd 6658 973c e8f8 85bd
000002a0: 14cc 61bd bf17 89bc 4b22 383d 301a 5c3c
000002b0: 212a 5f3a 52b1 9f3b 1e52 aabc d7a4 05bd
000002c0: 4eab cbbc a68d 15bd fcf8 95bd cee8 8e3c
000002d0: c6a4 fbbc f2c1 5b3c 643f acbd dd4d ffbc
000002e0: 5c1f acba a1b8 723d 38c0 883c 5c55 16bd
000002f0: 73fc 873c 1ca2 91bc 091d 02be bab3 003d
00000300: 8c3f 2039 982f a2bd 6813 62bd ea22 00bd
00000310: 4a8e 8fbc 3763 b8bc 0946 0fbd cd6a cabc
00000320: 0186 efbb 8212 ca3c 4a01 22bc 6f6e 2f3c
00000330: a705 f93c 16d4 083e 6313 13bd 9633 0abd
00000340: ab62 eb3b 1303 fdbb 1ebf 5abd 1ec8 05bd
00000350: 21dd 96bc ced5 663c 4942 6f3c 6ea0 46bd
00000360: 9e9b 5abd 80de 143d 39c3 993a dc8c 733b
00000370: 16cb 303d 9bd9 7d3d cf1a 35bd 9faa 2409
00000380: be9e b6bd 1d68 b33b 8561 e93d cc97 87bd
00000390: b728 aabb ca9d f9bd 6661 c03c f655 de3c
000003a0: b25b 53bd e66d 3b3d 1712 c0bc 22d4 43bc
000003b0: 6808 993d 8784 063d bc60 c03c 7fa9 fcbc
000003c0: ff30 893d 8020 7e3d a572 f0bc 01d0 ff3c
000003d0: da2d b3bc 70a3 033d 482f b03c d4a2 0f3d
000003e0: df0b ddbc 7dc0 393c 211e 023e c3c2 983c
000003f0: 5926 853c 402b 91ba 0dfd 603d cf5c 483c

example_deceive_1 f4 [384]
0.004887528 0.031167665 -0.029439636 -0.03821769 0.023806496 -0.035274785 0.13132943 -0.054970197
-0.026666049 -0.022102244 -0.03231361 0.021593165 0.049300678 -0.018472904 0.016144069 -0.0023663084
0.02943622 0.05729577 0.0027006087 -0.023338595 -0.05782373 -0.06115106 0.017742695 0.043337096
-0.08568844 0.019276021 -0.016597778 0.014148932 -0.016660612 -0.10046819 -0.026296398 0.059624203
-0.0997612 -0.006526075 0.03621879 -0.024699552 0.0057597137 0.05803735 0.06608328 -0.04418339
0.046441264 -0.020176632 -0.024289148 0.075784296 0.02105635 0.006577268 0.0023571886 0.03991718
0.106814854 -0.0401636 -0.01575557 -0.01570639 -0.036005724 -0.01731656 0.011535729 0.030194888
0.08069079 0.040403448 0.021571856 0.06138518 -0.039278064 -0.05588088 -0.06265813 -0.018573506
0.037914664 -0.00018341986 -0.012278915 -0.011517294 0.054235443 0.094700634 0.023854606 -0.007988786
-0.0056755776 -0.0092662815 0.031858385 -0.021221446 -0.030947603 0.01288737 0.01981982 -0.0076812413
-0.02275245 -0.05111789 -0.066820435 0.04063844 -0.029400265 -0.00465434 -0.024670165 0.023828417
0.19322166 -0.02581742 0.02988556 -0.029293934 -0.0043269075 -0.024662828 -0.019273153 -0.046855103
0.06543091 -0.018833814 0.0035120868 0.09107273 0.028708357 -0.008282959 -0.05541695 -0.07634077
0.034266554 0.034353424 0.045528132 -0.020287555 0.012277618 -0.016011782 0.025260007 -0.027100181
0.099649996 -0.0009795757 0.046990998 0.02590668 -0.0866258 0.014105904 -0.030047338 -0.012793709
0.019838348 -0.02504818 0.06347721 0.041544087 -0.04539942 -0.06437638 0.07580756 -4.9990814e-33
0.045774125 0.025711555 0.020011328 0.047080852 0.100903116 0.005744048 -0.058637884 -0.0486405
-0.017597124 0.008640624 0.051223777 -0.07924261 -0.016312925 -0.0010264264 -0.009287733 0.0004483738
-0.02386676 -0.020171199 -0.10735356 -0.00033461506 0.023462621 -0.12928191 -0.028763862 -0.015628906
0.006469695 0.04395421 -0.013131536 -0.0018729259 0.0318813 0.05397438 -0.07463402 0.021023653
-0.031435724 0.006432081 -0.018621784 0.0754023 -0.03793983 -0.03569386 -0.023411857 -0.012771878
-0.073047936 -0.006791423 -0.05703818 -0.00916679 -0.03586582 -0.04626134 0.053610183 -0.03576389
-0.011532895 0.021283612 -0.052322727 0.020412274 -0.025285902 -0.10306049 -0.05087672 -0.07169184
0.045081973 0.027282676 -0.023190258 0.06413632 0.06429807 -0.06842229 -0.052727483 0.072326474
0.011321019 0.0149819 -0.11571579 -0.025127804 0.11881007 0.028279047 -0.012749691 -0.044741858
0.057972424 0.024397375 0.037072092 0.04046202 0.014900671 0.088964365 0.042052638 -0.06375079
-0.044786513 0.0044328542 -0.21042608 0.027248736 0.071470134 -0.0013275478 0.037551124 -0.09528326
-0.08498948 -0.008187539 -0.17659245 0.008009256 0.17254142 0.020424718 -0.09277738 3.855574e-33
0.013087318 0.037662487 0.059962764 -0.035512537 0.006578536 -0.04110658 0.0895568 0.017461875
-0.03552772 0.06476833 -0.1074533 0.024470082 0.06617937 0.042287346 0.044967413 -0.05517812
0.14779101 0.040590256 -0.02592095 0.03613969 -0.039526846 -0.083794676 -0.028119138 0.053834613
-0.0020192028 0.04937951 0.09591982 0.019436756 0.040815853 -0.02094762 0.01655881 -0.007662948
00000000: 8e27 a03b 5553 ff3c 642b f1bc 278a 1cbd
00000010: d705 c33c 4b7c 10bd 397b 063e 6e28 61bd
00000020: c272 dabc c40f b5bc 475b 04bd 26e4 b03c
00000030: 82ef 493d 7d54 97bc 9140 843c 1114 1bbb
00000040: 3a24 f13c f8ae 6a3d b2fc 303b 9530 bfbc
00000050: 93d8 6cbd 8979 7abd 2159 913c 3d82 313d
00000060: 6c7d afbd bfe8 9d3c 10f8 87bc ecd0 673c
00000070: d67b 88bc 44c2 cdbd 8b6b d7bc 8238 743d
00000080: 9a4f ccbd afd8 d5bb 275a 143d b756 cabc
00000090: fbbb bc3b 93b8 6d3d ac56 873d a4f9 34bd
000000a0: 3239 3e3d 7749 a5bc 09fa c6bc cc34 9b3d
000000b0: 5e7e ac3c 1f86 d73b 107b 1a3b 3280 233d
000000c0: bfc1 da3d 9682 24bd d311 81bc b0aa 80bc
000000d0: bd7a 13bd 75db 8dbc 5b00 3d3c 455b f73c
000000e0: 3741 a53d 167e 253d 76b7 b03c 076f 7b3d
000000f0: 09e2 20bd 5ae3 64bd e852 80bd 7727 98bc
00000100: 684c 1b3d 6554 40b9 812d 49bc 08b3 3cbc
00000110: fc25 5e3d 68f2 c13d bc6a c33c 66e3 02bc
00000120: 32fa b9bb 9ad1 17bc f07d 023d 99d8 adbc
00000130: d485 fdbc 8c25 533c 2d5d a23c ecb2 fbbb
00000140: 5963 babc fe60 51bd 27d9 88bd 7e74 263d
00000150: d3d8 f0bc 6f83 98bb 1619 cabc d033 c33c
00000160: e6db 453e 0e7f d3bc 90d2 f43c d5f9 efbc
00000170: bbc8 8dbb b309 cabc bbe2 9dbc 23eb 3fbd
00000180: a400 863d 5f49 9abc 0a2b 663b 5784 ba3d
00000190: ca2d eb3c 40b5 07bc e2fc 62bd 8d58 9cbd
000001a0: 165b 0c3d 2db6 0c3d b57b 3a3d 1632 a6bc
000001b0: 1028 493c 242b 83bc 13ee ce3c 3301 debc
000001c0: 4c15 cc3d 1b65 80ba a279 403d 3f3a d43c
000001d0: de68 b1bd 731c 673c d625 f6bc b49c 51bc
000001e0: 0884 a23c d731 cdbc 5700 823d 222a 2a3d
000001f0: bef4 39bd c3d7 83bd fe40 9b3d 5aa7 cf89
00000200: a67d 3b3d 0aa1 d23c ccee a33c dad7 403d
00000210: 4ba6 ce3d 9138 bc3b 472e 70bd 433b 47bd
00000220: d827 90bc 6791 0d3c 06d0 513d f349 a2bd
00000230: afa2 85bc 2889 86ba 932b 18bc b613 eb39
00000240: 3984 c3bc 123e a5bc 2fdc dbbd 466f afb9
00000250: af34 c03c 7a62 04be 31a2 ebbc 3108 80bc
00000260: bcff d33b 5409 343d a725 57bc f77c f5ba
00000270: f795 023d 3d14 5d3d b9d9 98bd cc39 ac3c
00000280: bfc2 00bd 35c4 d23b b68c 98bc 856c 9a3d
00000290: cc66 1bbd ba33 12bd 39ca bfbc 2441 51bc
000002a0: 289a 95bd 968a debb dea0 69bd 4e30 16bc
000002b0: 0ae8 12bd 887c 3dbd 5a96 5b3d 287d 12bd
000002c0: 78f4 3cbc f85a ae3c 5b50 56bd a437 a73c
000002d0: 6124 cfbc 6111 d3bd 1c64 50bd 2cd3 92bd
000002e0: e0a7 383d eb7f df3c 7ff9 bdbc e759 833d
000002f0: b5ae 833d fc20 8cbd c6f8 57bd e71f 943d
00000300: cc7b 393c a576 753c 66fc ecbd d3d8 cdbc
00000310: b252 f33d 76a9 e73c 14e4 50bc 3d43 37bd
00000320: 7e74 6d3d 01dd c73c e8d8 173d 81bb 253d
00000330: f221 743c f332 b63d 633f 2c3d c68f 82bd
00000340: 1072 37bd 7a41 913b ef79 57be be38 df3c
00000350: ef5e 923d 1d01 aeba 35cf 193d df23 c3bd
00000360: f70e aebd 0725 06bc a7d4 34be 4139 033c
00000370: b3ae 303e bd51 a73c 1102 bebd 7f27 a009
00000380: 316c 563c fb43 1a3d 849b 753d 9875 11bd
00000390: c290 d73b 605f 28bd 8e69 b73d 350c 8f3c
000003a0: 8485 11bd 42a5 843d 7a10 dcbd 7b75 c83c
000003b0: 0d89 873d 7f35 2d3d c02f 383d 7402 62bd
000003c0: 8756 173e f841 263d 2c58 d4bc 3607 143d
000003d0: e7e6 21bd 8b9c abbd 1b5a e6bc af81 5c3d
000003e0: 9a54 04bb 2b42 4a3d 9c71 c43d d539 9f3c
000003f0: 862e 273d 589a abbc 57a6 873c 7819 fbbb
