assets/vectorized/lore_vectors.safetensors (safetensors, 24136 bytes, 15 tensors)

lore_0 f4 [384]
-0.06777482 0.17051066 0.0540611 0.04200522 -0.052878458 -0.03352175 0.017961323 0.00596225
-0.031004341 -0.0016068224 -0.05387781 -0.044712245 0.027362807 -0.03755757 -0.035795584 0.012061177
-0.04668533 0.056613572 0.024591997 -0.012933794 -0.009366441 0.0095711555 0.07640733 0.011819585
0.042430982 -0.06497369 -0.06900926 0.0045541395 0.077635355 -0.036297325 0.044556845 -0.033514217
0.044381067 0.016699877 -0.06616632 0.077446714 0.009978702 -0.073662765 -0.005786638 0.002068996
0.0029009392 0.14104109 -0.00023848725 -0.02182864 -0.030651812 0.0028452748 -0.039773 -0.05623035
0.043316476 -0.030370615 0.07666618 -0.016387407 0.01499105 -0.057346463 -0.014325429 0.0094782235
-0.006954592 -0.087243095 0.035297118 -0.00571766 0.038936343 0.096603245 0.035395794 0.06589426
-0.035274796 -0.044888005 0.022860546 -0.040683176 0.030432496 0.062721886 -0.0017678842 -0.025071926
-0.00093007024 -0.108969845 -0.010726155 -0.055377748 -0.05500323 -0.1390214 -0.1064672 0.01569204
-0.04322381 -0.024082744 7.3925694e-05 0.04352546 0.06190385 0.04604904 -0.0048297145 -0.0005515773
0.08829354 -0.053839732 0.08739251 0.010145564 0.008243513 0.09133896 0.04552584 0.032719385
0.11242686 0.039840892 0.043130804 0.058895845 0.0074682957 0.035751335 -0.039954405 -0.0448073
0.026544651 0.03582886 0.010311125 0.013409383 -0.020666296 -0.0153835025 0.021639977 -0.116689086
0.08961089 -0.00517271 0.008365914 0.012771428 0.0047581266 0.014052005 -0.06869772 -0.007346317
-0.034825098 0.0035146994 -0.032226395 -0.004083669 -0.054396037 -0.00016835728 -0.03375369 -4.316357e-33
0.018045258 0.00052914454 -0.07541814 -0.027471254 0.012302751 -0.008351854 0.027553005 0.005778575
-0.009407392 0.00093427184 -0.10958345 -0.029758947 -0.0628621 -0.08624305 -0.0021977897 0.039005835
0.007330365 0.009899234 -0.027414609 -0.0016726825 0.06502938 0.048353128 0.023709198 -0.078152016
0.043623805 0.015874242 -0.011459786 0.0626911 -0.009178105 -0.013541503 -0.010819063 -0.10535228
-0.008752453 0.063558884 -0.011781837 0.08048328 0.015502949 -0.026501788 -0.07457111 0.07854426
-0.017301619 0.044278864 -0.04162587 -0.020635154 -0.011036071 0.053138237 0.048906274 0.034616377
-0.056386005 -0.021220103 -0.043622702 0.042630937 -0.0059592496 -0.00025198952 -0.059860576 -0.0002763321
-0.0010401414 -0.045664366 0.026659233 0.080525994 0.06300557 -0.022621404 0.027778722 0.030876407
0.024049819 -0.04836472 -0.028225709 0.026882432 -0.023385273 -0.07951877 0.02019869 0.0069141644
-0.013603691 0.015596154 0.09682994 -0.06357283 -0.11946163 -0.08671079 -0.12879881 0.038383108
-0.016135324 -0.052415002 -0.076448746 0.080920406 0.067139596 0.024253137 0.17078117 -0.05902172
0.012841753 0.00036618504 -0.054056812 -0.047239937 0.03510123 -0.12168972 -0.04469261 4.0727367e-33
0.0047497083 -0.005380205 -0.016578171 -0.03386939 -0.0276902 -0.029521126 0.0063721603 0.011998523
-0.07799906 -0.0228389 0.010513381 0.08025637 0.059847485 -0.03655002 -0.0021508245 -0.025714055
0.07629656 0.055192824 -0.0647298 0.017153252 -0.034095205 -0.00045588022 -0.110547245 -0.06208516
0.025023164 0.07271046 -0.0010891317 -0.03312993 -0.018499393 -0.0062745954 0.029972823 -0.028373655
00000000: 86cd 8abd 599a 2e3e 2c6f 5d3d aa0d 2c3d
00000010: 1597 58bd 1a4e 09bd a023 933c fa5e c33b
00000020: d1fc fdbc 039c d2ba faae 5cbd 3024 37bd
00000030: f727 e03c f7d5 19bd 649e 12bd 3e9c 453c
00000040: 1e39 3fbd a2e3 673d 2875 c93c 44e8 53bc
00000050: b375 19bc 56d0 1c3c 727b 9c3d efa6 413c
00000060: 1ccc 2d3d ed10 85bd ba54 8dbd e43a 953b
00000070: 49ff 9e3d 81ac 14bd 3d81 363d 3446 09bd
00000080: ecc8 353d 2ece 883c 3582 87bd 629c 9e3d
00000090: b67d 233c 81dc 96bd d69d bdbb fe97 073b
000000a0: af1d 3e3b 136d 103e 6f12 7ab9 fad1 b2bc
000000b0: 8219 fbbc ca77 3a3b 03e9 22bd cc51 66bd
000000c0: 9e6c 313d cccb f8bc 2803 9d3d e23e 86bc
000000d0: 059d 753c 20e4 6abd 34b5 6abc 8d4a 1b3c
000000e0: 59e3 e3bb 82ac b2bd b693 103d 355b bbbb
000000f0: b77b 1f3d ecd7 c53d 2efb 103d 92f3 863d
00000100: 4e7c 10bd 7cdc 37bd 0a46 bb3c 67a3 26bd
00000110: 924d f93c 5574 803d 5ab8 e7ba a463 cdbc
00000120: f5cf 73ba 952b dfbd c1bc 2fbc c7d3 62bd
00000130: 114b 61bd a05b 0ebe 7a0b dabd 988c 803c
00000140: 730b 31bd 2d49 c5bc 8e08 9b38 c147 323d
00000150: e48e 7d3d eb9d 3c3d 9542 9ebb ba97 10ba
00000160: 3ed3 b43d 0d87 5cbd d8fa b23d 9439 263c
00000170: cd0f 073c ec0f bb3d 4e79 3a3d c304 063d
00000180: 0e40 e63d 3430 233d eda9 303d c53c 713d
00000190: 9bb8 f43b fe6f 123d 3ba7 23bd dc87 37bd
000001a0: 2b74 d93c 48c1 123d feef 283c 07b3 5b3c
000001b0: 5d4c a9bc 160b 7cbc 5246 b13c b0fa eebd
000001c0: ea85 b73d d67f a9bb 3011 093c 403f 513c
000001d0: 0fea 9b3b 613a 663c 64b1 8cbd 60b9 f0bb
000001e0: c3a4 0ebd df56 663b d3ff 03bd 4cd0 85bb
000001f0: 61ce 5ebd 1089 30b9 4f41 0abd 614b b389
00000200: a6d3 933c 4ab6 0a3a d374 9abd 650b e1bc
00000210: 7a91 493c 37d6 08bc d7b6 e13c 335a bd3b
00000220: 7621 1abc ece9 743a 4a6d e0bd 09c9 f3bc
00000230: d8bd 80bd 32a0 b0bd cb08 10bb 95c4 1f3d
00000240: 8f33 f03b 6630 223c 9a94 e0bc e93d dbba
00000250: 202e 853d ee0d 463d cb39 c23c 2a0e a0bd
00000260: e0ae 323d b30a 823c d4c1 3bbc 3164 803d
00000270: c35f 16bc 2edd 5dbc 7042 31bc f0c2 d7bd
00000280: 7366 0fbc 292b 823d 9b08 41bc 6bd4 a43d
00000290: 1500 7e3c 471a d9bc bdb8 98bd d0db a03d
000002a0: 20bc 8dbc c15d 353d e37f 2abd 0e0b a9bc
000002b0: a3d0 34bc 7ba7 593d f251 483d e7c9 0d3d
000002c0: 03f5 66bd c8d5 adbc b8ad 32bd c79d 2e3d
000002d0: cf45 c3bb 761d 84b9 5d30 75bd abe0 90b9
000002e0: 5b55 88ba 8f0a 3bbd 7764 da3c d0ea a43d
000002f0: 1009 813d 8650 b9bc 3490 e33c 85f0 fc3c
00000300: 2004 c53c 161a 46bd 9a39 e7bc 8c38 dc3c
00000310: 7992 bfbc bdda a2bd b977 a53c 3790 e23b
00000320: 04e2 5ebc 0387 7f3c c74e c63d 7932 82bd
00000330: 4da8 f4bd 6d95 b1bd d6e3 03be 9b37 1d3d
00000340: 3a2e 84bc 1db1 56bd 2991 9cbd 99b9 a53d
00000350: 7c80 893d 84ae c63c 42e1 2e3e c2c0 71bd
00000360: 3766 523c 86fc bf39 ad6a 5dbd aa7e 41bd
00000370: 4fc6 0f3d 7638 f9bd 990f 37bd c42c a909
00000380: 71a3 9b3b 6e4c b0bb f2ce 87bc a1ba 0abd
00000390: 8fd6 e2bc 4ad6 f1bc 8ecd d03b 7495 443c
000003a0: f9bd 9fbd a518 bbbc 5140 2c3c 745d a43d
000003b0: a322 753d 79b5 15bd d9f4 0cbb 48a6 d2bc
000003c0: 5f41 9c3d df11 623d 0f91 84bd fa84 8c3c
000003d0: 6aa7 0bbd 3503 efb9 9866 e2bd 024d 7ebd
000003e0: 61fd cc3c 39e9 943d 32c1 8eba 40b3 07bd
000003f0: 0a8c 97bc 1f9b cdbb 9189 f53c de6f e8bc

lore_1 f4 [384]
-0.09434942 0.14609063 -0.034490444 0.03490172 0.015079043 -0.051783953 0.003648496 -0.008954431
0.0013895045 0.0103583215 0.024621807 0.033415582 0.061324216 -0.01886665 -0.024298294 -0.03274468
-0.028390631 0.056173623 0.019663174 -0.08387246 -0.028494647 -0.017257422 0.036881056 -0.019475257
-0.014888526 0.062468365 -0.021852614 -0.026518553 -0.01483209 -0.07378668 -0.0060586906 -0.028472774
0.012031565 -0.008624752 0.016685007 0.082206696 0.020282142 0.023384763 0.028428687 -0.044244472
-0.0533831 -0.032433785 0.016728722 0.04243067 0.011287932 -0.011828969 -0.004684839 0.014332071
-0.005898048 -0.008781467 0.06672198 0.0297038 -0.047499083 0.02680561 -0.032138977 -0.015721083
-0.022139793 -0.028457232 0.020538183 -0.02685345 0.100817844 0.043867305 0.0012257061 0.019364746
0.027528869 0.036330074 0.020636417 -0.0704477 0.08441862 -0.037631936 0.06688328 0.011691204
-0.00948291 -0.042035475 0.017788868 0.04371244 0.008376002 -0.0021936717 -0.044758905 -0.013508543
0.032395512 -0.057717495 -0.084468655 0.058589198 -0.035146493 0.025247902 -0.07599212 -0.014658179
0.024628991 -0.10825029 0.03721746 -0.101976044 -0.05118301 -0.015382879 -0.0031991408 -0.0713757
0.006741147 0.04695282 -0.04963816 0.066293366 0.060347453 0.079263054 0.081476465 -0.067645214
0.095794365 0.05731926 0.007712415 0.0797086 0.08579352 0.033572894 0.005452019 -0.027114408
0.071758315 0.051928226 0.035868 0.054020904 -0.03258665 0.017479738 -0.058288805 -0.03096297
0.09719799 0.029105248 0.025094206 -0.049370214 -0.084334135 -0.0029725898 -0.008345971 -2.1441926e-33
-0.0064970693 0.022421593 -0.029653573 0.034578126 0.032946885 -0.0044795377 0.05701008 -0.026367772
-0.03155464 0.11380625 0.030841818 -0.030264597 -0.03917697 -0.045449123 -0.04548571 0.063967705
-0.08540991 0.027699279 0.07480554 -0.059359305 0.03528254 0.03597358 0.021781243 -0.0619509
0.07625359 0.022018572 -0.004536088 -0.08971861 0.020401202 0.014671741 0.01870221 0.032397214
0.044016924 0.0069702216 0.034508374 -0.023092275 0.035741046 -0.08846953 0.026662443 0.01797878
0.06674342 -0.021377597 0.06206491 -0.079193234 -0.041731406 0.004987579 0.06891245 0.03112207
0.043637108 0.011237735 -0.06737438 0.04649246 -0.1173415 -0.03392607 -0.016938861 -0.020717444
0.0023425138 -0.014872642 0.024146903 0.04195967 0.058290243 0.062672675 -0.008154919 0.03705791
-0.14072141 -0.012094794 -0.044571757 -0.019649243 -0.02264503 0.02962377 -0.02402199 0.02267564
-0.046968788 -0.06406322 -0.048399173 -0.010878709 -0.0073042437 -0.0007968286 0.0019890717 -0.13551977
-0.03969171 -0.03433896 0.00089618395 0.13898301 -0.08012989 0.055052813 0.038367264 -0.07522715
-0.028738985 -0.025197499 -0.014286695 -0.04399446 -0.023400402 -0.07988438 -0.05767641 7.901096e-34
-0.01674316 -0.045082066 0.04740935 -0.037134532 0.071597286 0.008669542 -0.070908114 -0.012456173
-0.05347112 0.035937943 -0.03011772 0.089805946 0.044113524 -0.042374402 0.06370395 0.09282292
0.09606363 -0.003080561 -0.03643426 0.073459886 -0.0053035947 -0.04833476 -0.11656417 -0.0054562916
0.017230673 0.027491558 0.070312165 -0.02736807 0.014352078 -0.004190229 -0.014866594 0.066815056
00000000: 453a c1bd c898 153e da45 0dbd 1bf5 0e3d
00000010: 170e 773c 691b 54bd 9b1b 6f3b 9bb5 12bc
00000020: 0920 b63a f3b5 293c acb3 c93c c7de 083d
00000030: 1a2f 7b3d 3c8e 9abc 370d c7bc 491f 06bd
00000040: 7893 e8bc 5016 663d aa14 a13c 53c5 abbd
00000050: 9b6d e9bc 705f 8dbc 9710 173d 938a 9fbc
00000060: 01ef 73bc d4de 7f3d 4104 b3bc 703d d9bc
00000070: 4b02 73bc 791d 97bd fb87 c6bb bc3f e9bc
00000080: 0b20 453c d54e 0dbc ffae 883c fc5b a83d
00000090: bc26 a63c 6791 bf3c 47e3 e83c b139 35bd
000000a0: 3da8 5abd 4ad9 04bd ac0a 893c c8cb 2d3d
000000b0: 05f1 383c 4bce 41bc 4783 99bb 10d1 6a3c
000000c0: 6a44 c1bb 24e0 0fbc 89a5 883d 6255 f33c
000000d0: 668e 42bd 7097 db3c 29a4 03bd 80c9 80bc
000000e0: 835e b5bc 241f e9bc b13f a83c c4fb dbbc
000000f0: 9679 ce3d 34ae 333d dfa7 a03a d1a2 9e3c
00000100: 3984 e13c d8ce 143d b40d a93c e246 90bd
00000110: abe3 ac3d f223 1abd 1afa 883d 778c 3f3c
00000120: 355e 1bbc 642d 2cbd f6b9 913c d10b 333d
00000130: 803b 093c b4c3 0fbb 1d55 37bd f052 5dbc
00000140: 28b1 043d 2e69 6cbd e7fd acbd 3afb 6f3d
00000150: c5f5 0fbd b0d4 ce3c c2a1 9bbd dc28 70bc
00000160: bdc2 c93c 54b2 ddbd 5671 183d d1d8 d0bd
00000170: 47a5 51bd 7908 7cbc ada8 51bb 6c2d 92bd
00000180: d7e4 dc3b 9a51 403d 6251 4bbd d1c4 873d
00000190: e42e 773d ab54 a23d 22dd a63d 9389 8abd
000001a0: d62f c43d 9ac7 6a3d 6db8 fc3b 433e a33d
000001b0: 83b4 af3d bb83 093d daa6 b23b 091f debc
000001c0: 06f6 923d b1b2 543d 53ea 123d 0645 5d3d
000001d0: 9479 05bd ab31 8f3c 3ec0 6ebd 0ea6 fdbc
000001e0: bd0f c73d 216e ee3c 5d92 cd3c 6c38 4abd
000001f0: 60b7 acbd c8cf 42bb 8abd 08bc ef21 3289
00000200: 5ee5 d4bb 7dad b73c 0dec f2bc cba1 0d3d
00000210: 50f3 063d 16c9 92bb 6783 693d 3a01 d8bc
00000220: 703f 01bd 4013 e93d fba7 fc3c 76ed f7bc
00000230: 0878 20bd dc28 3abd 394f 3abd 8001 833d
00000240: 64eb aebd 99e9 e23c a633 993d be22 73bd
00000250: 6d84 103d 0859 133d 946e b23c 3ac0 7dbd
00000260: d82a 9c3d 4b60 b43c 77a3 94bb 64be b7bd
00000270: 6c20 a73c be61 703c 6135 993c f1b2 043d
00000280: 174b 343d 7566 e43b a758 0d3d 032c bdbc
00000290: 3465 123d 832f b5bd 326b da3c 3c48 933c
000002a0: c6b0 883d 1220 afbc c637 7e3d 1030 a2bd
000002b0: 8dee 2abd d86e a33b f821 8d3d b6f3 fe3c
000002c0: d3bc 323d 7a1e 383c 94fb 89bd e16e 3e3d
000002d0: be50 f0bd 10f6 0abd 5ec3 8abc a1b7 a9bc
000002e0: dc84 193b 62ac 73bc bacf c53c e7dd 2b3d
000002f0: c0c1 6e3d 885a 803d 369c 05bc 09ca 173d
00000300: 4619 10be 3e29 46bc e090 36bd 73f7 a0bc
00000310: 1282 b9bc 8cad f23c c4c9 c4bc 44c2 b93c
00000320: 5862 40bd 9433 83bd 363e 46bd 9d3c 32bc
00000330: 7058 efbb 43e2 50ba 165b 023b b2c5 0abe
00000340: c693 22bd 02a7 0cbd e3ed 6a3a 9051 0e3e
00000350: 241b a4bd 0f7f 613d fe26 1d3d b110 9abd
00000360: 056e ebbc fc6a cebc be12 6abc 8933 34bd
00000370: 33b2 bfbc 6c9a a3bd 193e 6cbd 8c47 8308
00000380: f428 89bc f9a7 38bd 4e30 423d 611a 18bd
00000390: 99a1 923d b20a 0e3c 4638 91bd fa14 4cbc
000003a0: 8804 5bbd aa33 133d 70b9 f6bc 2eec b73d
000003b0: 62b0 343d c890 2dbd 3777 823d f119 be3d
000003c0: 02bd c43d 3de3 49bb 173c 15bd 2372 963d
000003d0: c7c9 adbb abfa 45bd 32b9 eebd b1ca b2bb
000003e0: 5727 8d3c fa35 e13c d3ff 8f3d 0133 e0bc
000003f0: fa24 6b3c 304e 89bb 0493 73bc 55d6 883d

lore_10 f4 [384]
-0.045867674 0.027450355 -0.005632484 0.011862621 -0.05470178 0.0039204103 0.06191372 -0.05458842
-0.044524185 -0.03944068 0.019618398 0.008427138 0.0266134 0.0016237001 -0.000992069 -0.0062630237
0.0036646468 0.022402465 -0.029847885 -0.041633848 -0.075556725 -0.06896307 -0.09191857 -0.0007351967
0.00865887 -0.07487177 -0.044121984 0.03240149 -0.0798946 -0.07697554 -0.013540974 0.01808756
0.047703575 0.011997444 -0.041840628 0.04710406 0.04225021 0.02628619 -0.012126608 -0.016885722
0.054819737 -0.009783559 -0.019048143 0.036592666 -0.029209223 -0.049616948 0.05622178 -0.014675565
-0.045485 0.05854176 -0.019271603 0.008144434 -0.070523925 -0.0030830281 -0.04808514 0.0023989878
0.04321008 0.022243507 0.07855401 -0.070573285 0.05093067 0.018578624 0.0022006482 0.022036238
0.0031669792 -0.015688993 0.03413596 0.010243404 -0.031924263 0.0016918895 -0.011540581 -0.056394085
-0.0595311 -0.086638555 -0.0413676 -0.012053749 -0.004821309 -0.102267765 0.04907133 0.005390649
-0.009795941 0.048146136 -0.013231298 0.087537825 -0.055134702 -0.028207969 0.038056124 -0.058844786
0.053081755 -0.08428183 0.033602655 0.00028889274 0.010201065 0.02266206 0.005141898 0.030173613
-0.05044193 0.025623322 -0.02222994 0.07626733 0.011358473 0.06942338 -0.07518898 -0.075396836
0.014578603 0.06435874 0.007975212 0.060418487 0.0067919306 -0.0030817492 -0.052867413 0.025044201
0.010227181 -0.052239954 0.045512278 0.13202785 -0.03726026 0.05671443 -0.026754344 0.010764188
0.04254818 0.115829654 0.0029289753 0.07176907 -0.08777952 0.02158096 0.09659308 -4.9060748e-33
-0.09951241 0.042310763 -0.055444837 -0.019486425 0.091038756 -0.037152246 0.07447317 0.023475744
-0.06554927 -0.011011267 0.10804965 0.039918516 -0.0084219575 -0.06392307 -0.09228881 0.07348251
0.058456425 -0.0025699527 0.102370515 -0.06826666 -0.0029753295 0.08263996 0.07566949 -0.0019277795
0.00068810297 -0.0042549935 0.035565753 0.08566655 0.119538225 0.021618431 0.07445232 -0.03333978
0.052220166 0.053372234 0.0023391256 0.074257515 0.01187316 -0.060736325 -0.026198348 -0.03474499
-0.047358304 -0.014687253 0.05427143 0.04626029 -0.057475887 0.029139107 -0.04704569 0.0018882107
-0.031600807 0.06275509 -0.012853012 0.03033941 0.018073423 0.068106316 -0.03266037 -0.07299834
0.027846266 0.036906846 -0.024047064 -0.021482976 0.097780615 -0.006183874 -0.03216134 0.023431407
-0.13605253 -0.035884686 0.023319518 -0.045322463 -0.08970325 -0.019382292 -0.034199428 0.10795825
-0.057490863 -0.0041468637 -0.062195435 0.025538446 -0.07891559 0.024324253 0.023402693 -0.05495257
-0.10372118 -0.005594164 -0.03821362 0.09776336 -0.0542764 -0.09339364 0.07026994 -0.061684188
0.03616501 0.054244142 -0.068399966 0.02829452 0.04762543 0.09039991 0.030416932 3.0625828e-33
-0.024589404 0.0020705478 0.03075824 0.09079276 -0.009754608 -0.045839217 -0.07032913 -0.017620826
0.006104187 0.07780735 0.030007523 0.0057347724 0.016954305 -0.0058759516 0.044122547 -0.07970912
0.11848699 0.101154976 -0.006811029 -0.04136257 0.03372222 0.0061550657 -0.020627916 0.055905785
0.013021444 0.081758715 0.04332508 -0.114804626 -0.08719403 0.0068656933 0.07148451 0.020168843
00000000: bedf 3bbd 91df e03c b390 b8bb 705b 423c
00000010: f90e 60bd c976 803b 3e99 7d3d 1b98 5fbd
00000020: fe5e 36bd 8d8c 21bd c3b6 a03c fb11 0a3c
00000030: 5804 da3c 56d2 d43a 5008 82ba 0d3a cdbb
00000040: 922a 703b 6085 b73c 8d83 f4bc 4188 2abd
00000050: 7cbd 9abd 833c 8dbd ce3f bcbd 37ba 40ba
00000060: efdd 0d3c 5f56 99bd 41b9 34bd 6db7 043d
00000070: c89f a3bd 5aa5 9dbd f6da 5dbc 5d2c 943c
00000080: d364 433d ed90 443c 1461 2bbd 30f0 403d
00000090: 8e0e 2d3d 2356 d73c aeae 46bc ed53 8abc
000000a0: a98a 603d 384b 20bc da0a 9cbc 31e2 153d
000000b0: 2e48 efbc 243b 4bbd cf48 663d c871 70bc
000000c0: 7b4e 3abd 7cc9 6f3d 7bdf 9dbc 3b70 053c
000000d0: d96e 90bd a10c 4abb ecf4 44bd 5638 1d3b
000000e0: 0efd 303d 0438 b63c ede0 a03d ba88 90bd
000000f0: ae9c 503d 3332 983c c038 103b 5785 b43c
00000100: 188d 4f3b 3486 80bc 26d2 0b3d f3d3 273c
00000110: 04c3 02bd 64c2 dd3a b414 3dbc 7cfd 66bd
00000120: e2d6 73bd 8e6f b1bd 1371 29bd 167d 45bc
00000130: 12fc 9dbb c371 d1bd 05ff 483d 0ba4 b03b
00000140: 287f 20bc e234 453d 16c8 58bc 0847 b33d
00000150: edd4 61bd 6614 e7bc bde0 1b3d 3b07 71bd
00000160: 416c 593d f49b acbd f0a2 093d 8776 9739
00000170: 5e22 273c c9a5 b93c 5e7d a83b a72e f73c
00000180: 329c 4ebd 00e8 d13c 901b b6bc 0c32 9c3d
00000190: e418 3a3c d82d 8e3d aefc 99bd a869 9abd
000001a0: 18db 6e3c 84ce 833d 77aa 023c 6079 773d
000001b0: d88e de3b 2cf7 49bb 808b 58bd 7f29 cd3c
000001c0: e88f 273c 90f9 55bd 156b 3a3d 4f32 073e
000001d0: 379e 18bd 644d 683d ed2b dbbc 475c 303c
000001e0: 0047 2e3d 1938 ed3d 0df4 3f3b aafb 923d
000001f0: c0c5 b3bd 8eca b03c 98d2 c53d 56ca cb89
00000200: 2acd cbbd 0d4e 2d3d 201a 63bd ffa1 9fbc
00000210: 8772 ba3d f42c 18bd 6485 983d 3450 c03c
00000220: b23e 86bd 9a68 34bc 2349 dd3d 9981 233d
00000230: 40fc 09bc 19ea 82bd ea01 bdbd 007e 963d
00000240: 0170 6f3d a76c 28bb a2a7 d13d 64cf 8bbd
00000250: bffd 42bb 243f a93d 9bf8 9a3d 8cad fcba
00000260: cf61 343a 796d 8bbb 65ad 113d f271 af3d
00000270: 75d0 f43d 2319 b13c 757a 983d 4b8f 08bd
00000280: d0e4 553d d89c 5a3d 044c 193b 5314 983d
00000290: a487 423c a7c6 78bd eb9d d6bc c350 0ebd
000002a0: c8fa 41bd cea2 70bc b84b 5e3d 6e7b 3d3d
000002b0: d66b 6bbd 23b5 ee3c fbb2 40bd d67d f73a
000002c0: d96f 01bd be85 803d 7195 52bc 5b8a f83c
000002d0: b70e 943c 537b 8b3d e1c6 05bd 2780 95bd
000002e0: da1d e43c a22b 173d 59fe c4bc 11fd afbc
000002f0: 3441 c83d 18a2 cabb 9cbb 03bd 39f3 bf3c
00000300: 5b51 0bbe d2fb 12bd 9308 bf3c 0ca4 39bd
00000310: 56b6 b7bd 9dc7 9ebc b314 0cbd 3719 dd3d
00000320: 8a7b 6bbd 6ae2 87bb a4c0 7ebd 0136 d13c
00000330: 7f9e a1bd a843 c73c 01b7 bf3c f215 61bd
00000340: c56b d4bd 404f b7bb e385 1cbd 2838 c83d
00000350: ee50 5ebd 2a45 bfbd b0e9 8f3d 8fa8 7cbd
00000360: c321 143d 1b2f 5e3d 4815 8cbd e9c9 e73c
00000370: e212 433d 9723 b93d ee2c f93c ef6d 7e09
00000380: b86f c9bc 07b2 073b b4f8 fb3c 8ef1 b93d
00000390: cbd1 1fbc e7c1 3bbd b808 90bd 8d59 90bc
000003a0: a205 c83b 7659 9f3d 56d2 f53c c2ea bb3b
000003b0: c1e3 8a3c 0e8b c0bb d8b9 343d 893e a3bd
000003c0: 4fa9 f23d 572a cf3d 0d2f dfbb cc6b 29bd
000003d0: 5020 0a3d 6fb0 c93b e0fb a8bc 77fd 643d
000003e0: e557 553c 1d71 a73d a475 313d b01e ebbd
000003f0: c992 b2bd 9cf9 e03b 7966 923d 2139 a53c

lore_11 f4 [384]
-0.06770724 0.07195262 -0.01071325 0.0013047834 0.03135569 0.08575967 0.032988258 -0.004728207
-0.0060450756 0.01830618 0.05065354 0.044491775 0.04077338 -0.049154855 -0.03363239 -0.030213354
0.026918005 0.034506954 -0.096469425 -0.0024298418 -0.05145992 0.005490162 -0.0037168632 0.029636668
-0.014465298 0.021974899 0.020251028 -0.018419957 0.012927748 -0.04984968 -0.040023085 -0.08261113
-0.034120254 0.03686683 -0.004723365 0.0876731 0.04022599 0.019264158 0.020110605 -0.050962556
0.040442977 -0.05393321 -0.019238668 0.02556983 0.0008327868 -0.030943992 -0.014476375 -0.013956365
-0.008176975 -0.0021712808 -0.010367459 0.03790322 -0.04190085 0.09320904 0.0005599674 0.062756345
0.05267647 -0.06142699 0.054992117 -0.039709356 -0.029958112 0.114232995 0.009622451 0.0074245958
-0.0015855216 -0.037644714 0.004705067 -0.050584633 0.056142554 -0.016800629 0.061386805 -0.00018076322
-0.0071164914 -0.008162188 -0.020939015 0.011265247 0.026347475 -0.08786259 0.012860429 0.025791174
-0.0009863207 -0.05106952 -0.09147132 0.11316557 0.0089210095 0.02969606 -0.01138176 -0.053826943
0.038507834 -0.03929545 -0.039238896 -0.036285058 -0.005400505 0.041789398 -0.05893595 0.022934748
0.07246774 0.06493297 -0.09773703 0.07836334 0.07612554 0.053521316 0.06495473 -0.07884974
-0.014100797 -0.057004586 0.050185695 -0.044130616 -0.013571899 -0.03445954 -0.020611187 -0.00664145
0.068801135 0.03859615 0.09249242 0.036734786 -0.04552477 0.015627941 -0.10666673 -0.021075707
0.06415191 0.032684073 0.0076906043 0.04048926 -0.035737846 4.909124e-05 0.053667787 -4.006787e-33
0.0044663595 0.019819783 -0.009389203 0.018399859 -0.013469309 -0.029868396 0.01015842 -0.0041620755
-0.020714905 0.051938217 0.016946603 -0.08168077 0.008042999 -0.08000675 -0.13541763 0.04335944
0.009789137 -0.042010587 0.02733164 0.025041465 0.012172994 0.119762324 0.03857778 0.077836625
-0.025452038 -0.018254181 0.0037162052 -0.036206737 0.060017742 0.044843562 0.0088985395 0.075658314
0.020324325 -0.033403564 0.0039067836 -0.049351823 -0.0020694362 -0.0725449 -0.030221632 -0.008459061
-0.057637673 0.00867704 0.034713008 0.023630252 -0.013921892 -0.044329748 -0.001725703 -0.05588369
-0.019151138 0.01677019 -0.038543426 -0.017950172 -0.016217828 0.0064859106 0.011807659 -0.012526751
-0.013276151 0.093785174 0.053210367 0.0036168948 0.10971333 -0.0069857477 0.04772383 0.026293052
0.05199475 -0.106183805 -0.016746528 -0.009390559 -0.03441978 -0.0129710445 -0.008567849 0.040948812
0.0039491565 0.008841425 -0.034632288 -0.0025975856 0.04143966 -0.0313923 -0.02441629 -0.089169875
-0.005198657 0.03733353 0.037996873 0.13478395 -0.00086095755 -0.051773183 -0.012553445 -0.11790976
0.0118436115 -0.008406377 0.066069305 -0.0014988976 -0.07224513 -0.12351662 -0.01022718 2.464773e-33
0.09528264 -0.074411765 -0.009820597 -0.050925996 0.08161562 -0.07030327 -0.1284158 0.04668574
-0.03867263 0.0009607267 -0.10450476 -0.023222998 0.046634205 0.04680759 0.08985981 0.09027347
0.08345377 -0.0049814135 -4.4151002e-05 0.06988507 -0.0012151176 -0.020585049 -0.039289255 0.016150037
-0.009943684 0.07844567 0.004018178 0.049076702 -0.1169772 -0.03467852 0.05009315 -0.019389072
00000000: 18aa 8abd e55b 933d a186 2fbc 4405 ab3a
00000010: d36e 003d c4a2 af3d b21e 073d 13ef 9abb
00000020: c515 c6bb d8f6 953c 167a 4f3d 023d 363d
00000030: fd01 273d 9a56 49bd 1ec2 09bd ff81 f7bc
00000040: 2683 dc3c 2a57 0d3d c391 c5bd fb3d 1fbb
00000050: a3c7 52bd d1e6 b33b 9e96 73bb 99c8 f23c
00000060: dbff 6cbc b404 b43c 7ce5 a53c 73e5 96bc
00000070: e8ce 533c 2e2f 4cbd 3fef 23bd 0630 a9bd
00000080: aec1 0bbd ac01 173d 75c6 9abb f48d b33d
00000090: 02c4 243d decf 9d3c ffbe a43c 1dbe 50bd
000000a0: 89a7 253d 12e9 5cbd 699a 9dbc d277 d13c
000000b0: 604f 5a3a 417e fdbc 512e 6dbc 3da9 64bc
000000c0: b8f8 05bc 0c4c 0ebb 46dc 29bc 6840 1b3d
000000d0: 3aa0 2bbd 62e4 be3d c7ca 123a 6686 803d
000000e0: 48c3 573d de9a 7bbd 6a3f 613d 47a6 22bd
000000f0: b76a f5bc fdf2 e93d 7ca7 1d3c 064a f33b
00000100: 47d1 cfba 5831 1abd f62c 9a3b d531 4fbd
00000110: bcf5 653d 79a1 89bc bb70 7b3d 428b 3db9
00000120: 7531 e9bb b3ba 05bc 4c88 abbc df91 383c
00000130: a9d6 d73c 4df1 b3bd 8cb4 523c 0348 d33c
00000140: 6e47 81ba 462e 51bd 5155 bbbd 5ac3 e73d
00000150: 6d29 123c 2745 f33c 907a 3abc a479 5cbd
00000160: 64ba 1d3d 44f4 20bd f7b8 20bd a49f 14bd
00000170: b8f6 b0bb 5c2b 2b3d d366 71bd a7e1 bb3c
00000180: f769 943d 94fb 843d 5a2a c8bd f57c a03d
00000190: b5e7 9b3d 2b39 5b3d fc06 853d f97b a1bd
000001a0: 0707 67bc a47d 69bd 848f 4d3d 4ec2 34bd
000001b0: ac5c 5ebc 7225 0dbd cbd8 a8bc 85a0 d9bb
000001c0: 9ce7 8c3d ff16 1e3d aa6c bd3d 3777 163d
000001d0: 2e78 3abd 2b06 803c 1674 dabd f6a6 acbc
000001e0: 1462 833d bcdf 053d 7701 fc3b 11d8 253d
000001f0: d961 12bd 51e7 4d38 c1d2 5b3d 786f a689
00000200: 8a5a 923b 195d a23c 2cd5 19bc 4dbb 963c
00000210: 60ae 5cbc 91ae f4bc 806f 263c 0562 88bb
00000220: 4eb2 a9bc 2bbd 543d 9ad3 8a3c 3f48 a7bd
00000230: c8c6 033c 94da a3bd ebaa 0abe ab99 313d
00000240: 9e62 203c 4b13 2cbd 9ae6 df3c c223 cd3c
00000250: 3d71 473c f345 f53d bc03 1e3d cf68 9f3d
00000260: cb80 d0bc cb89 95bc 948b 733b 844d 14bd
00000270: 2ad5 753d e2ad 373d 2ecb 113c bff2 9a3d
00000280: 337f a63c 2dd2 08bd 7a04 803b 2325 4abd
00000290: 619f 07bb 6c92 94bd 5b93 f7bc e097 0abc
000002a0: 7b15 6cbd 252a 0e3c 3a2f 0e3d 3b94 c13c
000002b0: a618 64bc 1c93 35bd fc30 e2ba 4ce6 64bd
000002c0: d9e2 9cbc a361 893c b6df 1dbd 3d0c 93bc
000002d0: 40db 84bc c387 d43b e974 413c 003d 4dbc
000002e0: 3784 59bc 7112 c03d 1df3 593d 6d09 6d3b
000002f0: 62b1 e03d b3e8 e4bb 107a 433d 8764 d73c
00000300: 72f8 543d e576 d9bd 0430 89bc dcda 19bc
00000310: c1fb 0cbd 8184 54bc 2a60 0cbc f1b9 273d
00000320: ed67 813b a0db 103c 96da 0dbd 413c 2abb
00000330: a2bc 293d 3695 00bd ac04 c8bc b29e b6bd
00000340: 7f59 aabb 0beb 183d 9ca2 1b3d ce04 0a3e
00000350: e2b1 61ba 1e10 54bd f7ac 4dbc ac7a f1bd
00000360: b50b 423c e7ba 09bc 584f 873d a876 c4ba
00000370: 41f5 93bd 48f6 fcbd e78f 27bc edc3 4c09
00000380: 8b23 c33d 3265 98bd 92e6 20bc c797 50bd
00000390: 1726 a73d 29fb 8fbd 6e7f 03be 8c39 3f3d
000003a0: 3167 1ebd 47d9 7b3a 9706 d6bd 283e bebc
000003b0: 8203 3f3d 51b9 3f3d 6c08 b83d 4ce1 b83d
000003c0: cfe9 aa3d 203b a3bb c72e 39b8 e71f 8f3d
000003d0: 9544 9fba faa1 a8bc c5ed 20bd 154d 843c
000003e0: d5ea 22bc 20a8 a03d ecaa 833b a704 493d
000003f0: be91 efbd 100b 0ebd 7a2e 4d3d d5d5 9ebc

lore_12 f4 [384]
-0.039764035 0.17693943 0.0020156316 0.024490682 -0.028007913 -0.029506022 -0.036371186 -0.001407292
0.009751897 -0.05375213 -0.02971195 0.023345103 -0.019909441 -0.003584829 -0.06773082 -0.04446139
-0.05547769 0.094583265 -0.03556276 0.009694869 0.044912852 0.019785477 0.018089747 -0.012975026
0.020106668 0.032091152 -0.04508603 0.09005734 0.013877593 -0.09738396 -0.028570801 -0.04293995
-0.075176544 0.027832864 -0.06509203 0.009648432 0.0013863448 -0.0055156583 0.05021042 -0.059167285
-0.019396732 0.06592719 -0.105361275 -0.0088333385 -0.07392874 0.016586894 -0.04441249 -0.052367978
0.03336703 -0.011389441 0.035398994 0.057696063 0.013668279 -0.010485715 0.022945317 0.019361597
0.044618655 -0.0012449038 0.0709187 0.10042003 0.08987037 0.04996854 -0.07360316 0.03374299
0.07117665 -0.063351944 0.05314763 -0.022053491 -0.011899755 0.03554667 0.0070026773 -0.026264293
0.071220286 -0.06432243 -0.016819509 0.01719237 -0.07202645 -0.10927496 0.022105737 0.08968928
0.016731955 -0.01935116 0.01772683 0.1242467 0.07716237 0.056170173 0.0006998125 0.03384965
0.013998726 -0.007717561 0.043767065 -0.005665386 0.00895292 0.18196586 0.040889047 0.019999247
-0.02409654 -0.06440801 -0.05237507 0.060722984 -0.039061863 0.068734206 0.082915485 -0.031254716
0.03614882 0.014878206 -0.016386598 -0.03027378 0.00040500346 -0.029631346 0.0006110571 -0.0732048
-0.0012550688 -0.058978595 0.033678267 0.010426869 -0.007621545 0.033317327 -0.13617714 0.0010199575
0.09402084 0.017877044 0.0004622585 0.06388246 -0.064249314 -0.06929369 -0.019196564 -4.8209253e-33
-0.022290032 0.030012755 -0.052324172 -0.0011522715 0.0844541 -0.009009931 -0.04587859 0.09614387
0.016552838 0.047631197 0.004093745 -0.012863632 -0.041458543 -0.0385629 -0.0006326825 -0.03246993
0.07885198 0.005562527 -0.068958975 -0.03262091 0.023859397 0.095073596 0.004155828 -0.035667077
0.008071389 0.034992006 -0.060347028 0.020408735 -0.07429705 0.012995304 -0.020057328 -0.037256468
-0.041094102 -0.010800497 0.0011006314 -0.032911237 -0.022899289 -0.037438843 -0.0014171564 -0.03842775
-0.030249074 -0.033314433 -0.013976556 0.051897544 -0.011195205 0.025397945 -0.038607832 -0.010255033
-0.002116624 -0.0021333222 0.02747055 -0.029701294 -0.011080622 0.0039018255 -0.06258094 0.0033027714
0.008133814 0.017727816 0.10238363 0.093673155 0.039025955 -0.019366229 -0.03085936 0.083706856
-0.016160281 -0.1254237 -0.030092355 -0.022227803 -0.014036953 -0.059433065 -0.016306452 0.05901687
0.00038371244 -0.04230324 -0.03020413 -0.06887571 -0.080982454 0.042831346 -0.09080766 -0.0019060923
0.037193414 0.01587125 0.02140728 0.0046948735 0.053665526 -0.045487672 0.011165988 -0.099421486
0.031615518 0.03345075 -0.021980872 -0.051537666 0.053111527 -0.038890854 -0.017454749 2.363538e-33
0.021113561 -0.009348734 -0.024300018 -0.025145065 -0.07986082 -0.005651319 0.0025486622 0.06525365
-0.08756845 0.019958729 0.0017116198 0.09028035 0.0606412 0.019783918 0.0641772 -0.02661814
0.03953091 -0.0076072905 -0.004015976 0.037672788 0.0017394838 0.075398244 -0.055014886 -0.013748834
0.017818153 0.046716984 0.020638807 -0.07630483 0.035346687 0.050146993 0.07238514 -0.020200837
00000000: 9ddf 22bd 9c2f 353e b018 043b afa0 c83c
00000010: da70 e5bc 9db6 f1bc f4f9 14bd e274 b8ba
00000020: 6cc6 1f3c 322b 5cbd 7a66 f3bc 3b3e bf3c
00000030: 2019 a3bc 73ef 6abb 75b6 8abd 251d 36bd
00000040: 933c 63bd dfb4 c13d 42aa 11bd 3ad7 1e3c
00000050: 8af6 373d 2715 a23c f330 943c 3495 54bc
00000060: bdb6 a43c 0372 033d 21ac 38bd fc6f b83d
00000070: d85e 633c 3e71 c7bd 500d eabc cde1 2fbd
00000080: 29f6 99bd bf01 e43c f84e 85bd 7514 1e3c
00000090: 03b6 b53a b2bc b4bb 71a9 4d3d 6559 72bd
000000a0: e5e5 9ebc d604 873d a7c7 d7bd b5b9 10bc
000000b0: f467 97bd 3de1 873c dfe9 35bd ce7f 56bd
000000c0: deab 083d c79a 3abc 89fe 103d b552 6c3d
000000d0: ebf0 5f3c 47cc 2bbc d1f7 bb3c 369c 9e3c
000000e0: 0dc2 363d 0a2c a3ba d33d 913d 04a9 cd3d
000000f0: f50d b83d d0ab 4c3d 41bd 96bd 1736 0a3d
00000100: 10c5 913d aabe 81bd 54b1 593d 86a9 b4bc
00000110: 31f7 42bc 6399 113d b776 e53b 3728 d7bc
00000120: f1db 913d 7abb 83bd 11c9 89bc 03d7 8c3c
00000130: 9a82 93bd 8dcb dfbd 1717 b53c 03af b73d
00000140: 7411 893c 5386 9ebc db37 913c 0e75 fe3d
00000150: 4e07 9e3d b212 663d 9f73 373a eea5 0a3d
00000160: ea5a 653c 98e3 fcbb 1845 333d b4a4 b9bb
00000170: 45af 123c 4255 3a3e 467b 273d 76d5 a33c
00000180: 1b66 c5bc 59e8 83bd 3e87 56bd aab8 783d
00000190: 55ff 1fbd 85c4 8c3d 98cf a93d f204 00bd
000001a0: c910 143d b8c3 733c 303d 86bc b800 f8bc
000001b0: a556 d439 70bd f2bc 592f 203a 66ec 95bd
000001c0: 1f81 a4ba 8a93 71bd 39f2 093d 75d5 2a3c
000001d0: 27be f9bb c077 083d 0572 0bbe 18b0 853a
000001e0: 008e c03d e172 923c 495b f239 cfd4 823d
000001f0: 2595 83bd dae9 8dbd 1d42 9dbc df40 c889
00000200: 9699 b6bc 4fdd f53c df51 56bd d107 97ba
00000210: 45f6 ac3d 649e 13bc 30eb 3bbd 14e7 c43d
00000220: d199 873c ee18 433d d224 863b fcc1 52bc
00000230: 6fd0 29bd 22f4 1dbd 9bda 25ba 30ff 04bd
00000240: 267d a13d dc45 b63b 5d3a 8dbd 819d 05bd
00000250: c874 c33c f2b5 c23d 9d2d 883b a417 12bd
00000260: dc3d 043c c753 0f3d 722e 77bd 3830 a73c
00000270: 0d29 98bd 41ea 543c 444f a4bc 3d9a 18bd
00000280: 4a52 28bd 91f4 30bc 1043 903a efcd 06bd
00000290: 4a97 bbbc 7959 19bd e1bf b9ba 6b66 1dbd
000002a0: e8cc f7bc b774 08bd edfd 64bc 8592 543d
000002b0: 186c 37bc 5a0f d03c 3f23 1ebd ba04 28bc
000002c0: 0fb7 0abb 35cf 0bbb eb09 e13c 2150 f3bc
000002d0: 7f8b 35bc c5b5 7f3b 702a 80bd 4f73 583b
000002e0: b043 053c ed39 913c 82ae d13d b6d7 bf3d
000002f0: aed9 1f3d eda5 9ebc c5cc fcbc 806e ab3d
00000300: 9162 84bc 126f 00be 3e84 f6bc 1517 b6bc
00000310: 40fb 65bc 1670 73bd 1c95 85bc acbb 713d
00000320: 032d c939 2a46 2dbd a76e f7bc b50e 8dbd
00000330: 21da a5bd ec6f 2f3d 5ef9 b9bd d8d5 f9ba
00000340: 1f58 183d 6c04 823c 525e af3c 74d7 993b
00000350: 62d0 5b3d 4851 3abd 8cf1 363c 7e9d cbbd
00000360: 467f 013d a703 093d 3b11 b4bc 2919 53bd
00000370: 798b 593d 044c 1fbd 43fd 8ebc e55a 4409
00000380: 59f6 ac3c 6f2b 19bc d510 c7bc 06fd cdbc
00000390: 128e a3bd b32e b9bb 7507 273b b5a3 853d
000003a0: 1657 b3bd 7d80 a33c 6e58 e03a e7e4 b83d
000003b0: e862 783d e211 a23c 566f 833d 490e dabc
000003c0: 2aeb 213d 9446 f9bb 7398 83bb c84e 1a3d
000003d0: 64ff e33a 656a 9a3d 4a57 61bd ca42 61bc
000003e0: 60f7 913c 4f5a 3f3d b712 a93c b545 9cbd
000003f0: b0c7 103d ef66 4d3d a93e 943d 3a7c a5bc

lore_13 f4 [384]
-0.09335001 0.07973339 0.074515566 -0.019015763 -0.022452958 0.030060852 0.06475352 0.047392845
0.020140072 -0.031319868 0.034578174 0.027960835 0.047961537 -0.055307306 -0.032408427 -0.06599543
0.007661953 0.078410685 -0.09701861 0.007920441 0.0067811087 -0.036496975 -0.0044352394 0.012966041
0.05161284 0.11230733 -0.071829356 0.083047815 -0.027133508 -0.057925384 -0.026175875 -0.07836667
0.00011611766 0.07253408 -0.01383013 0.0022560277 -0.0025500744 0.02582506 0.011381406 -0.063548826
-0.010417399 0.018581765 -0.052481852 0.024758294 0.024162676 0.056755953 0.02922965 0.009995431
0.0045678695 -0.02992963 0.028818421 0.08371152 0.0027580988 -0.010013203 0.0039211414 0.052392967
0.04752595 -0.01793991 0.107193634 0.046058744 0.06918695 0.10441234 0.030685792 0.0561997
-0.04915384 -0.0022673954 0.021838184 -0.0178103 0.08097982 0.00820058 0.08365197 -0.04478364
-0.06829483 -0.048427194 0.015009621 0.057801183 0.052749988 -0.049997568 -0.099769026 0.059088998
-0.09197299 -0.061503433 -0.02007617 0.052589085 -0.01507443 0.0004448456 -0.088122115 0.03634841
-0.03897946 -0.0045508742 -0.04469025 -0.04772038 0.033349954 0.004860273 -0.0444662 -0.02602412
0.06568975 0.0209471 0.04114615 0.085567325 -0.007968626 0.04694409 0.011565277 -0.082914576
-0.008608473 -0.011229121 -0.019376524 0.03444009 0.028610842 -0.014140317 0.0057335184 0.01091685
0.0027659475 0.021434492 0.060702264 0.03056259 -0.076228805 0.058148984 -0.032517992 0.020779716
0.017220944 -0.0072944257 0.00030287314 -0.0014543688 -0.122470014 -0.022042183 -0.021631049 -1.6812497e-33
-0.04711804 0.016941244 0.0034146516 -0.0048277588 -0.050096728 -0.019837858 0.02961577 0.030804431
0.042590693 0.042367425 0.028998641 0.010172528 -0.037728604 -0.10099468 -0.053899225 0.04111293
-0.015885988 -0.026212128 0.0058258483 -0.0047799074 -0.028625155 0.10045709 0.06514249 0.129725
-0.02577812 0.0013512382 0.011835453 -0.06492667 0.097387314 0.033031072 0.0015045097 0.05804673
0.060617637 0.018262267 0.0033088326 0.05781551 0.029553542 -0.032858446 -0.0055866223 -0.028517904
0.062029943 0.027736207 0.041465405 0.018370107 -0.075169735 -0.009238212 -0.010030752 -0.010597032
0.027914139 -0.022317853 -0.014821936 -0.016177699 -0.008162453 0.03979096 -0.047494415 0.0048108324
-0.07679778 0.039142437 0.06747517 -0.012290697 0.11332774 0.06539227 0.025926782 0.011072138
-0.037033804 0.013143244 -0.01943428 0.030743686 -0.0174081 -0.055238698 -0.046866234 0.06619445
-0.03275953 -0.04945436 -0.01613512 0.018853946 0.017808475 -0.022922363 0.011210196 -0.06881035
-0.039289232 0.074332364 0.033426013 -0.024339586 0.04239694 0.0015527051 0.044188153 -0.13591038
0.03467488 0.041882657 0.025933368 -0.057423726 -0.07863312 -0.049981147 -0.021318294 1.7003629e-33
0.042793877 -0.08417873 0.07628259 0.011390641 0.06961214 -0.047140606 -0.12112158 0.04825656
-0.1109819 -0.02831838 -0.049699724 -0.016553825 0.02167636 -0.006261279 0.023041504 -0.022933576
0.110353455 0.04807691 -0.02179941 0.071298495 0.0073191356 0.024573922 0.004678589 -0.018787136
-0.11906574 0.05143262 -0.07306143 -0.023595514 0.024861949 -0.02750039 0.033648003 0.036293015
00000000: 4a2e bfbd 424b a33d 9e9b 983d f2c6 9bbc
00000010: 44ef b7bc 2d42 f63c 7e9d 843d 001f 423d
00000020: cbfc a43c 4349 00bd d8a1 0d3d 1f0e e53c
00000030: 5173 443d ea89 62bd b3be 04bd 9d28 87bd
00000040: 1f11 fb3b c895 a03d b1b1 c6bd bdc4 013c
00000050: 1034 de3b da7d 15bd 7c55 91bb 856f 543c
00000060: fc67 533d 6301 e63d 451b 93bd f914 aa3d
00000070: 1747 debc 2b43 6dbd ca6e d6bc b47e a0bd
00000080: 3284 f338 bf8c 943d c597 62bc ddd9 133b
00000090: 261f 27bb 148f d33c 1479 3a3c e325 82bd
000000a0: bdad 2abc c938 983c 36f7 56bd e8d1 ca3c
000000b0: cef0 c53c ee78 683d 0573 ef3c e0c3 233c
000000c0: 11ae 953b fc2e f5bc 9c14 ec3c f270 ab3d
000000d0: 38c1 343b 6b0e 24bc eb7c 803b 029a 563d
000000e0: 92aa 423d b8f6 92bc 5688 db3d 18a8 3c3d
000000f0: e3b1 8d3d 23d6 d53d c560 fb3c a831 663d
00000100: 8955 49bd 9598 14bb fee5 b23c e8e6 91bc
00000110: bfd8 a53d ba5b 063c b951 ab3d 0d6f 37bd
00000120: 29de 8bbd 985b 46bd eaea 753c efc0 6c3d
00000130: 5f10 583d 40ca 4cbd b453 ccbd 4e07 723d
00000140: 565c bcbd 06eb 7bbd c876 a4bc a767 573d
00000150: befa 76bc 2a3a e939 5e79 b4bd 12e2 143d
00000160: eda8 1fbd 801f 95bb 200d 37bd 7276 43bd
00000170: f699 083d ed42 9f3b 3122 36bd 8930 d5bc
00000180: 5988 863d 4199 ab3c de88 283d ec3d af3d
00000190: d78e 02bc 7248 403d 4a7c 3d3c 1ecf a9bd
000001a0: 8e0a 0dbc 59fa 37bc 84bb 9ebc 0d11 0d3d
000001b0: 4961 ea3c caac 67bc 3de0 bb3b 96dc 323c
000001c0: e644 353b 6397 af3c f0a2 783d 665e fa3c
000001d0: d91d 9cbd a12d 6e3d 9631 05bd 393a aa3c
000001e0: f012 8d3c 1406 efbb f2ca 9e39 85a0 beba
000001f0: 8fd1 fabd cf91 b4bc 9933 b1bc 3aac 0b89
00000200: d9fe 40bd 5dc8 8a3c 59c8 5f3b 2d32 9ebb
00000210: 3a32 4dbd 0183 a2bc c59c f23c 9359 fc3c
00000220: 9473 2e3d 7789 2d3d 8f8e ed3c adaa 263c
00000230: 4f89 1abd 4cd6 cebd 6fc5 5cbd 0866 283d
00000240: 5523 82bc d1ba d6bc c2e6 be3b c5a0 9cbb
00000250: 4d7f eabc 72bc cd3d 6d69 853d a1d6 043e
00000260: a32c d3bc 081c b13a 7de9 413c 46f8 84bd
00000270: 0073 c73d 974b 073d f832 c53a 68c2 6d3d
00000280: 334a 783d c09a 953c 00d9 583b f5cf 6c3d
00000290: 451a f23c 9496 06bd fc0f b7bb 619e e9bc
000002a0: 1c13 7e3d 0b37 e33c a1d7 293d e87c 963c
000002b0: 97f2 99bd df5b 17bc 0658 24bc 2c9f 2dbc
000002c0: 31ac e43c eed3 b6bc b5d7 72bc 1887 84bc
000002d0: cfbb 05bc d8fb 223d 8189 42bd 30a4 9d3b
000002e0: 2848 9dbd d253 203d 6c30 8a3d eb5e 49bc
000002f0: 6018 e83d 62ec 853d 6764 d43c ea67 353c
00000300: c2b0 17bd c356 573c a434 9fbc 2fda fb3c
00000310: 6f9b 8ebc f941 62bd cff6 3fbd f590 873d
00000320: db2e 06bd a890 4abd cd2d 84bc 9773 9a3c
00000330: 14e3 913c aec7 bbbc f8aa 373c 71ec 8cbd
00000340: bfed 20bd 913b 983d b7e9 083d d063 c7bc
00000350: 6aa8 2d3d 2384 cb3a a3fe 343d 172c 0bbe
00000360: 3f07 0e3d 268d 2b3d 3772 d43c 2435 6bbd
00000370: 670a a1bd 08b9 4cbd b4a3 aebc b842 0d09
00000380: a248 2f3d e665 acbd 0c3a 9c3d d09f 3a3c
00000390: cf90 8e3d 8216 41bd 970e f8bd aca8 453d
000003a0: 7a4a e3bd f2fb e7bc f091 4bbd e39b 87bc
000003b0: 9f92 b13c 6a2b cdbb 89c1 bc3c 32df bbbc
000003c0: fe00 e23d 4bec 443d ad94 b2bc f204 923d
000003d0: 5cd5 ef3b 404f c93c d94e 993b 7be7 99bc
000003e0: bdd8 f3bd 03ab 523d 3ba1 95bd 614b c1bc
000003f0: 49ab cb3c 7f48 e1bc 7dd2 093d fca7 143d

lore_14 f4 [384]
-0.039683938 0.119750194 -0.030516677 0.004715382 -0.060126726 -0.014697384 0.015697328 -0.034076717
0.0151593555 0.02103479 -0.04901685 -0.08346381 -0.044821825 0.04210429 -0.012865305 0.030926745
-0.12561156 0.039745636 -0.041697923 0.004431904 -0.016042903 -0.020083047 0.027698986 0.0088734925
0.03214123 -0.012128856 0.10177599 0.007561936 -0.00770351 -0.013835394 -0.054786097 -0.027235227
-0.052573085 0.039942484 -0.021656279 0.043097105 0.054638017 -0.029018208 0.013283822 -0.08054038
0.013485674 0.047190607 0.07629962 -0.020110216 -0.034446757 0.07713846 0.06502978 -0.0058549144
-0.052405722 -0.028273819 0.017805114 -0.03779481 -0.0023652487 -0.03859207 0.03178822 0.035419445
-0.011523394 -0.026533363 0.066300385 0.010151756 -0.027485318 0.028665783 -0.02378695 -0.0106595885
0.022373434 -0.060704026 0.12768479 0.054943986 -0.11922086 0.030046605 -0.0075335023 -0.053086318
0.07464747 -0.057253428 0.0373216 -0.019240787 -0.081304744 0.04119797 0.015937872 -0.07169927
-0.061101668 0.026946174 -0.08343288 0.024764985 0.071453646 -0.099383116 0.006436658 -0.08014049
0.093674466 -0.03802349 0.039217584 -0.042230986 0.09822294 0.016869014 -0.058143053 0.06550267
0.07885918 0.042494886 0.030073721 0.047194373 0.07516592 -0.04353655 -0.09254714 -0.014393849
-0.06616006 0.025248887 -0.08559041 -0.050718226 -0.017048538 0.025400156 -0.12634788 -0.04300749
-0.016932733 0.05698469 -0.0154609755 0.062488977 0.018263537 -0.050822612 0.06658706 -0.02101903
0.022407556 -0.059407443 -0.08349236 -0.016787102 -0.057944573 0.041633498 -0.034523778 -2.5907389e-33
0.03072044 -0.013977691 -0.038414765 0.07036918 -0.0007737748 0.0035754933 0.080652624 0.030653613
-0.03665528 -0.032877848 -0.02540185 0.065639876 0.009781856 -0.00024196779 -0.029318836 0.037353504
-0.09938681 -0.0039476813 0.0094992835 0.0029899848 0.037979074 0.017017914 0.03487701 0.08428824
0.05085533 -0.0044395206 0.008847749 -0.06722162 0.044098064 0.01692379 -0.0041793725 0.034266815
0.049842004 -0.05231843 -0.02500667 0.0573609 -0.02688551 -0.031753443 -0.003271348 0.042183176
0.019939123 0.0026729833 -0.013908578 0.013617547 0.07302818 0.007144968 -0.0065417234 -0.05545293
-0.034988496 0.07499994 -0.03294366 -0.056532163 -0.00094636413 -0.09136171 -0.0038385019 -0.021609604
-0.071818605 0.06841345 -0.06678889 0.1012065 -0.0022052715 0.0034737207 0.11337301 0.042933702
-0.047893014 0.02786007 -0.047046155 0.06129676 -0.035331775 -0.105665565 -0.012835804 0.085965954
0.070749305 0.008265255 -0.026379578 -0.009715115 -0.023748899 0.053113442 -0.0085776625 -0.091374785
-0.07187397 -0.005287609 0.005917196 0.09481417 -0.0036704736 -0.12510292 -0.022553893 -0.060332302
0.048288893 0.033250008 -0.06595837 0.012323058 0.09246333 0.015506047 0.038288496 7.6953104e-34
0.06659238 0.028730683 0.005872179 0.011452393 0.0037137177 0.059362803 0.053158727 0.03851847
-0.015369816 0.016914716 0.032418955 -0.011004438 0.07325589 0.03672029 0.0009847595 -0.03773309
0.07457446 0.021662453 0.039655082 -0.016260823 0.044061787 -0.033917367 -0.034308087 -0.058345772
0.057677515 0.008507582 0.005239583 -0.07535168 -0.030783357 0.10858377 0.11024178 -0.046386942
00000000: a08b 22bd 973f f53d 1cfe f9bc 7e83 9a3b
00000010: 7147 76bd 4ccd 70bc af97 803c 0794 0bbd
00000020: f25e 783c 2751 ac3c e4c5 48bd 13ef aabd
00000030: 1797 37bd 8c75 2c3d 00c9 52bc 165a fd3c
00000040: 51a0 00be 52cc 223d 71cb 2abd 8139 913b
00000050: 686c 83bc 3485 a4bc fce8 e23c 2062 113c
00000060: 86a6 033d 1cb8 46bc ee6f d03d 1eca f73b
00000070: ba6d fcbb d9ad 62bc 6367 60bd 691c dfbc
00000080: e056 57bd bb9a 233d 8268 b1bc 9786 303d
00000090: 1dcc 5f3d 98b7 edbc 63a4 593c 5bf2 a4bd
000000a0: 04f3 5c3c f04a 413d fa42 9c3d 2ebe a4bc
000000b0: 0b18 0dbd c5fa 9d3d 552e 853d 95da bfbb
000000c0: 62a7 56bd 7f9e e7bc 08dc 913c bbce 1abd
000000d0: 4a02 1bbb b812 1ebd 5d34 023d fb13 113d
000000e0: 9ecc 3cbc 7f5c d9bc 7fc8 873d 8d53 263c
000000f0: e428 e1bc 81d4 ea3c dadc c2bc 8ea5 2ebc
00000100: 7e48 b73c c9a4 78bd cdbf 023e f20c 613d
00000110: 112a f4bd 4c24 f63c 99db f6bb 0a71 59bd
00000120: c6e0 983d 9282 6abd 89de 183d db9e 9dbc
00000130: 1a83 a6bd 34bf 283d 2490 823c 11d7 92bd
00000140: be45 7abd 39be dc3c dcde aabd f0df ca3c
00000150: 4a56 923d 6089 cbbd 9aea d23b b220 a4bd
00000160: 66d8 bf3d 85be 1bbd 9ea2 203d 66fa 2cbd
00000170: 1c29 c93d e330 8a3c 6927 6ebd 4426 863d
00000180: ec80 a13d 1e0f 2e3d 2a5d f63c e34e 413d
00000190: 97f0 993d 6253 32bd 5b89 bdbd 2ed4 6bbc
000001a0: ed7e 87bd c1d6 ce3c 064a afbd eabd 4fbd
000001b0: 60a9 8bbc fd13 d03c 5761 01be 9f28 30bd
000001c0: 84b6 8abc c768 693d 0850 7dbc 71f4 7f3d
000001d0: 6a9d 953c 5f2b 50bd cc5e 883d 1a30 acbc
000001e0: 0d90 b73c 3855 73bd 0bfe aabd 1b85 89bc
000001f0: 4a57 6dbd e387 2a3d ce68 0dbd ec3a 5789
00000200: 6fa9 fb3c af02 65bc cd58 1dbd b71d 903d
00000210: 26d7 4aba d352 6a3b 342d a53d 491d fb3c
00000220: d923 16bd ecaa 06bd 8a17 d0bc 336e 863d
00000230: 1444 203c bcb8 7db9 0e2e f0bc fdff 183d
00000240: 508b cbbd 8d5b 81bb e2a2 1b3c 9ff3 433b
00000250: f28f 1b3d 2769 8b3c 32db 0e3d 509f ac3d
00000260: ae4d 503d 6679 91bb 26f6 103c 7dab 89bd
00000270: 2ca0 343d c3a3 8a3c 1ef3 88bb 5c5b 0c3d
00000280: 2127 4c3d da4b 56bd cada ccbc 43f3 6a3d
00000290: 003f dcbc e60f 02bd 1d64 56bb 44c8 2c3d
000002a0: 5f57 a33c 382d 2f3b cee0 63bc 221c 5f3c
000002b0: cc8f 953d 5620 ea3b f45b d6bb 9d22 63bd
000002c0: 1950 0fbd 9299 993d eeef 06bd 458e 67bd
000002d0: 6c15 78ba d91b bbbd 608f 7bbb a006 b1bc
000002e0: a215 93bd 5a1c 8c3d 9dc8 88bd 5a45 cf3d
000002f0: 5186 10bb 5da7 633b 1c30 e83d 40db 2f3d
00000300: 772b 44bd cd3a e43c 78b3 40bd 5012 7b3d
00000310: 0db8 10bd 3067 d8bd 444d 52bc eb0e b03d
00000320: 03e5 903d fe6a 073c fc19 d8bc 252c 1fbc
00000330: 0d8d c2bc 7b8d 593d 5389 0cbc b422 bbbd
00000340: a932 93bd ae43 adbb 0ae5 c13b ee2d c23d
00000350: 548c 70bb fb1a 00be f1c2 b8bc 011f 77bd
00000360: 93ca 453d 2931 083d 2f15 87bd a7e6 493c
00000370: 6a5d bd3d 130d 7e3c 66d4 1c3d 76b8 7f08
00000380: 9661 883d 9c5c eb3c 686b c03b d1a2 3b3c
00000390: d861 733b 6926 733d f7bc 593d 8bc5 1d3d
000003a0: aed1 7bbc bb90 8a3c bdc9 043d f54b 34bc
000003b0: 2f07 963d 0468 163d 0c13 813a 038e 1abd
000003c0: 7fba 983d 7575 b13c 5e6d 223d 6b35 85bc
000003d0: 227a 343d f0ec 0abd a386 0cbd fafb 6ebd
000003e0: 423f 6c3d 6363 0b3c cfb0 ab3b fb51 9abd
000003f0: 612d fcbc 2b61 de3d 71c6 e13d 3c00 3ebd
