assets/vectorized/traits_vectors.safetensors (safetensors, 106104 bytes, 66 tensors)

adventure_seeking f4 [384]
000000 c3 2c 59 3d 0c b9 12 3d 34 8a 6d 3c 1b 48 1d 3d
       0.053021204 0.035821006 0.014498282 0.038398843
000010 53 ca 49 3d db 4e 14 3d 61 61 d7 3d 9a 05 51 3d
       0.049265217 0.036208015 0.105166204 0.051030733
000020 86 d7 13 bd 21 5d 59 3d a2 eb 01 bd 6c 7b 3d bd
       -0.03609421 0.05306733 -0.031718858 -0.046260282
000030 f7 fd 68 3c 6f b6 51 3d ca 6b f7 bc 70 ad 83 3c
       0.014220706 0.051199373 -0.030202765 0.016073912
000040 b5 c0 02 3d 2c 85 74 bd cb 3f 10 3d 7f 15 45 3d
       0.03192206 -0.059697315 0.035217088 0.048116203
000050 4b 7e 6c bb 47 de 23 3d 1f 0c 5f 3d d1 20 1c 3d
       -0.0036086019 0.040006902 0.05445492 0.038117234
000060 87 e1 89 bd 71 59 90 bb 7e b3 01 bd 23 d8 00 3c
       -0.06732469 -0.0044051935 -0.031665318 0.007864031
000070 94 5e f9 3a 2f 12 43 3c 8d 18 1c 3d 96 03 ae 3d
       0.0019025379 0.011906191 0.03810935 0.08496778
000080 3f 15 59 3d 3b f7 e5 bc 68 a6 a8 3d 8e e0 4c 3d
       0.052998777 -0.02807199 0.082348645 0.05001884
000090 7d a5 7d bc e7 62 aa bd 6e e0 ec 3c bd 9b 95 bb
       -0.01548135 -0.083196454 0.02891561 -0.0045656846
0000a0 3e 4a 7e bd 7d 11 20 3d f5 79 ae 3c 9d 3a a4 3c
       -0.06208252 0.039079178 0.021298388 0.02004748
0000b0 fd 78 20 bd 0b 08 68 bd 3e 7a a6 bc 39 79 88 bd
       -0.039177883 -0.056648295 -0.020321961 -0.066637464
0000c0 ce bd 91 3d 44 63 47 3c 8b 5b 44 3d 04 15 7f bd
       0.071162805 0.012169663 0.047938865 -0.0622759
0000d0 c3 a6 05 bd 5f c6 c5 bd 3b a1 28 bc 2d 56 44 bc
       -0.03262974 -0.09656977 -0.010292347 -0.0119834365
0000e0 fd a9 2b bc 7d 1a f1 bc 8a eb ee bb 13 55 86 bc
       -0.01047754 -0.029431576 -0.007291262 -0.016397988
0000f0 ba bb 95 bc 23 9f b4 3c c0 4d 8a bc 3b 05 07 3d
       -0.018277992 0.022048539 -0.016882777 0.032963973
000100 5c 53 a1 3b cf 54 24 bc bc 2c 30 bd b0 21 38 bc
       0.0049232673 -0.010029986 -0.043011412 -0.0112385005
000110 d2 73 40 3d 6c de 32 bc de 82 1b bb d2 ba 3c bd
       0.046985455 -0.010917287 -0.0023729126 -0.046076603
000120 6f 40 99 bb 53 a0 9b bc 32 52 20 3d c5 19 c0 bc
       -0.0046768705 -0.018997347 0.039140888 -0.023449788
000130 7c ec 16 bb f5 a4 91 bd d5 73 87 3c 62 57 7c bc
       -0.002302914 -0.07111541 0.016534725 -0.015401693
000140 bc 2c f2 3c 67 47 3f bd 94 8e b1 3c d6 df 20 3c
       0.029562347 -0.046698954 0.021674432 0.009818992
000150 88 7d 35 bd e5 c1 44 bd a4 ba bd 3b 5c 5b 3a bc
       -0.04430917 -0.048036475 0.0057900716 -0.011374321
000160 7f b5 ab 3d a7 09 9b bc 8f 6b b2 bd 6e d9 1a bd
       0.08384227 -0.018925501 -0.087119214 -0.037805013
000170 f5 d9 8a 3c bb aa 28 3d 07 48 67 bd 14 cb 57 3d
       0.016949633 0.041178446 -0.056465175 0.052683905
000180 8d 40 6a bd ec e0 f9 bc a7 3e f7 bd 10 02 90 3d
       -0.057190467 -0.030502759 -0.12072497 0.070316434
000190 d0 41 c0 3c d0 b3 20 3d ca 16 2d 3d bf 4a 38 3d
       0.023468882 0.039233983 0.04225806 0.04499316
0001a0 22 93 d6 bc 3a dc 9b 3c 13 5d c7 bc cb 0c d0 3b
       -0.026193205 0.01902591 -0.024336373 0.0063491813
0001b0 42 23 10 3c d9 42 41 3d 5f d0 65 bd d4 51 86 bd
       0.008797469 0.04718289 -0.05610692 -0.06558576
0001c0 9e 74 ad 3d fd 51 88 bd 14 64 a8 bc 80 39 83 3d
       0.084695086 -0.06656263 -0.020555533 0.06407452
0001d0 4c 1b 78 bd 29 68 48 3d 28 42 8e 3d ae 19 d1 3d
       -0.060572907 0.04892746 0.06946212 0.10209976
0001e0 86 f8 87 3d 1c b2 83 bc 88 f3 3f 3d 5f cc 0a 3b
       0.06639199 -0.01607614 0.04686311 0.0021178944
0001f0 26 e6 aa bc b0 ee 45 bd cc 8c 0f 3d 83 07 27 89
       -0.020861696 -0.048323333 0.035046384 -2.0105426e-33
000200 64 b8 67 3d aa 7e ee bc d5 53 14 3c cf b9 d2 3d
       0.056572333 -0.029113133 0.00905319 0.102893464
000210 04 05 12 3d cb a4 98 bb 0b 6c 42 bc a6 04 27 bd
       0.035649315 -0.0046583167 -0.01186658 -0.040775917
000220 d0 0d a2 bd f8 f0 0e 3d 32 cc 00 3c 6c 3c 9e 3d
       -0.07912791 0.034897774 0.007861184 0.07726368
000230 b7 e3 a2 bc d8 64 42 bb 9f be 7e 3d e6 4a a6 bd
       -0.019883974 -0.0029662158 0.06219351 -0.081197545
000240 35 60 71 bd 29 bd 32 bd e3 fe da 3c 42 59 59 bd
       -0.05892964 -0.04363743 0.026732868 -0.05306364
000250 e6 41 f2 bc 76 2a 4b bd 1a 86 87 3c ba 00 55 3d
       -0.029572438 -0.04960104 0.016543437 0.052002646
000260 a9 d7 b5 bc c1 1e a3 3c b5 fc 84 bc d5 bc 55 bd
       -0.022197561 0.019912126 -0.016233781 -0.052182037
000270 78 09 01 3d ac 45 2f 3d e5 48 9d bd e6 d3 ab 3d
       0.03150317 0.042791054 -0.07679919 0.08390026
000280 43 f2 66 bd 9e 69 f0 bd 25 ae df 3c ec f5 8a 3d
       -0.056383383 -0.11738895 0.027304718 0.06785187
000290 66 fd 22 bd 50 ab 59 bc ec 70 02 3b 4c a7 b4 3b
       -0.03979244 -0.013285473 0.0019903732 0.0055131074
0002a0 13 44 cb bd a3 6d 8a bb 98 a5 f2 bc db 9c 35 3c
       -0.099250935 -0.0042244955 -0.029619977 0.011084761
0002b0 3a 73 a6 3b 27 6d 32 3d c3 32 f2 3d cf 09 34 bd
       0.005079654 0.043561127 0.11826088 -0.043954667
0002c0 d6 b3 00 be 9a 19 45 3d d7 4c db bd 28 85 9f bc
       -0.12568602 0.04812012 -0.107080154 -0.019472674
0002d0 40 2d 43 3d 42 5c 09 3d e1 96 80 bd 46 01 a5 bc
       0.047650576 0.03353525 -0.06278778 -0.020142209
0002e0 df 07 05 3d 77 19 16 bc 0f 23 25 3d 7b 88 60 bd
       0.03247821 -0.009161345 0.040316638 -0.054817658
0002f0 51 02 67 3d 3d 7b 50 3c da 3d 2c 3d 4b ac 2d bd
       0.056398693 0.012724695 0.042051174 -0.04240064
000300 29 51 54 3d 7b 4f d5 bc 75 ed a1 3d 50 4a e5 bc
       0.051835213 -0.026038876 0.079066195 -0.027989537
000310 ff 3c 48 3d bc 8f cc 3c ed db 7b bd e3 a3 18 3c
       0.048886295 0.024970882 -0.061489034 0.009316417
000320 8c 89 e9 3c 28 79 e3 bd 88 d6 f9 3a 9e 9c 27 bc
       0.02850797 -0.11107093 0.0019061128 -0.010230212
000330 65 08 89 39 21 8a 9f bd 5d 9b a2 bb ff 04 91 bd
       0.0002613693 -0.07790018 -0.0049623684 -0.07081031
000340 94 5d 11 3d 4a 5b dd bc 0b a3 18 bd 9f d1 8e 3d
       0.035489634 -0.02702107 -0.037264865 0.06973576
000350 ce 23 8b 3d 90 04 bc bd 77 93 8a 3c 18 03 2b be
       0.067939386 -0.09180558 0.01691602 -0.16700399
000360 12 23 64 bb bf 6d 85 3d 59 ec e7 bc 0c be b8 bb
       -0.0034810943 0.06515073 -0.028310942 -0.0056378897
000370 ae 8d e1 3c 64 ce 68 3d 24 e7 2a 3b 23 2a 04 09
       0.027533378 0.056837454 0.0026077712 1.5908735e-33
000380 8c ba 71 3d a3 64 e1 bd 05 a7 25 bd 45 53 90 bd
       0.059015796 -0.11005523 -0.040442485 -0.070471324
000390 af 86 92 3c f6 d1 42 bd 27 3b b6 bb 5b 18 77 bd
       0.017886488 -0.047563516 -0.0055612507 -0.06032596
0003a0 1b 74 a6 3c 6d 02 ab 3c 80 14 c8 bd 4f fa 02 3d
       0.020319035 0.02087518 -0.09769535 0.031976994
0003b0 61 c9 75 3d f3 97 92 3d 9e 9a a7 3c 50 26 2a bd
       0.060006503 0.07157888 0.02045947 -0.041540444
0003c0 64 98 59 3d 29 78 43 3d 9a d3 f0 bb 9e ee 61 3d
       0.053123847 0.047722016 -0.0073494436 0.055159204
0003d0 eb 75 b9 bc 96 10 86 3d 60 d2 40 be 54 45 75 bd
       -0.022639235 0.06546132 -0.18830252 -0.05988057
0003e0 52 2a 9b 3d ee 85 a9 3d f6 03 81 3d 4d b7 69 3c
       0.07576431 0.08277498 0.062995836 0.014264894
0003f0 a7 0e 3e bd f3 c8 a7 3c e3 4c ff bc 00 de 42 3d
       -0.046400692 0.020481562 -0.031164592 0.047574997

aggressive f4 [384]
000000 e1 61 83 3d ee 6b a3 3c 31 d0 da bc 57 ee 55 3d
       0.06415153 0.019948926 -0.026710602 0.05222925
000010 a1 d8 f5 3c 8a 3f 5e 3d 7a 9f 49 3d 62 b1 02 bc
       0.030010523 0.054259814 0.049224354 -0.007976862
000020 d7 00 76 bc 87 28 de 3c 1b 87 65 3d 4e a5 35 bd
       -0.015014849 0.027118934 0.05603705 -0.0443471
000030 01 05 05 3c a7 2c 14 3d a1 ce bb 3c e8 5e 0f 3b
       0.008118869 0.036175396 0.022925677 0.0021876637
000040 3f 55 70 3d bd ff 8a bc 7d b7 2b 3d 68 c4 27 3d
       0.058675047 -0.016967649 0.041923035 0.040958792
000050 70 51 ac bd 22 ed 53 3d 6d 84 34 3c 04 f7 0e 3b
       -0.084139705 0.05173982 0.011017901 0.0021814713
000060 ff f8 8d bd 43 ce c6 ba 64 be 6a 3a 75 ab 44 3d
       -0.06932258 -0.0015167672 0.0008954762 0.048015077
000070 27 56 c6 3b e1 e6 62 bd 0e fa a1 bc 62 05 f4 bc
       0.0060527506 -0.055395965 -0.019772556 -0.029787723
000080 8f 66 b3 3d 20 5d 15 3d 2d 22 f9 bd 8e 95 ac 3c
       0.08759796 0.036465764 -0.12164722 0.021067407
000090 9a 59 10 3d 85 51 87 3d af ed 2f 3d fc b4 2a bb
       0.0352417 0.066073455 0.042951282 -0.0026047817
0000a0 d8 d4 a0 bc 92 b1 be bc 50 1a cf 3c 06 23 4c bd
       -0.019632742 -0.023278031 0.025281101 -0.04983809
0000b0 dd 5d 8e bb 66 3f cf bb b1 37 a4 3c ad ae 2e 3d
       -0.0043446855 -0.0063246964 0.020046087 0.042647053
0000c0 c5 50 58 bd 9f d4 ea bd b7 27 ca bd 51 88 5d bd
       -0.052811403 -0.114663355 -0.09870856 -0.05408508
0000d0 55 37 74 bd df ad 45 3d b9 27 e0 3b 9c 1e 19 bd
       -0.05962308 0.04826152 0.006840673 -0.037382707
0000e0 b1 d9 44 3d bf 0e c3 3d 12 ea c1 3d 21 c7 65 3d
       0.04805917 0.09524297 0.094684735 0.056098107
0000f0 cc 04 8a bd ce c0 64 bb 7b 34 b5 bc 1f 05 37 3d
       -0.06739196 -0.003490496 -0.022119751 0.04468262
000100 14 dd f7 3c 33 95 42 3d 99 67 bf 3c 92 21 6c 3c
       0.030256785 0.04750557 0.023364829 0.014412301
000110 f6 7c ab bb c2 32 d6 3d 9e cc 88 3c b2 b6 55 bd
       -0.0052334024 0.104589 0.016699132 -0.052176185
000120 81 11 2b 3d 54 ae b6 bc 6b 5a 5a bd 19 c5 42 bd
       0.04176474 -0.022299923 -0.053308886 -0.04755125
000130 fa fd 1a 3c 8b 93 17 3c 59 08 8a 3d 1b 2c 62 bd
       0.009459967 0.009251486 0.067398734 -0.055217844
000140 77 30 3f 3b f7 22 58 bd 65 13 9d bd 67 23 da 3b
       0.0029173174 -0.05276772 -0.07669715 0.0066570523
000150 3f db 31 bd 1f f7 b8 bd ec be 30 bb 90 5a 36 3c
       -0.04342198 -0.090315096 -0.0026969267 0.01112999
000160 f1 e2 2d 3d e5 9a 0a 3d b5 b2 ae 39 77 44 76 3d
       0.042452756 0.033839125 0.00033321013 0.060123887
000170 99 c3 d3 3d c4 f4 81 bc 2f c5 38 bd 83 85 09 bd
       0.10340042 -0.015863784 -0.045109924 -0.033574592
000180 c4 07 3a bd e2 94 b2 bd 25 73 ce bd 0c c6 a2 3d
       -0.045417562 -0.087198034 -0.10080556 0.07947931
000190 da 8b 56 3d 2f 4c f7 3c b7 ed 84 bd d5 2d e7 ba
       0.052379467 0.030187694 -0.06490653 -0.001763756
0001a0 13 58 7a 3c 3c 53 83 bd af 18 aa ba a9 4e a4 bd
       0.015279788 -0.0641236 -0.0012977327 -0.08022816
0001b0 27 04 0f be d4 1c c4 3c 9d ca c9 bd 8f 1f 8f bd
       -0.13966428 0.023939528 -0.098530985 -0.06988441
0001c0 18 2f a8 bd 9c b7 7d bd 8e 4f 8a 3d c9 e5 d0 3c
       -0.082121074 -0.06194268 0.06753455 0.025500195
0001d0 6b 2d f7 bc f5 1d 58 bc 6b 24 72 3d 28 af 28 bd
       -0.030173024 -0.013190736 0.059116762 -0.041182667
0001e0 f5 2f 97 3d b9 0b 4e bd d1 d2 13 bd ca bd 5d 3d
       0.07382194 -0.05030415 -0.036089722 0.054136075
0001f0 e4 a7 04 3d d2 66 ba 3c 3c e5 ad bd 6c 53 44 89
       0.032386675 0.022754107 -0.084909886 -2.3631867e-33
000200 b9 50 64 3d 31 2e 8f bb 31 97 cc bc ae 61 e3 3d
       0.055741046 -0.00436952 -0.024974437 0.11102615
000210 f8 e9 bf bc 69 4d 89 bc 56 cf de ba 97 ee 63 bd
       -0.023426995 -0.016760545 -0.0016999047 -0.05564746
000220 fe 2d 2c 3c e5 6d 4e 3c 19 36 8b bc 22 ae 43 3d
       0.010509012 0.012599443 -0.01699357 0.047773488
000230 7b ed 1a 3d bc dd a7 3d c8 ac 8e bc 74 e1 e1 3c
       0.037824135 0.08196589 -0.017416373 0.027573325
000240 fd dc cc bd 81 10 90 3d 84 1c 8a bd 94 39 71 3c
       -0.10003088 0.07034398 -0.0674372 0.0147232
000250 d2 e8 cc bc 59 ff 13 3d 05 06 a6 bd 31 82 f2 3b
       -0.025013361 0.03613219 -0.08106617 0.007400774
000260 c0 df 5c 3c 26 56 b0 bb 8f f6 98 3c 0b 85 0d 3d
       0.0134810805 -0.0053813634 0.018672256 0.034550708
000270 69 b5 ba bc b6 1b ec 3b c0 1a bc bc a4 9c 9b bc
       -0.022791581 0.007205452 -0.022961974 -0.01899559
000280 43 7b 5a bc 18 c6 a7 3d 71 31 0a 3d 10 4f 0b bd
       -0.013335052 0.0819208 0.033738557 -0.034010947
000290 65 de 42 bd d1 dd 5b bd 81 f5 fe bc 6d cb 49 3c
       -0.047575373 -0.053678337 -0.031122925 0.012316567
0002a0 c8 30 20 bd 8c 87 99 3c aa d7 20 bd f8 9b 70 3d
       -0.03910902 0.018741392 -0.039268173 0.058742493
0002b0 8e 71 56 3d 9e b4 64 3d c8 4b a5 bd 2a 91 65 bc
       0.052354388 0.055836312 -0.08071095 -0.014011661
0002c0 ed 0a 41 bd fc 68 24 3d fb b7 6f 3c 67 0d 9e 3d
       -0.04712956 0.040139183 0.014631267 0.077174
0002d0 84 a1 ca 3d 7c b5 a5 3d 1b 7f 80 bd 15 5f 22 3d
       0.09894088 0.08091256 -0.062742434 0.03964146
0002e0 68 37 8d 3c 10 d1 52 3d 97 f8 c5 3a e4 99 46 3c
       0.017238334 0.05146891 0.0015103993 0.012121651
0002f0 1a fd f3 3c 63 4d fd 3b e3 69 60 b9 9a 21 3b bd
       0.029783774 0.0077301725 -0.0002140175 -0.04568634
000300 6b 52 f6 3c c7 b6 c6 bc 0f ee d4 bd 0c cd 9c 3d
       0.030068597 -0.024257077 -0.103969686 0.07656297
000310 21 51 09 3d 9f 00 09 bd 02 ef 08 3d ca c7 fc 3c
       0.033524636 -0.033447858 0.03343106 0.030856986
000320 10 12 4a 3d 62 3f 5f bd 4a a1 f4 bc 59 42 19 bd
       0.049333632 -0.054503806 -0.029862065 -0.03741679
000330 1b f4 82 3c 9f e6 82 bd 02 72 8e 3a ae 6d 30 bd
       0.01598554 -0.06391644 0.0010867717 -0.04307335
000340 6a cf 3d 3c 3d ce 23 bc 75 86 bf bc 4f bb a4 3d
       0.011585096 -0.0099979015 -0.023379544 0.08043539
000350 3b 6c 35 bd e8 e5 9f bd d4 cb 8f 3c eb b1 d3 bd
       -0.04429267 -0.07807523 0.017553248 -0.103366695
000360 d1 58 c0 3c b8 a9 15 3e d6 3c ae bd 40 3f 97 bc
       0.023479851 0.14615524 -0.08507697 -0.018462777
000370 b2 83 13 3d 8c 87 d1 3d 7b 26 ba bd 14 cf 59 08
       0.036014266 0.10230932 -0.09089371 6.554448e-34
000380 4c 31 f0 3d 58 37 0a bd a0 81 65 bd 49 e0 fb 3d
       0.11728153 -0.033744186 -0.056031823 0.122986384
000390 f6 84 50 3b 12 5d 70 3d e6 72 15 bd d5 39 b3 3d
       0.0031817532 0.05868251 -0.03648653 0.08751265
0003a0 d1 a7 0e 3d 62 d6 ae 3c 80 30 19 bc 64 1e 1a bd
       0.03482801 0.02134246 -0.009349942 -0.03762664
0003b0 77 0f 52 3d f5 65 7e bc 64 40 da 3d c7 0d ce bd
       0.05128428 -0.015527238 0.10656813 -0.100612216
0003c0 6e 94 ad 3d 1f 25 ee bb 33 18 6e 3c 20 51 2a 3d
       0.08475576 -0.007267609 0.014532137 0.041581273
0003d0 64 9f 44 3d d0 6c c5 bc a4 b0 34 bd e0 97 2d bd
       0.04800357 -0.024099737 -0.04411377 -0.042381167
0003e0 59 fa d2 bc 25 0c a1 bc 6e 27 7d 3d c9 2c 00 bd
       -0.02575414 -0.019659111 0.06180518 -0.03129271
0003f0 d6 1a d4 bd a3 13 3f 3d a9 fd 5c 3c 38 3a 95 bc
       -0.10356681 0.046649586 0.013488212 -0.018216237

armed f4 [384]
000000 8a 1f e2 3c b6 be 8d 3d 84 e5 f4 bb 8c bc 33 3d
       0.02760293 0.06921141 -0.0074736495 0.043880984
000010 7e 1e b7 3d b9 22 d7 3c dd 23 13 3e 64 8e d6 3b
       0.08941363 0.026261674 0.1436915 0.006547736
000020 09 1f 75 bd a7 c7 64 3d 09 ed ef 3d b8 1d 6d bc
       -0.05984405 0.055854466 0.11715133 -0.0144724175
000030 c4 a5 8c 3d 5b ef af 3c b5 1c 7c 3d ce a3 3a bd
       0.06867555 0.021476438 0.061550815 -0.045566373
000040 03 08 59 3d d7 b2 b5 3b 1d c6 81 bd d3 0a 89 3d
       0.052986156 0.005545001 -0.06336615 0.06691518
000050 ef 7f e9 bc a1 dc 59 3c b4 1b 5c 3d 58 da 59 bb
       -0.028503386 0.013297231 0.053737357 -0.0033241715
000060 9d 6b 78 b9 6f 11 07 3d d4 0a 0b 3d d5 d1 cf bc
       -0.00023691212 0.03297561 0.033945873 -0.02536861
000070 40 90 e1 39 dc 9c 87 bd ec 06 9d 3c 80 96 95 bd
       0.0004302282 -0.066217154 0.01916834 -0.07304096
000080 63 67 b2 bd 41 72 96 3d c0 0d 60 bd 3d 9f c2 3c
       -0.08711126 0.07346011 -0.054700613 0.023757571
000090 7b 9a ee 3d bc 93 0f bc d8 ef 0c bd bc c1 1a 3b
       0.116505586 -0.00876325 -0.03440842 0.002361401
0000a0 e4 ea f6 bb 53 6b 04 3c 80 db 1b 3d 6e b0 10 3d
       -0.0075353254 0.008082229 0.03805113 0.035324506
0000b0 f9 6c 09 3d 8b af aa bc 1e 6a 14 3d dd ff 57 3d
       0.03355119 -0.020835659 0.036234014 0.052734245
0000c0 7f 39 d8 bc bb a7 05 bd 9d 48 4f bc 9b df 82 bd
       -0.026394604 -0.032630663 -0.01265159 -0.063903056
0000d0 5b 8e a7 bd d6 d9 07 3d 9a e5 95 bc 5c 44 89 bd
       -0.08181449 0.03316673 -0.01829796 -0.06702492
0000e0 da f9 1d bc 74 47 b5 bc 95 74 3a 3b 4c 81 02 3c
       -0.009642089 -0.022128798 0.0028450836 0.007965397
0000f0 79 c4 4f 3d 68 3d 8d 3d 9f 75 30 bd 51 0c 5d 3c
       0.05072448 0.06896478 -0.043080922 0.013491706
000100 0c 33 f3 bb 9e 0b 82 bc 80 62 b0 3d 77 69 23 bd
       -0.0074218567 -0.01587468 0.086125374 -0.0398955
000110 72 3a 07 bd 01 91 57 3d 41 58 0c 3d c7 68 9c 3d
       -0.033014722 0.05262852 0.034263853 0.07637172
000120 c9 63 9c bc cc cc fb bc aa fe eb bb 73 24 05 bd
       -0.01909055 -0.030737303 -0.007201989 -0.032505464
000130 11 b3 bb 3c 98 cd 96 ba e6 73 2d 3c f9 33 97 bd
       0.022912534 -0.0011505364 0.010586714 -0.0738296
000140 d7 ac 2d 3a 56 ac ee bc 78 d6 c0 bc 88 c9 44 3d
       0.00066251814 -0.02913491 -0.023539767 0.048043758
000150 c2 1f 62 3b c1 10 d6 3c 13 a1 d0 bd fe 96 8b 3a
       0.0034503792 0.026131036 -0.101869725 0.0010649858
000160 0a 31 9f bd 52 1d 5d bd e4 1a eb bc b6 23 ab bc
       -0.07773025 -0.05398304 -0.028699346 -0.020891052
000170 0a 48 49 3c 8b 52 67 bc fd 9b fd bb 74 87 83 bd
       0.012285242 -0.014118801 -0.0077395425 -0.0642232
000180 10 e9 4f 3d 46 e5 19 3d c5 63 9d bd 67 3c 92 3d
       0.050759375 0.037572168 -0.07685045 0.07140427
000190 76 b8 09 3d 86 73 50 bc aa 8a ca 3b 7b e2 21 3c
       0.03362318 -0.012722855 0.006181081 0.009880657
0001a0 81 8c 48 bd 69 d1 2b 3d 3f a8 45 bd 4c 4a 88 bd
       -0.04896212 0.041947756 -0.048256155 -0.06654796
0001b0 7f d1 da bd 5b 6a bf bc 69 b2 3f 3d 42 5f 52 bb
       -0.106844895 -0.023366144 0.046801005 -0.0032100235
0001c0 3f c9 98 bd 8e 2c 8d ba 32 74 00 bc b4 b0 13 3d
       -0.0746026 -0.0010770725 -0.007840203 0.03605719
0001d0 bc 15 bb bd 9a a7 c0 3c 34 f8 4e 3c d9 db ee bc
       -0.09135005 0.023517419 0.012632418 -0.029157566
0001e0 c7 a8 49 3d 82 49 59 bd 85 d8 95 3d be 81 30 3c
       0.049233224 -0.05304862 0.073166884 0.01077312
0001f0 2a ed 93 3d 91 1e 93 bc f5 a6 4e bd 00 e9 6a 89
       0.0722297 -0.017958911 -0.05045219 -2.8276282e-33
000200 69 47 4b bd ca 4c a1 bb 1d 03 d1 3c 06 49 90 3d
       -0.04962865 -0.004922484 0.02551418 0.07045178
000210 cd e2 c5 3c 45 bc 4b bd 9b 4b 12 3d 6b 31 d1 bc
       0.024155999 -0.049740095 0.035716634 -0.02553626
000220 78 c9 40 bc a1 72 f9 3d 8e d0 25 3c 17 32 a6 3d
       -0.011766784 0.12180067 0.010120524 0.08115023
000230 2e 11 21 bd 0e 82 86 3d c3 15 04 3e ef b4 7c bd
       -0.039323024 0.06567775 0.12898926 -0.06169599
000240 49 0b b9 3c 00 6e 97 3d f4 24 07 3d 6d ad d6 3c
       0.022588389 0.07394028 0.032994226 0.026205743
000250 79 ef 93 bd 7e f0 87 bd 1b 0b 83 bd 94 72 83 bc
       -0.0722341 -0.06637667 -0.063986026 -0.016045846
000260 94 84 fb 3c 65 06 d7 3d bf e0 2a 3c 98 9e 43 3d
       0.030702867 0.104992665 0.01042956 0.04775867
000270 fe 06 88 3d df b8 e9 3c 07 45 82 3c 4c 03 a3 3d
       0.06641959 0.028530536 0.015902055 0.07959613
000280 ae 32 a3 3c 0a c8 2f 3c 86 87 28 3c c7 6d b6 bd
       0.019921627 0.010728845 0.010286218 -0.08907657
000290 47 5d 6a bd 07 8d ac bd 06 b7 69 bc 8a 66 00 bd
       -0.057217862 -0.08425336 -0.014264828 -0.03134779
0002a0 6d df c1 3b 40 54 d1 3b a1 7f 93 bd 62 6f 2d bd
       0.005916527 0.006388217 -0.07202078 -0.04234255
0002b0 19 0f 71 3c c6 c1 79 3d ea 10 71 3c 7a d7 c6 3c
       0.014713072 0.060975812 0.014713505 0.02427267
0002c0 8c a0 3a be 73 b6 ad 3c e4 de 64 bc bc 01 4f 3d
       -0.18225306 0.021205163 -0.013969157 0.050538763
0002d0 f2 72 63 ba 22 a5 28 bd 06 e9 bc bb ca e3 f0 3c
       -0.0008676491 -0.041173108 -0.0057650832 0.029405493
0002e0 9c 64 52 bd dd a9 ba 3c 9d 96 fc 3b aa b8 af 3b
       -0.05136548 0.022786075 0.007708384 0.00536259
0002f0 23 5c 03 bc f7 0e e8 3d 76 86 52 3d bc 4e d6 3d
       -0.008017573 0.11330979 0.051397763 0.10464236
000300 65 ce 3a bc cc d9 1c bd 83 ad 94 bb d4 71 a9 bc
       -0.011401747 -0.038293645 -0.004537286 -0.02068416
000310 d4 3e fd 3c c0 d3 b2 bb de c2 48 bd b3 bb 1f 3d
       0.030913748 -0.0054573715 -0.049013965 0.038997363
000320 58 89 dc 3c 0e 62 06 bd 6a b3 14 3d ea 1c ee bc
       0.02692096 -0.032808356 0.036303915 -0.029066522
000330 63 68 3c bb 1e c1 29 3b c9 3f 64 3d 36 03 5f bd
       -0.0028748743 0.002590246 0.055724893 -0.05444642
000340 01 ff d1 bd 0c 2f 3c 3c e5 bf ce 3c 93 9c ab 3d
       -0.10253716 0.011485826 0.025237987 0.083794735
000350 ae 30 2b bd 0c 5b a8 3b 46 36 75 3c d9 fd ef bd
       -0.04179447 0.0051378068 0.014966553 -0.117183395
000360 d9 c2 e9 bd 9b 17 c3 bc 93 53 9a bc cf 7f 14 3b
       -0.11414117 -0.023814967 -0.01883868 0.0022659188
000370 ae 5e 24 bc b4 c4 a4 bd 5e d4 b1 bd e8 f3 2a 09
       -0.010032339 -0.08045331 -0.08683084 2.057769e-33
000380 14 36 c8 3d 6d 24 05 3d c0 a1 2f bd 55 99 a2 bc
       0.097759396 0.03250544 -0.042878866 -0.019848505
000390 ed 7c de bc e9 0a 37 bd 37 53 18 3b b9 88 48 bd
       -0.027159179 -0.04468814 0.002324296 -0.048958514
0003a0 cf c0 5a bd 27 ce 65 bc 20 b6 54 bd fa c9 47 bb
       -0.053406533 -0.014026201 -0.0519315 -0.0030485378
0003b0 2a c8 8a bc ea ba 6f 3d 96 13 49 3d 56 a5 16 bd
       -0.016941149 0.058527865 0.049090944 -0.03677877
0003c0 3b 37 b4 3d 46 79 43 3d c0 b1 88 bd 03 79 f7 bc
       0.08799597 0.047723077 -0.06674528 -0.03020907
0003d0 0d fe 2c 3b fa 8b 54 bd 0c 0d 8d 3d 5a b3 1e bc
       0.0026396543 -0.051891305 0.06887254 -0.009686315
0003e0 e8 15 bc bc 3f 16 08 3d e0 db a8 bc c6 ee 69 3c
       -0.022959664 0.03322434 -0.020612657 0.014278119
0003f0 47 69 f1 bd 45 18 14 bd 96 6f 71 3d 32 c3 1c bd
       -0.11787658 -0.036155958 0.058944307 -0.03827209

artisan f4 [384]
000000 ca b2 35 bc db bb 7a 3c d8 b9 52 3c 8b bd d0 3c
       -0.01108999 0.015303577 0.012861691 0.025481006
000010 60 dc 8c bd df 59 17 bd c9 1b 24 3d 28 86 93 bd
       -0.06877971 -0.036950942 0.04006556 -0.07203323
000020 92 22 16 be 20 8a 82 3c 3a fb b3 bc be 07 11 bd
       -0.14661625 0.015935004 -0.02197038 -0.035407774
000030 53 8f 06 bd 16 da 9b 3b b7 cb 2f bd eb 43 06 3d
       -0.03285153 0.0047562225 -0.042918887 0.032779615
000040 a7 77 57 3d e6 60 04 3d 37 27 ae 3b 20 a1 0b 3c
       0.052604344 0.032318972 0.0053147334 0.008522302
000050 bd 58 ad bc 5b b6 cc bb d3 ab a3 bb 59 4e bd bc
       -0.021160478 -0.0062473244 -0.0049948483 -0.023108648
000060 b2 b8 5c 3d 88 7b 13 3c 2c 64 e8 3a 6f 4e df bc
       0.053887077 0.00900162 0.0017730049 -0.02725908
000070 59 38 77 3d 54 0b 0d bd b5 ef 86 bd 7e e0 b7 3d
       0.06035647 -0.03443463 -0.06588689 0.08978365
000080 27 aa 69 bd 47 65 31 3d 7a af 05 3d f1 a9 c4 3d
       -0.057047036 0.043309476 0.03263805 0.09602726
000090 fc 42 01 3d bc 9a 8e 3d 8a 70 bb 3c d5 4f b1 bc
       0.031558022 0.06963107 0.022880811 -0.021644512
0000a0 97 44 a7 bc 4d 7d 65 bd 43 ad cd bd 0b 02 75 bd
       -0.020418448 -0.0560277 -0.10042813 -0.0598164
0000b0 29 05 40 3d 92 b5 89 bd ac 05 17 3c f7 8e 32 bd
       0.04687992 -0.06724085 0.009217661 -0.043593373
0000c0 7a b4 1f bd ab a9 59 3c 9c 65 15 bd da 57 8d bd
       -0.038990475 0.013285081 -0.036473855 -0.06901522
0000d0 d5 8a e8 3b 8d 3b cc bd 2c 9a 19 3d fd 52 81 bc
       0.007096628 -0.09972296 0.037500545 -0.015786642
0000e0 f8 99 01 bc 91 94 e5 bb 2d dd 4f 3d 65 05 ae 3c
       -0.007910244 -0.007006236 0.05074804 0.021242807
0000f0 95 47 e8 3c c3 42 64 3d 18 6d 65 bd 84 57 cb bb
       0.028354445 0.05572773 -0.056012243 -0.006205501
000100 8e e7 76 bb 48 b8 22 bd dd 9a 64 bc 4a 65 67 3d
       -0.0037674638 -0.039726526 -0.013952938 0.05649308
000110 6e 8e 0a be fc ae f5 bc f5 b3 ff 3b 4e a7 e0 bc
       -0.13530895 -0.029990666 0.007803435 -0.027423527
000120 03 54 91 bc 84 d3 24 3d 3b 31 17 3e bc 4b 88 bd
       -0.017740255 0.04024078 0.14764874 -0.0665507
000130 c0 4b ac 3c 2d e2 a2 bd 95 42 14 bd 7e d9 a8 3c
       0.021032214 -0.07953296 -0.03619631 0.02061152
000140 42 4e b5 bb d3 73 79 3d e5 17 2e bd 4c ac 16 3d
       -0.0055330107 0.060901474 -0.042503256 0.03678541
000150 b6 96 9b bd e2 76 99 3b e9 4d a4 bc 51 ac 8c 3d
       -0.07597105 0.0046833614 -0.020056682 0.06868804
000160 41 63 86 3d 5c f1 73 bd 57 fe 87 bc 13 a4 73 bc
       0.065619 -0.05955635 -0.01660077 -0.014870661
000170 c7 52 f7 bc de be fc 3c bd 7a f7 3c cf 85 36 bb
       -0.030190839 0.030852731 0.030209893 -0.0027850752
000180 04 6a 37 3c 71 42 1c 3d 15 bf 1b bd d6 e2 fe 3c
       0.01119471 0.0381493 -0.038024027 0.031114023
000190 e9 a4 ab bc ec 1d f3 bb cc ff 82 ba e0 00 9f bc
       -0.020952659 -0.0074193384 -0.0009994446 -0.019409597
0001a0 e6 5f db 3b 11 40 a8 3c c1 45 a8 bd 89 13 cc 3c
       0.0066947816 0.020538362 -0.082164295 0.024911659
0001b0 f5 3d a6 3c f3 b7 25 3c 0b 1b ba bc cb 64 5c bc
       0.020293215 0.010114658 -0.022717973 -0.013451765
0001c0 1d ee f6 bd 65 91 8f bc b8 38 43 b9 9c 72 27 3d
       -0.12057135 -0.017525384 -0.00018617779 0.040880784
0001d0 6e 74 ac bd 99 a0 62 bc 4a fe 89 39 bf c5 0b 3d
       -0.08420645 -0.013832235 0.00026320136 0.034124132
0001e0 31 e5 1f 3d bd c3 99 3d e6 89 36 bd 03 9c 12 3c
       0.039036933 0.07508037 -0.044565104 0.008948329
0001f0 eb c7 73 ba c8 3e 94 bd 27 a2 85 3d c2 7a 36 89
       -0.00092995045 -0.07238537 0.06525069 -2.1965174e-33
000200 ca de 12 3d 50 5e a5 3d a9 45 87 3d b6 43 f8 3d
       0.035857 0.08074629 0.066050835 0.1212229
000210 f7 ad b0 3d bd b9 a0 bc 16 16 89 3d 25 4a e3 3c
       0.08626931 -0.019619817 0.06693666 0.027745316
000220 28 69 d2 3c 06 bf ef bc 3b 03 b4 3c 88 cd 92 bc
       0.025684908 -0.029265892 0.021974197 -0.01792027
000230 91 07 e3 bd a8 68 10 3e 35 f2 56 3b 97 39 8c 3c
       -0.110854276 0.14102423 0.0032798175 0.017117305
000240 20 fb 95 bc 44 83 8d bd 5b ff a6 ba 06 3a ab 3c
       -0.018308222 -0.069098026 -0.0012740897 0.020901691
000250 b7 2c f9 bc 41 e3 5d bd 3a 1c 74 bd 33 5a 89 3d
       -0.03041683 -0.054171804 -0.05959723 0.06706657
000260 5e 54 4c 3c 42 cf f1 3c 73 27 9e 3d d8 a9 84 3b
       0.012471287 0.029517774 0.07722368 0.0040485673
000270 13 97 df 3d d1 f8 fa 3b 78 c5 04 bd e9 11 12 3c
       0.10917487 0.0076590558 -0.032414883 0.008915403
000280 f0 08 a6 3d 04 08 3b bc 29 38 a6 bd c1 2b 82 3d
       0.081071734 -0.011415485 -0.081161804 0.06356002
000290 7d 6f a2 bc 2b 72 81 bd 81 5b 2f 3d 39 b9 26 bc
       -0.019828552 -0.06320604 0.042811874 -0.010175996
0002a0 22 6f a3 bc 96 63 0b 3b d2 83 86 3d 04 ef cd 3c
       -0.019950453 0.0021269075 0.065681115 0.025138386
0002b0 3d ad 94 bd 68 c9 7d 3d 9d d5 a2 3d b9 dc 1c 3d
       -0.07259605 0.061959654 0.079509 0.038296435
0002c0 56 a9 2e bd 15 a2 ca 3d 05 d9 00 bd 7e b9 0e 3e
       -0.04264196 0.09894196 -0.031456966 0.13937947
0002d0 11 8b 85 3d 28 4c 29 3d ff 37 96 bc 48 e1 30 bd
       0.065206654 0.041332394 -0.018337248 -0.043183595
0002e0 62 14 40 bd 83 45 b1 bb f3 7a b7 bc 59 1f 6f bc
       -0.04689444 -0.005409898 -0.022397494 -0.014594876
0002f0 51 01 e7 3c ff ed 8f 3d 39 4f 4e bd ed a9 fc 3d
       0.02819887 0.07027816 -0.05036852 0.12337098
000300 54 ca 1a bd a1 d0 82 3c 3f a1 2e 3c 06 9f f2 3c
       -0.03779061 0.015968623 0.010658561 0.029616844
000310 40 f6 7d 3d 47 a8 3b bc 76 31 d6 bd d5 62 8f 3c
       0.06200242 -0.011453695 -0.10458653 0.017503181
000320 91 cb 36 3d f0 22 54 bd 56 7e 28 bd 13 fc 89 3d
       0.04462773 -0.05179113 -0.04113611 0.067375325
000330 ea 0d d8 bb 9f ae 9c bd 6b 4d f0 bc a6 3e 8e bb
       -0.0065934556 -0.07650494 -0.02933379 -0.0043409644
000340 ce 78 b0 bd 0a 59 98 3d d4 2d 84 bd 75 49 06 bc
       -0.08616792 0.07438858 -0.064540535 -0.008196224
000350 47 41 04 bc 18 ad 16 bd 06 ad 93 bc a8 7c a0 bb
       -0.008072204 -0.03678617 -0.01802684 -0.0048976727
000360 77 cb 14 3d 37 f1 c1 3d fd b0 93 bc b9 46 34 bd
       0.03632685 0.09469836 -0.01802873 -0.04401276
000370 e4 da 79 bc 96 00 82 3c 3d 4b f6 bd 78 eb 37 07
       -0.0152499415 0.01586942 -0.12026069 1.3836588e-34
000380 66 73 f7 bc 47 04 29 bd 96 96 49 3c ba 4f 02 3e
       -0.030206393 -0.041263845 0.012303969 0.12725726
000390 5a 25 c7 3d 2d 45 29 bd f9 26 96 bc 40 18 86 3c
       0.09723921 -0.041325737 -0.01832913 0.016368985
0003a0 24 48 db bc 51 01 5c bc 2d a6 1a 3c 48 6f 8e 3b
       -0.026767798 -0.013428048 0.009439033 0.004346762
0003b0 a5 55 82 3c fa b2 19 3c 82 2d 16 bc 87 b5 4c bc
       0.01590998 0.00938105 -0.009166123 -0.012494451
0003c0 5a 60 30 bd 63 5a d6 3d 18 d2 13 3d a8 f3 ac 3b
       -0.043060638 0.10466459 0.036089033 0.0052780695
0003d0 86 fd ff 3b 11 9a 9b 3d 47 fe b2 bb 33 ab 53 bd
       0.007812205 0.07597745 -0.005462441 -0.05167694
0003e0 25 f1 9d bd a6 6b 23 3d 88 cb 4a bd 9a 36 97 bc
       -0.0771201 0.039897583 -0.04951051 -0.018458653
0003f0 ad e1 30 bd 38 16 07 3d 0e d8 22 3d 01 74 e9 bd
       -0.04318397 0.032980174 0.039756827 -0.11399079

authoritative f4 [384]
000000 47 52 9d bd 91 c1 9b bc 7c 71 69 bc 90 c4 17 bd
       -0.07681709 -0.019013198 -0.014248248 -0.03705269
000010 41 6a 17 bd 82 9a 31 bd d7 ab 75 bc c2 14 03 3c
       -0.036966566 -0.04336024 -0.014994583 0.0080005545
000020 b8 ae fe b8 e5 0e 26 3d d8 15 68 bc 23 75 46 bb
       -0.00012144208 0.04054155 -0.014165364 -0.0030282221
000030 3e 66 17 3d b6 eb 47 3d f1 c0 c6 bc 91 17 92 3c
       0.03696274 0.048808776 -0.024261924 0.017833503
000040 fc 37 43 3d 54 09 52 bd 8d cb 93 bd ef 54 9a bd
       0.047660813 -0.051278427 -0.072165586 -0.07535731
000050 aa 23 aa bd f4 00 e1 3d 8d 8d ee bb a1 d3 56 bc
       -0.08307584 0.1098651 -0.0072800578 -0.01311198
000060 cd d4 de bd 9f 8a b1 bc 21 1e 4a bd 94 81 94 bd
       -0.10880432 -0.021672545 -0.04934514 -0.072512776
000070 12 31 a3 3c 1e 0d 82 bd 19 91 c6 bd b4 c5 bc 3c
       0.01992086 -0.06350158 -0.09695644 0.023043491
000080 f6 f8 d7 3d 59 02 cd 3c 70 c2 9a bc bc 34 0f 3e
       0.105455324 0.025025534 -0.018891543 0.1398496
000090 50 49 b8 3d 7b fa 98 3c 0f 0d 75 3a ce 1b a7 bb
       0.08998358 0.018674126 0.0009347954 -0.00509975
0000a0 7c 23 00 3c c4 d4 18 bc 00 49 0d bc 71 d5 3e bc
       0.00782096 -0.009328071 -0.008623362 -0.011647568
0000b0 96 9c 83 bc 74 ad 92 3c ed 83 3c bd 04 54 33 bd
       -0.016065877 0.017904975 -0.04602425 -0.043781295
0000c0 c5 5b d7 bd 0b 69 59 bb 58 2e 60 bd 85 dd 26 bd
       -0.105155505 -0.0033174183 -0.054731697 -0.0407386
0000d0 83 57 1c 3c 8d b7 f7 bb 05 28 0d 3d 37 9e 8f 3d
       0.009542349 -0.0075597228 0.034461994 0.07012599
0000e0 c5 e3 eb bb 4f 96 8b bd fc 37 c7 3d c1 9d 4d bd
       -0.007198783 -0.068157785 0.09727475 -0.050199274
0000f0 40 41 8c bd 92 ed 8f 3d ae 5e 13 be ad 3d 6a 3d
       -0.06848383 0.07027735 -0.14391586 0.057187725
000100 a2 d2 93 3d 3d 1d a0 bd 43 a4 6e 3d 34 29 0e 3b
       0.072179094 -0.07818077 0.05826212 0.002169204
000110 62 7d 32 bd 9a 76 98 3d 02 46 82 bd 9d e0 4d 3c
       -0.043576606 0.074444965 -0.06361009 0.012565759
000120 04 ec 1e 3d 60 69 a5 3d 89 47 81 bc 0b 4c 0a bb
       0.0387993 0.08076739 -0.015781181 -0.0021102454
000130 97 14 05 3c ec 43 7b 3c 94 68 71 38 b5 23 1a be
       0.008122585 0.015336018 5.7556274e-05 -0.15052684
000140 48 c5 21 3c 72 71 15 bd c1 fe a8 3c f7 43 79 3d
       0.009873696 -0.036485143 0.020629289 0.060855832
000150 96 55 68 bc 74 5f df 3c 55 94 d5 3b 07 63 43 bd
       -0.0141805615 0.027267195 0.0065179267 -0.04770186
000160 fe 1d 9c 3d 5f e5 93 3d 45 20 87 3d 56 63 c7 bd
       0.07622908 0.072214834 0.06597952 -0.09735744
000170 7d 4b 00 3e ec 3f d7 3c 19 62 d0 bb 10 73 07 3d
       0.12528796 0.026275598 -0.0063593504 0.033068717
000180 dc 87 07 3c d1 12 f7 bc 4a 3c a3 bc c3 90 a1 3d
       0.0082721375 -0.03016034 -0.019926209 0.07888939
000190 12 f1 3d 3b ac 75 2e 3c 65 a3 ac bd fe 0a 7b bd
       0.00289828 0.010648172 -0.084296025 -0.06128978
0001a0 33 0f 16 3d 23 b4 24 bc e0 fb 5e bd 54 f1 24 bd
       0.03663559 -0.010052714 -0.054439425 -0.04026921
0001b0 13 b0 43 3d ec 81 6f 3c 67 f3 b9 bc 6c 0f 56 bd
       0.04777534 0.014618378 -0.022699071 -0.0522608
0001c0 c3 b6 88 bd 03 5b 9a bd 75 f8 b8 3c 6f 1d 2c bc
       -0.06675484 -0.0753689 0.022579411 -0.010505064
0001d0 5d 5a ec 3c ad a6 11 3d ec e7 00 3d 50 0b b5 bd
       0.028851682 0.035559345 0.031471178 -0.08840048
0001e0 29 f9 f3 3b 16 92 be 39 2b c6 f1 3c 42 98 55 3d
       0.0074454737 0.00036348467 0.02951344 0.052147157
0001f0 d8 39 6a 3d ab d0 2e bc 2a 4c 92 3b bc d8 8d 89
       0.05718407 -0.0106698675 0.004464646 -3.414833e-33
000200 5a 83 4d 3d e5 94 c2 3a d8 84 9b bc 73 8e 13 3d
       0.050174095 0.00148454 -0.018984243 0.036024522
000210 a4 ba 31 bc cf 97 2e 3d f1 6d 99 3c 19 8e bb bc
       -0.010847721 0.042625245 0.018729182 -0.022894906
000220 d7 e3 a7 bd 13 2c 71 3c 84 b7 a3 3d 59 1a 0a 3e
       -0.08197754 0.014719981 0.07993987 0.13486613
000230 cc 3f 11 bd b3 82 9c bd f9 0f 80 bc 09 07 4a 3d
       -0.035461232 -0.076421164 -0.015632616 0.049323115
000240 af 57 a5 3d e4 8d b6 3d 51 ee 8a bc ae 2c c8 3b
       0.08073365 0.08913782 -0.016959341 0.006108842
000250 31 ff 49 3c 02 7f b4 3d d9 8f 86 bd 25 5e bd 3c
       0.012328909 0.08813287 -0.065704055 0.02311618
000260 43 3f 30 3d 42 75 00 bd 53 7e 06 3c 70 70 0b 3d
       0.04302908 -0.031361826 0.008208829 0.034042776
000270 9a 83 96 3d b9 0d 9d 3c e0 74 87 bb 6e 2f a9 bd
       0.0734932 0.019171583 -0.0041338056 -0.082609996
000280 af 67 84 bb 0d 22 39 3c 0f db 3c 3b 5a 9b 61 3d
       -0.0040406804 0.011299622 0.0028817093 0.055079795
000290 ff 14 59 bd 34 a0 5d bd b0 09 08 3d 89 d7 79 bd
       -0.05299854 -0.05410786 0.033212364 -0.060996566
0002a0 29 ab 27 3c b5 4d 6f 3c b3 28 df bd 74 28 d6 bc
       0.010233679 0.014605929 -0.10896435 -0.026142336
0002b0 25 bd 32 3d a5 38 e8 bc 06 07 83 bd 1c de 36 bd
       0.043637414 -0.028347323 -0.06397824 -0.044645414
0002c0 7e 08 20 3d c6 22 da bc 55 26 86 3d 4c 05 3b 3c
       0.0390706 -0.02662791 0.0655028 0.011414837
0002d0 0f 23 ea 3d f0 ce e5 bc ee fb 9c 3d 78 99 3f bd
       0.11432468 -0.028052777 0.07665239 -0.04677722
0002e0 2a 66 e0 39 9d 50 8c 3d 64 12 07 3d 84 b8 3e 3a
       0.00042800728 0.06851313 0.032976523 0.000727542
0002f0 c3 b8 18 bc 2a d4 80 3d e6 9d ce bc 1c 30 a1 3d
       -0.009321394 0.06290467 -0.025221776 0.07870504
000300 7e 14 1f 3d e6 c2 f8 bc d5 55 9f bd 2a 5d 88 3b
       0.038837902 -0.030366372 -0.07780043 0.0041614966
000310 43 28 82 3d 3f c4 1d bc 5b 3e bc bc bd 1a 28 3d
       0.063553356 -0.009629308 -0.022978952 0.041041125
000320 29 5f 38 bd 42 f7 28 3d ce 71 8d 3b dd a6 89 bd
       -0.045012627 0.04125143 0.004316545 -0.0672128
000330 cb bb ab bb d8 11 26 bd 55 ca a7 3d bc d0 49 bd
       -0.0052408925 -0.04054436 0.08192889 -0.04927133
000340 e5 17 90 bd 7d 58 46 3d 1d fc ac bc 5c a2 b2 3d
       -0.070358075 0.048424233 -0.02111631 0.08722374
000350 68 bf 15 3d a3 5d 89 bd eb 96 17 bb 9b 74 11 3d
       0.036559492 -0.06707313 -0.0023130726 0.035511594
000360 85 c8 e9 3c ee 6d de 3c 18 e3 60 bd 37 b0 31 bc
       0.028537998 0.027152028 -0.054904073 -0.010845236
000370 87 ef 7a bd a6 50 82 3d d4 29 a7 bc d8 93 cc 08
       -0.061263587 0.06363039 -0.020405687 1.2312561e-33
000380 23 61 78 3d af 58 bb 3c 0a 7f 5f bc ff d5 b3 3d
       0.06063951 0.022869436 -0.013641128 0.08781051
000390 f5 18 bc bd ee 02 93 bd 28 b3 c0 bd f9 cc be bd
       -0.09184448 -0.07178293 -0.09409171 -0.09316439
0003a0 69 b9 03 3d fa 2a fc bd 39 48 b3 3b 14 2b b9 3c
       0.032159243 -0.12312885 0.005471256 0.022603549
0003b0 20 e7 ef 3b 5e b4 95 bd dd 4d b9 3d 78 52 3d bc
       0.0073212534 -0.07309793 0.09048054 -0.011555307
0003c0 03 f0 13 bd 5a 1b 00 be b4 4b 92 bd b0 b1 60 3b
       -0.036117565 -0.12510434 -0.071433455 0.0034285598
0003d0 18 ac 47 bd 6b a7 91 bc 96 06 46 bd ea fd c8 3d
       -0.048748106 -0.017780026 -0.048346125 0.09814055
0003e0 54 e8 80 bb 4e 75 45 bc f8 50 0b 3d 51 29 8e 3d
       -0.0039339457 -0.012051893 0.034012765 0.06941474
0003f0 24 6e 30 bd d2 b1 09 bd db ca ac 3c ab 1d 2f bd
       -0.04307379 -0.03361685 0.021092823 -0.042752903

bard f4 [384]
000000 7d 3e e5 3c b1 84 a9 bc 46 24 b5 3c ef 79 e3 bc
       0.027983898 -0.020693155 0.022112023 -0.027768103
000010 50 11 a6 bd b2 94 c9 3d 03 bd f6 3d ea c3 34 bc
       -0.08108771 0.098428145 0.1204777 -0.011033038
000020 db 3c fb bc f4 3c 90 b8 8a cf db bc e1 88 5e bd
       -0.030668667 -6.8778085e-05 -0.02683236 -0.054329757
000030 e1 15 0a 3d 04 96 58 3a ef c6 93 3c cc 64 d6 3c
       0.03371227 0.00082621 0.018039195 0.02617111
000040 1b 91 89 3d c7 aa d4 3a c1 d6 53 3d 76 45 ae bc
       0.0671713 0.0016225212 0.051718477 -0.021273356
000050 11 04 3d bd 23 bd 98 ba c2 2b 3d bd 10 a1 28 3d
       -0.046146456 -0.0011653047 -0.04618431 0.041169226
000060 f4 45 5b bb 8f 6a ee bd 50 70 61 bd de 32 17 bc
       -0.0033458443 -0.11641418 -0.05503875 -0.009228436
000070 0c 03 cb bb bd f1 2f bc c4 9f 31 bc 80 f6 4d bc
       -0.0061954316 -0.010738787 -0.010841314 -0.012570977
000080 3a 81 b3 bc 75 d9 37 3b 7a 2c 85 bd 88 20 bc 3d
       -0.021912206 0.0028053198 -0.06502624 0.09185892
000090 70 27 48 3c 45 ab 71 3d 02 41 d1 3c fe 7a 33 3d
       0.012216434 0.059001226 0.025543693 0.043818466
0000a0 72 bf aa 3c 35 27 d4 bb d4 21 71 bd 47 ff 45 3b
       0.020843241 -0.0064744004 -0.05887015 0.0030211972
0000b0 f9 8d be 3d 0d 4c 50 bd 56 04 ad bc bf 0b 79 bc
       0.09304423 -0.050853778 -0.021120232 -0.015200554
0000c0 9f af 49 bd 7e ac ae 3d ee c3 cf bd fa 6e 8b 3b
       -0.04923975 0.08528994 -0.101447925 0.004255173
0000d0 7e 75 61 bc d4 41 63 bd f1 71 21 bc d7 f4 c3 bb
       -0.0137609225 -0.0554827 -0.009853826 -0.005980115
0000e0 b7 b4 4a 3b ec f8 01 3d b9 b7 da 3d c3 f7 99 bc
       0.0030930468 0.03173153 0.106795736 -0.0187949
0000f0 ee 02 87 bd af b9 17 bc b1 f7 5a 3d 9e c2 88 3d
       -0.06592356 -0.009260579 0.053458873 0.06677745
000100 c3 0b 0c 3c 5e 70 99 3c 1f 41 90 bc 93 ab c5 3d
       0.008547726 0.018730339 -0.017609177 0.09651866
000110 92 df c4 3b 93 cc 11 3d f5 8c d7 bc e3 3f 30 bd
       0.006008097 0.035595488 -0.02631233 -0.043029677
000120 bd 32 3e bc 51 73 a0 bd e7 f3 bd 3b d4 08 06 bd
       -0.011608777 -0.07834495 0.0057968977 -0.032723263
000130 fe 28 19 bd ef 2f f3 bd 38 4c 96 bc 3a 8d 2d bd
       -0.03739261 -0.11874377 -0.01834689 -0.042371012
000140 a6 e4 f5 3c c1 f6 87 bd a8 b4 05 bd e8 40 ea ba
       0.030016255 -0.066388614 -0.03264299 -0.0017872127
000150 5f 4e 5b bd ad 1c 89 bd 32 4a 1d bd 98 91 c4 bc
       -0.053541537 -0.066949226 -0.038400836 -0.023995206
000160 2f 4d ef bc 6b 07 ab bd 3b 5d 68 bd 89 a2 3c bd
       -0.029211609 -0.08351024 -0.056729537 -0.046053443
000170 94 1f 97 bb 38 be 25 3d ad ab e2 3c 1d 29 30 bb
       -0.0046119187 0.04046461 0.027669752 -0.0026879974
000180 82 80 48 3b 62 60 19 bd 32 f6 59 3c d6 58 ea 3d
       0.0030594175 -0.037445433 0.013303326 0.11442725
000190 20 5d 9c ba 9a c5 b0 3c 15 65 22 3d be 35 a5 bb
       -0.0011929609 0.021578599 0.03964718 -0.005041807
0001a0 16 3d 2c bc da 95 00 bd 44 52 48 bd 10 c0 b0 bb
       -0.010512611 -0.03139291 -0.04890658 -0.0053939894
0001b0 ab 4c 90 bd f7 ab bb bd 91 26 1b 3d bb 70 13 3c
       -0.07045873 -0.09163659 0.037878577 0.008999045
0001c0 16 77 dc bc 05 d0 05 3d 59 51 1b 3e 27 80 78 3d
       -0.026912253 0.032669086 0.1516775 0.06066909
0001d0 d6 aa bd bc 95 45 95 3c ea ac 22 b9 bd 89 6d bd
       -0.02315275 0.018221656 -0.0001551394 -0.057992686
0001e0 01 9c 2c 3d c1 0a db 3d b3 ae 49 3c 75 68 8d 3d
       0.042140964 0.106954105 0.012309718 0.06904689
0001f0 12 32 e9 bd 58 73 8c bc 53 92 97 3d c4 3d 3a 89
       -0.11386503 -0.017144844 0.07400956 -2.2417978e-33
000200 ae cb 45 bc e8 cc 39 bd 26 96 86 3d d3 f7 e4 3c
       -0.012072487 -0.04536143 0.06571607 0.027950203
000210 b4 86 d5 3d b7 a8 4b 3c d9 52 7d bd fd 34 3e 3c
       0.10426083 0.0124303615 -0.061846588 0.011609313
000220 4b 33 80 bb 5c fb 26 bd 06 33 a5 3d 6a 65 92 b9
       -0.0039123646 -0.04076706 0.080663726 -0.0002792285
000230 08 b8 ed bc 77 c4 96 3d f8 75 14 bd 54 23 64 3d
       -0.029018417 0.073616914 -0.036245316 0.055697754
000240 e7 6e cf ba fd 52 6e bc c7 e3 f5 3b 75 16 7c bd
       -0.0015825898 -0.014546153 0.00750396 -0.061544854
000250 17 d4 45 bd 4f 4a b2 3d b3 3a a4 3c e8 b2 07 bd
       -0.048297968 0.087055795 0.020047521 -0.033129603
000260 08 b2 a6 bc 14 c3 d1 3c a1 a8 8d 3d b6 ed 00 bc
       -0.020348564 0.025605716 0.06916929 -0.007869175
000270 e6 6a 8e 3d 61 1d d3 3c 64 5a ae 3b 4c ed 91 bc
       0.06953983 0.025770845 0.005320834 -0.017813347
000280 eb 67 49 3d 60 d4 35 bd 6d 22 77 3d 61 eb 56 3c
       0.04917137 -0.04439199 0.060335565 0.013117642
000290 c4 c1 0d be 49 b5 87 bd 99 52 99 3c 29 17 21 3d
       -0.13843447 -0.06626374 0.018716143 0.039328728
0002a0 0b 64 9a bc 03 35 47 bb 8a 02 8b bd 0f ec 38 bd
       -0.018846532 -0.0030396588 -0.06787594 -0.045146998
0002b0 a9 76 ec bd cc 6f ca 3d ff ca ae 3a bb 5e 22 3d
       -0.1154607 0.09884605 0.0013335644 0.039641123
0002c0 f3 4e 15 bc e2 33 07 3d e4 a0 43 bd fe da 7d 3d
       -0.009113061 0.033008464 -0.04776086 0.061976425
0002d0 9b b5 3d bd 54 a0 dd 3c c8 f4 e4 3d d9 ee 51 bd
       -0.04631577 0.02705399 0.11179501 -0.051253174
0002e0 01 68 f8 ba 2b 17 b9 3b 1f 9f 64 3d 6f a2 6c bd
       -0.0018951894 0.005648514 0.055815812 -0.057772096
0002f0 9a 71 50 3d 87 37 4d 3d 81 c1 66 3d f7 4a a7 39
       0.05088959 0.050101783 0.056336883 0.00031908575
000300 7c ea 49 3d 30 d1 29 3b 1a 21 d8 3c 71 81 1c bd
       0.049295887 0.002591204 0.026382972 -0.038209382
000310 7b 85 2a 3d 7f f8 a5 bd 85 18 06 bd a1 bb c7 3c
       0.041631203 -0.081040375 -0.032738227 0.02438146
000320 e4 0d e5 3c 00 f4 0d bd 9b dd 18 bd 82 3c 73 3c
       0.027960725 -0.034656525 -0.037320714 0.014845969
000330 9e af 67 bd bf b3 c6 bd 22 a0 d7 bd eb 58 35 3d
       -0.056563966 -0.097022526 -0.1052859 0.044274252
000340 e8 6e b6 bd 74 d2 f3 bb ef 0f 0d bd 36 0a e8 bb
       -0.089078724 -0.0074408595 -0.034439024 -0.0070812954
000350 37 6c 30 bd bf a7 91 bd 27 d0 92 3d d0 06 73 bd
       -0.04307195 -0.07112073 0.07168608 -0.05933267
000360 c7 42 2e 3a a6 00 ad 3d 5b c0 46 3b 8b 36 1b 3c
       0.0006647524 0.08447389 0.0030327055 0.009473453
000370 ad c9 af b7 b2 21 bb 3a bb a7 bb bc 24 9d 3f 08
       -2.0955538e-05 0.001427701 -0.022907129 5.766169e-34
000380 75 c1 0c 3d 18 01 69 3d 1d 8a 9b 3c b1 42 25 3d
       0.034364183 0.05688581 0.018986756 0.040346805
000390 ca be 88 3d 66 20 bb bd 7c e0 b8 3c 9c d0 af 3c
       0.06677015 -0.09137039 0.02256798 0.021461777
0003a0 a7 57 3f 3d 13 67 88 3d 9f f0 c4 bd e4 cf ed bc
       0.04671445 0.06660285 -0.09616207 -0.029029794
0003b0 9d e3 02 3b 2c a7 a7 bd b3 24 db 3c bf 87 01 bd
       0.0019972094 -0.081861824 0.026750898 -0.0316236
0003c0 22 e5 1c 3b e7 4c be 3d 78 d7 c6 bc 20 ef 93 3d
       0.0023940285 0.09292012 -0.024272665 0.07223344
0003d0 01 b8 22 bb 75 62 31 3d 2b a0 88 bd 5f 7e 01 bd
       -0.0024828913 0.043306787 -0.066711746 -0.031614657
0003e0 4c 61 aa bb b3 2b 7a 3d 05 ef 73 bd 88 9c 03 3d
       -0.005199587 0.06107683 -0.05955412 0.0321317
0003f0 a1 2e dc bd 75 f6 cf bc 41 ae 0a bd 4a 48 94 3c
       -0.10751081 -0.025386075 -0.033857588 0.018100876

brave f4 [384]
000000 a3 45 ca 3c 10 b9 7b 3d 68 b0 e0 bc 05 5c 56 3d
       0.024691409 0.061455786 -0.027427867 0.05233385
000010 6d 37 ed 3d 74 91 ab 3d 8a df a0 3c 0e 6b bd bc
       0.11582837 0.08377352 0.019637842 -0.023122337
000020 cd 05 8c bc f6 e5 fd 3b 90 df 37 3d 90 33 b5 bd
       -0.01709261 0.0077483607 0.04489094 -0.088477254
000030 61 bf 70 3d 0a 73 04 bd e9 09 d3 3c b2 48 0f bd
       0.058776263 -0.032336272 0.025761561 -0.034981437
000040 30 66 df 3c 6a 99 15 3c 9e da 11 bd 28 8f 9a 3d
       0.027270406 0.009130815 -0.03560888 0.07546836
000050 1e 30 08 bd 6a bb 1c 3d 1e 68 59 3d f5 f6 52 3c
       -0.033249013 0.03826467 0.05307781 0.012876262
000060 99 99 a8 bd 23 15 e2 3a c9 93 a2 3c 52 f3 5d 3d
       -0.082324214 0.0017248731 0.01984586 0.054187126
000070 21 54 a6 3d c5 44 88 bd df 0e 22 3d b7 bf 59 bc
       0.08121515 -0.06653742 0.039564963 -0.013290337
000080 13 ed 10 3d 98 f0 1c 3c bb 68 aa bd 41 f9 31 38
       0.03538234 0.009578846 -0.08320757 4.2432224e-05
000090 3b 87 b1 3c 64 ae dd 3c d0 6f 31 3d 69 ba 12 bd
       0.021670928 0.027060695 0.043319523 -0.035822306
0000a0 97 59 f1 bd 5a 08 ca bc a1 3f 4c bb 51 b8 09 3c
       -0.11784666 -0.024662185 -0.0031165855 0.008405761
0000b0 6b 15 c1 bc 09 c3 7e bc 4c 9e 4e bc b7 f9 5e bd
       -0.023569783 -0.01554943 -0.012610983 -0.054437365
0000c0 a0 cf 12 3d d7 f6 f2 bd 75 74 df 39 c7 72 b3 bd
       0.035842538 -0.11863487 0.00042620642 -0.087621264
0000d0 d3 9c 19 bd cf 72 ce bd c0 b6 c8 3c 3f 60 35 bd
       -0.037503075 -0.10080492 0.024501204 -0.04428124
0000e0 b7 69 32 3c 05 33 3e bd 78 78 85 3c ec 41 b2 3c
       0.010889462 -0.046435375 0.016292796 0.02175995
0000f0 c6 b6 c8 bc f9 f3 02 bd 23 f0 10 3c 01 69 e3 3c
       -0.024501216 -0.03197095 0.008846316 0.02776003
000100 2c 53 22 3c 2d 62 d4 3d 98 02 80 bc c2 bf 30 3d
       0.009907525 0.10370288 -0.015626237 0.043151625
000110 0c a1 2f 3d 83 e2 9e 3d e2 db 47 3b d6 25 c6 bb
       0.042878196 0.077580474 0.003049605 -0.006046991
000120 33 b6 21 3a 52 fe 95 bd 0f 57 0e bd 98 ec ba bc
       0.00061688124 -0.073238984 -0.034750994 -0.022817895
000130 c9 db 82 bb 37 62 68 bd 3e 5c 1b 3d f4 d0 35 3d
       -0.0039934856 -0.05673429 0.037929766 0.044388726
000140 60 a4 3f 3d e0 b4 e0 bd dc 99 6a bd bc c0 b4 3d
       0.04678762 -0.10971999 -0.057275638 0.08825824
000150 44 04 c0 bb 14 fe 1e bd 70 35 2d bd 5d 6e 4a bd
       -0.0058598835 -0.038816527 -0.04228729 -0.049421657
000160 78 f7 70 3c a5 29 ea 3c 56 bc ee bd 6b 10 c7 bc
       0.014707439 0.02858431 -0.11657016 -0.02429982
000170 be 5f cb 3d a0 2e bd 3d cb 1c 1a bd 02 dc 08 3b
       0.09930371 0.09237409 -0.037625115 0.0020883088
000180 f6 ec 17 bd 2d cc 4b bc fb cc 0d be 3d ef 26 3d
       -0.037091218 -0.012438816 -0.13847725 0.0407555
000190 73 dd 50 3d 80 de c4 bc 63 ea 8d bd a7 ec a9 3c
       0.05099244 -0.024031878 -0.06929471 0.020742727
0001a0 b4 19 82 3c b4 ee 45 bd 19 38 cf 3c b3 89 ce bd
       0.015881397 -0.04832335 0.025295304 -0.10084858
0001b0 db 61 fe bc 85 3e a3 3d 67 bf 89 bc 2d f8 48 bd
       -0.03105252 0.07970909 -0.0168149 -0.049064804
0001c0 db 92 12 bc 44 bf e6 3b 7d 92 98 3c af 65 a8 bb
       -0.008946146 0.0070418436 0.018624539 -0.0051390748
0001d0 a8 2a b0 bd c2 7c 82 bd 1a 51 11 3d af 62 2e 3d
       -0.08601886 -0.06371452 0.035477735 0.04257458
0001e0 01 88 de 3d 32 86 8c 3c a3 20 1d 3d f9 f6 8c bc
       0.108657844 0.017153833 0.038361203 -0.01720761
0001f0 6e fa 83 3d 46 14 f8 bc 9b 2a 86 bc 8d c3 b0 88
       0.0644425 -0.030283105 -0.016377738 -1.06385885e-33
000200 cf c5 99 3d 84 e9 40 3b bb 4d a1 3c 3f ad 91 3d
       0.07508432 0.002943606 0.019690385 0.07113122
000210 74 9a 09 3d 18 24 14 bd 45 21 d9 bb 96 02 57 bd
       0.033594564 -0.036167234 -0.0066262805 -0.0524927
000220 76 bc 8f bd 64 b5 ea 3d bb fd b1 bc 64 2b 8b bc
       -0.07018368 0.11460379 -0.021727433 -0.016988464
000230 db ab c3 ba 91 ba 0a 3d ff 37 5b bd db 45 88 bc
       -0.0014928536 0.03386933 -0.0535202 -0.016634872
000240 8e 19 ff bc 53 ad e8 bc 6b 94 5d bd 44 cc 10 bd
       -0.031140115 -0.02840296 -0.05409662 -0.035351053
000250 04 e9 ee bc 98 74 b9 3c 76 ba d3 bc 52 6c d6 bb
       -0.029163845 0.022638604 -0.025845747 -0.0065436745
000260 2a ec c8 3b 0f f4 60 3d ba 17 0a bd 0c 49 19 bd
       0.0061316686 0.054920252 -0.033714034 -0.03742318
000270 f4 ca 5c 3d e9 9e 32 3d 44 da 5a bd 5e 63 60 3d
       0.05390449 0.04360858 -0.05343081 0.054782264
000280 32 65 37 bd b6 32 f5 bc 3c f8 c4 3d e6 f7 65 3c
       -0.04477424 -0.029931407 0.096176594 0.014036154
000290 32 41 00 be 4f 54 57 bd 21 37 13 bd 6c c6 87 3c
       -0.1252487 -0.052570637 -0.035941247 0.016574107
0002a0 d2 a9 d1 bd fc 6e 4d 3c 27 9b e0 bc a9 91 0a bb
       -0.10237469 0.012538668 -0.027417732 -0.002114395
0002b0 2d 3c 57 3d 39 47 af 3d bf dd 39 bd ef 17 24 bd
       0.052547622 0.085585065 -0.04537749 -0.040061887
0002c0 d6 9d c7 bd 9c ac 28 3d 65 6b 5b bd bc cd 41 3d
       -0.09746902 0.041180238 -0.053569216 0.047315344
0002d0 81 34 46 bc 1c b2 76 3d f6 50 4d bd 47 6f 74 bc
       -0.012097479 0.060228452 -0.05012604 -0.014919109
0002e0 eb 52 ff 39 44 4d f4 3c 0b 33 8f bd d5 a4 33 bc
       0.0004869917 0.029822 -0.069921575 -0.010964592
0002f0 2b f0 d9 ba aa 4b 22 3d 65 ef 39 bd ce 68 c0 3c
       -0.0016627362 0.03962294 -0.04539432 0.023487475
000300 fa 8a 58 3d 43 22 cf bc 08 cb c5 bc b0 5f 17 bd
       0.052866913 -0.025284892 -0.024144664 -0.03695649
000310 62 fe 06 bd dd ef d8 3c 91 76 df bc 99 62 f1 3c
       -0.032957442 0.026481563 -0.027278217 0.02946596
000320 04 66 2f bd 64 c5 ec bd d9 ac 95 bc dc b0 72 bd
       -0.0428219 -0.11561087 -0.018270897 -0.059250697
000330 11 f0 ce 3d a7 6e b4 3c fc e0 3d 3d 8e a4 70 bd
       0.10104383 0.02202542 0.04635714 -0.05875068
000340 72 33 c6 bc 36 56 46 3d 69 d6 87 bd 3b a2 9c 3d
       -0.024194453 0.04842206 -0.06632692 0.076481305
000350 85 a4 77 3d 31 66 63 bd c4 f9 6c 3a 19 1f e1 bd
       0.060459632 -0.05551738 0.00090399035 -0.109922595
000360 26 fa 1e bd 54 60 3b 3d 13 53 6c 3d 74 0a 30 bc
       -0.03881278 0.045746163 0.057696413 -0.01074468
000370 71 20 3c 3d 90 c5 90 bc a7 08 1e be 57 ba 06 08
       0.045929376 -0.01767233 -0.15432988 4.05432e-34
000380 1a 1f a1 3d bf 42 0a bc cd 22 1c 3d 2b fe a9 3c
       0.0786726 -0.008438765 0.038119126 0.02075108
000390 fb 46 3b bc b9 7e f3 3c 8c 35 10 3d 87 a1 6d 3d
       -0.011430497 0.029723512 0.035207316 0.058015373
0003a0 f2 c3 d1 3d 21 72 09 3d 41 ff 81 bd 14 06 34 bb
       0.10242452 0.033556107 -0.06347514 -0.0027469443
0003b0 8f 2d 3f 3d 87 ca 12 bc dd 6f e9 3d 6a 4c 95 bc
       0.046674307 -0.008959419 0.11398289 -0.018224914
0003c0 23 0e 9e 3d 4c 9a e0 ba b9 4b 2e bd 01 e9 a9 bb
       0.0771754 -0.0017135828 -0.042552684 -0.005185247
0003d0 47 3e a7 3b 4f c9 e7 bc 08 be e0 bd 05 4a 4d bd
       0.0051038596 -0.028294234 -0.109737456 -0.05011942
0003e0 2f 44 0d 3d 1c cb 10 3c cf 90 03 bd 57 a3 84 bc
       0.034488853 0.008837488 -0.032120522 -0.016191168
0003f0 fa 21 27 bd 98 32 85 bd e9 19 0e 3d 6b 12 f1 3c
       -0.040803887 -0.065037906 0.03469268 0.029427728
